Assets/Quadruped 3.onnx (onnx, 328423 bytes, 14 tensors)

network_body._body_endoder.seq_layers.0.weight f4 [128, 96]
-0.022187933 -0.088611215 -0.03484741 -0.018067207 -0.092219025 -0.08886215 0.01735158 -0.02987366
0.09354603 0.07017525 0.2292016 -0.04700188 0.041635346 0.18680455 -0.32856417 -0.049046814
-0.12136847 -0.023107596 -0.004433791 -0.07098938 0.19453143 -0.27835736 0.10058508 -0.33055142
0.053735644 -0.020592555 0.15170701 0.01140654 -0.2944106 -0.044824243 -0.15384144 -0.16674207
0.18441589 -0.18532676 -0.038736105 -0.103737645 0.09632917 0.04632085 0.078940116 0.20069416
-0.03275895 -0.17394572 0.3200663 0.073754564 -0.1799807 0.079217725 0.024974301 0.15529113
-0.17047983 -0.04537421 -0.043567512 0.020846462 -0.1403306 -0.094443224 -0.08748309 0.01912461
0.12039238 0.00012611045 -0.14597972 -0.27567503 -0.09997671 0.175429 0.17464161 -0.074502274
-0.08853025 -0.23696706 -0.16299702 -0.15537784 -0.06112923 -0.043222405 0.12876692 -0.021515924
-0.008034674 -0.0057174135 0.07413067 -0.064334184 -0.041862715 0.081631556 -0.04255707 0.14997873
-0.095664844 -0.03797486 -0.12418879 0.12728739 -0.2664029 0.038555663 -0.08246682 -0.060605988
0.10324173 -0.14385468 0.17862992 -0.12183354 0.1243299 0.09099307 -0.2568445 0.090268165
-0.106630884 0.06627878 -0.19477256 -0.083626434 0.12824246 0.07494973 -0.038306862 0.085032985
-0.02988741 0.3189034 0.018974846 0.09765829 -0.024379665 -0.0866374 0.00035730025 -0.08219007
0.05530644 0.10173555 0.09725841 0.10794434 -0.12213098 0.10563497 -0.10687712 -0.08663883
-0.05132293 -0.11443658 0.19877544 -0.0765191 -0.12916823 0.0030118595 -0.04653386 0.08933854
0.0685992 -0.019181775 -0.055481993 0.015950548 0.26603326 -0.07317083 -0.1277677 0.018982675
0.04286661 0.19894393 -0.013527452 0.11116083 -0.12180029 0.22894952 0.089668095 -0.21040973
0.33258927 0.011879908 -0.005585787 -0.28515396 0.20693892 0.10372545 -0.14891823 0.12889001
0.11353536 -0.27775067 -0.1405309 0.06286003 -0.005092436 0.38104656 -0.12210354 -0.10488482
0.043493714 -0.0060285246 -0.10522296 -0.10279156 0.030844616 -0.017454682 0.18548284 -0.011997455
-0.11819359 -0.07973911 0.20085351 -0.14197019 -0.05426621 0.20685846 -0.018147923 0.20488724
-0.124696605 0.015112227 0.010665177 0.25824428 0.0876315 0.100287355 0.07173855 -0.21479213
-0.16126394 0.18659863 0.31940225 0.16454813 -0.10259425 0.26327288 -0.11387539 -0.0047302786
0.0016003557 0.14867678 -0.00040830317 0.2990759 -0.12329126 -0.1628619 0.005781196 -0.09637746
-0.12368585 -0.08909827 -0.12954867 0.028174832 0.14437436 0.11154887 -0.16416605 -0.008473613
-0.16551542 -0.02540939 0.007921663 0.02565585 0.15699457 -0.21621934 -0.027718825 -0.08968589
-0.15490073 -0.10211716 -0.03575587 0.04999974 -0.18314213 0.0028762014 -0.015081301 0.116024576
0.0016011975 0.12592392 -0.14993104 -0.02569356 -0.05124073 0.12891625 -0.25857294 0.0024228522
0.094152905 -0.29338393 -0.06066722 0.1508975 -0.068900466 -0.016343448 0.010427635 0.015278718
-0.33915666 0.016599394 0.06019622 -0.07807496 0.119684786 -0.10731943 0.016484754 0.07798912
-0.189368 0.05452613 -0.0826051 0.003044659 -0.09449175 -0.07419902 -0.027245468 -0.161012
00000000: 78c3 b5bc cc79 b5bd 28bc 0ebd ae01 94bc
00000010: 54dd bcbd 5cfd b5bd e724 8e3c 9bb9 f4bc
00000020: 1095 bf3d 0bb8 8f3d d3b3 6a3e 0b85 40bd
00000030: d389 2a3d b149 3f3e 9039 a8be 50e5 48bd
00000040: 0890 f8bd 244c bdbc 5649 91bb e162 91bd
00000050: 3f33 473e db84 8ebe 8dff cd3d 093e a9be
00000060: e819 5c3d b8b1 a8bc 1559 1b3e 7fe2 3a3c
00000070: fcbc 96be a099 37bd 9c88 1dbe 6fbe 2abe
00000080: 85d7 3c3e 4cc6 3dbe c0a9 1ebd 6774 d4bd
00000090: 3a48 c53d eeba 3d3d 5bab a13d c582 4d3e
000000a0: 402e 06bd d41e 32be bbdf a33e a20c 973d
000000b0: dc4c 38be e73c a23d e896 cc3c a304 1f3e
000000c0: 4492 2ebe 4fda 39bd d973 32bd 33c6 aa3c
000000d0: d3b2 0fbe 736b c1bd 562a b3bd 37ab 9c3c
000000e0: 4890 f63d 843c 0439 b57b 15be 4725 8dbe
000000f0: 97c0 ccbd a9a3 333e 40d5 323e a694 98bd
00000100: 594f b5bd 7ea7 72be b1e8 26be 5e1b 1fbe
00000110: a562 7abd fa09 31bd 7adb 033e 2a42 b0bc
00000120: dea3 03bc 2459 bbbb d2d1 973d a4c1 83bd
00000130: 3d78 2bbd 722e a73d 5250 2ebd 0694 193e
00000140: eeeb c3bd 878b 1bbd b156 febd a057 023e
00000150: f665 88be 8bec 1d3d 5de4 a8bd fc3d 78bd
00000160: 6670 d33d a44e 13be c3ea 363e dd83 f9bd
00000170: ada0 fe3d 935a ba3d 1f81 83be 84de b83d
00000180: 4b61 dabd 2bbd 873d 7572 47be 5644 abbd
00000190: fe51 033e 3e7f 993d a8e7 1cbd c625 ae3d
000001a0: 71d6 f4bc 4e47 a33e 2371 9b3c 1201 c83d
000001b0: ddb7 c7bc f36e b1bd 0754 bb39 4453 a8bd
000001c0: 0189 623d ba5a d03d 6b2f c73d ec11 dd3d
000001d0: cf1f fabd 2657 d83d 64e2 dabd b36f b1bd
000001e0: fe37 52bd ba5d eabd ca8b 4b3e 0cb6 9cbd
000001f0: ad44 04be 9e62 453b 4a9a 3ebd 20f7 b63d
00000200: bd7d 8c3d 1923 9dbc 1641 63bd b9aa 823c
00000210: 8335 883e 97da 95bd 89d5 02be 8e81 9b3c
00000220: e694 2f3d f5b7 4b3e 3fa2 5dbc 4aa8 e33d
00000230: 6e72 f9bd be71 6a3e e8a3 b73d a675 57be
00000240: 2449 aa3e f2a3 423c fa08 b7bb b3ff 91be
00000250: cce7 533e 026e d43d 057e 18be befb 033e
00000260: 3a85 e83d 5635 8ebe 55e7 0fbe c2bc 803d
00000270: 73de a6bb 8918 c33e 6c11 fabd dacd d6bd
00000280: 7726 323d ee8a c5bb 237f d7bd 6284 d2bd
00000290: d9ad fc3c 1ffd 8ebc 37ef 3d3e f990 44bc
000002a0: 7b0f f2bd 424e a3bd 8bac 4d3e a260 11be
000002b0: 3f46 5ebd b4d2 533e f4aa 94bc f6cd 513e
000002c0: ef60 ffbd 4699 773c ffbc 2e3c 9838 843e
000002d0: 2578 b33d 7563 cd3d a9eb 923d 78f2 5bbe
000002e0: 6022 25be b613 3f3e b188 a33e 4e7f 283e
000002f0: ef1c d2bd b4cb 863e 8037 e9bd 7400 9bbb
00000300: 07c3 d13a ba3e 183e 8611 d6b9 7a20 993e
00000310: 2180 fcbd 45c5 26be 3070 bd3b 8c61 c5bd
00000320: 024f fdbd 2779 b6bd 68a8 04be e8ce e63c
00000330: dfd6 133e bc73 e43d 251b 28be e9d4 0abc
00000340: e07c 29be 5a27 d0bc ddc9 013c 382c d23c
00000350: 2fc3 203e 9a68 5dbe 9712 e3bc 3cad b7bd
00000360: 4c9e 1ebe cd22 d1bd bf74 12bd 87cc 4c3d
00000370: 9c89 3bbe a77e 3c3b 9017 77bc 4b9e ed3d
00000380: 46df d13a 33f2 003e 8687 19be 4d7b d2bc
00000390: cde1 51bd 9f02 043e ac63 84be b7c8 1e3b
000003a0: 3dd3 c03d 6b36 96be 317e 78bd e084 1a3e
000003b0: b01b 8dbd b2e2 85bc acd8 2a3c 9753 7a3c
000003c0: f1a5 adbe 74fb 873c 5090 763d c4e5 9fbd
000003d0: 4c1d f53d 4aca dbbd 090b 873c c2b8 9f3d
000003e0: afe9 41be cb56 5f3d dd2c a9bd e788 473b
000003f0: e484 c1bd a8f5 97bd e331 dfbc 54e0 24be

network_body._body_endoder.seq_layers.0.bias f4 [128]
-0.030593466 0.02157473 -0.02407481 0.01678414 -0.0024342847 -0.0059657656 -0.008147837 -0.011568271
-0.026450815 0.023027895 0.018960267 -0.0063017304 0.05360377 -0.0139592085 0.027521953 0.017300092
-0.017207405 -0.023399392 -0.014275019 0.010493229 0.0059826514 -0.038196933 0.00090504857 0.019927388
-0.018392343 -0.22203617 0.03241348 0.036212828 -0.018042827 -0.02707846 -0.04504273 -0.01287452
0.016350891 0.017675333 -0.035300426 0.0024052903 -0.028732454 0.0057547535 0.008427644 0.019866735
0.049535353 -0.03716841 0.017052837 0.0159804 -0.03185211 0.0024056174 -0.020143202 -0.019022556
0.00028263486 -0.025451696 -0.031252857 0.03951704 -0.011610672 -0.013735539 -0.0037420127 -0.017078908
0.02895628 0.021696374 -0.03111423 0.012577531 -0.02832913 0.004566572 0.016801048 0.008253099
0.008065542 -0.018124541 0.019100254 -0.019610675 -0.022593673 -0.012956243 -0.035826363 0.008635387
-0.014155926 -0.012582824 0.004416428 0.010817372 0.012089627 0.018663848 0.0018577458 0.009302268
-0.014580552 0.027674247 -0.037288 -0.011105257 -0.004034614 -0.010020941 -0.0073755626 -0.008703281
-0.007952109 0.022798596 0.0058434564 0.010273555 0.023387047 -0.020885263 0.01411189 0.002854637
0.029997136 -0.020831706 -0.017152382 -0.017991466 -0.02271761 0.013354092 -0.003019268 -0.0076826187
0.037832133 0.0023717864 0.041516982 0.011730756 -0.0007262089 -0.009758384 -0.032795772 0.023724718
0.018089475 -0.113911524 0.017586531 -0.005009771 -0.017078001 -0.014720088 -0.025689082 0.011178113
0.009283626 -0.0015724106 0.043873455 0.015661057 -0.015948009 0.0019156869 0.0139378775 -0.0031433436
00000000: 269f fabc 7dbd b03c 8938 c5bc e57e 893c
00000010: 8588 1fbb 787c c3bb 817e 05bc d888 3dbc
00000020: 61af d8bc ffa4 bc3c 9052 9b3c bf7e cebb
00000030: a08f 5b3d 2ab5 64bc b875 e13c ecb8 8d3c
00000040: 8bf6 8cbc 15b0 bfbc c5e1 69bc cbeb 2b3c
00000050: 1e0a c43b 6374 1cbd c840 6d3a c33e a33c
00000060: 8aab 96bc 735d 63be ffc3 043d e753 143d
00000070: 8dce 93bc a6d3 ddbc ba7e 38bd a7ef 52bc
00000080: 4ef2 853c dccb 903c 2e97 10bd 13a2 1d3b
00000090: 5360 ebbc 5f92 bc3b 1a14 0a3c 90bf a23c
000000a0: 95e5 4a3d e73d 18bd 64b2 8b3c 54e9 823c
000000b0: 5c77 02bd 90a7 1d3b 5b03 a5bc 31d5 9bbc
000000c0: 9c2e 9439 1380 d0bc ff02 00bd 9fdc 213d
000000d0: b03a 3ebc 070b 61bc 8e3c 75bb 11e9 8bbc
000000e0: b835 ed3c 98bc b13c 45e3 febc fd11 4e3c
000000f0: 7e12 e8bc 2fa3 953b 5aa2 893c 0238 073c
00000100: 5625 043c eb79 94bc 2378 9c3c 91a6 a0bc
00000110: 5e16 b9bc 6c46 54bc aabe 12bd 707b 0d3c
00000120: 42ee 67bc 3028 4ebc afb7 903b 593b 313c
00000130: 9213 463c ede4 983c 9b7f f33a 8a68 183c
00000140: 44e3 6ebc 1ab5 e23c 4dbb 18bd d3f2 35bc
00000150: cc34 84bb df2e 24bc b4ae f1bb 3598 0ebc
00000160: 9049 02bc 1fc4 ba3c 777a bf3b 6a52 283c
00000170: 3196 bf3c 9217 abbc 8f35 673c dd14 3b3b
00000180: 8ebc f53c 41a7 aabc 2783 8cbc d762 93bc
00000190: 481a babc 1fcb 5a3c e9de 45bb 7abe fbbb
000001a0: def5 1a3d f96f 1b3b b60d 2a3d 5b32 403c
000001b0: 0e5f 3eba a1e1 1fbc dc54 06bd 575a c23c
000001c0: 6130 943c 724a e9bd a111 903c 0129 a4bb
000001d0: 2ae7 8bbc 862c 71bc e971 d2bc 6724 373c
000001e0: 5a1a 183c 5819 ceba a7b4 333d 9e4b 803c
000001f0: 66a5 82bc c917 fb3a b25b 643c 8e00 4ebb

network_body._body_endoder.seq_layers.2.weight f4 [128, 128]
-0.034697067 0.020892547 0.07277339 0.038011666 0.034520812 -0.052257877 -0.054771658 0.04036266
0.0662273 0.10257636 -0.08327371 -0.09117458 0.009221305 0.14510848 0.008755628 0.009946546
0.023760194 0.05660763 0.043978233 0.22047146 -0.123497956 -0.099503 -0.34570312 -0.12614895
0.005432697 0.1385518 -0.05492826 -0.0038636413 0.005716003 -0.05946896 -0.048831426 -0.037157565
-0.112078 -0.075176954 -0.25068155 -0.13258883 0.08857553 -0.030594604 0.052840907 0.10011799
-0.0993684 -0.07988415 0.0803608 0.020565407 0.009371476 0.0315317 -0.05023863 -0.059312336
0.030045023 0.17950967 0.103119515 0.012110752 -0.14571325 -0.17275345 -0.020150293 0.014802731
0.09336956 -0.124838725 -0.11707486 0.07014739 0.049442288 0.011078829 -0.07234132 -0.06030388
-0.033897173 -0.049811423 -0.05517832 0.10868968 0.041606337 0.12865226 -0.122387946 -0.02646515
-0.030384608 0.09796078 0.007924264 0.016253665 -0.14605065 0.07989816 0.129808 -0.0969563
-0.09371927 0.2060406 -0.094545744 0.12867995 -0.040090565 0.08801697 0.047501624 -0.07718725
0.04890482 -0.057831153 -0.07872084 0.1295359 0.008796125 0.047444742 0.02955758 -0.21751119
0.03557152 -0.08895117 0.04368029 -0.10254383 -0.059835333 -0.055188727 0.12552537 0.08984213
-0.058874857 0.19093598 0.09434757 -0.019221041 0.14980577 -0.020176988 -0.07290655 -0.081791304
0.25022852 -0.052129995 0.0057558413 0.20933674 0.068025015 0.019398205 -0.0048237424 -0.068123884
0.054409087 -0.088470876 -0.088714816 0.021095084 -0.1353328 -0.013639304 0.005348502 -0.022677891
0.046012577 0.07960465 0.008884307 0.22979467 -0.065852396 0.082667775 0.1264693 -0.055766944
-0.021805577 0.11259661 0.0473782 0.10348661 -0.20674764 0.022936953 0.07977775 0.036935132
0.013795043 0.020395933 -0.031866092 0.0005125398 0.039577927 -0.18169571 -0.10836306 -0.012526216
0.0070025544 0.032706622 -0.09714642 0.0019419368 0.04199404 0.09520655 -0.18655318 -0.15437108
0.06754588 -0.016904516 -0.14818588 -0.125255 0.075248346 -0.15279217 -0.06343175 -0.013637737
-0.008814176 -0.0429197 -0.050723188 -0.10869767 0.121297054 0.047213882 0.01631868 -0.032636005
-0.011081624 -0.1017069 -0.059425183 0.23481701 0.13144796 -0.0916347 0.076920494 -0.0007039592
-0.07900058 -0.04868043 -0.07904197 0.06782935 -0.028428316 -0.076362364 0.12721318 -0.049274374
0.0007959843 -0.05158697 -0.045531575 -0.14270288 0.08545068 -0.046285443 -0.10387391 0.019689841
-0.048699323 -0.1099123 -0.20200837 0.1924407 0.046507835 0.01454613 0.2183376 0.08155798
-0.085554704 -0.020584194 -0.07285152 0.028042683 -0.08941226 -0.12389875 0.08521112 0.0048157535
0.047278192 -0.022458272 -0.13353512 0.13236994 0.048079815 -0.12411908 -0.0361409 -0.078081034
-0.065699816 -0.063225195 -0.032752905 -0.04354348 -0.006155672 -0.039243594 -0.05298348 -0.0023759913
0.22033098 0.15310095 0.1356151 0.07930847 -0.032336306 0.07841759 0.00018997818 0.0934371
-0.032391872 -0.018275594 0.0870684 0.041323688 -0.060445502 -0.021825701 0.07906265 -0.08623311
0.12071654 -0.09366703 -0.09206249 -0.12350947 0.0405 0.001054081 -0.016995838 -0.010855613
00000000: 831e 0ebd d926 ab3c 370a 953d 1fb2 1b3d
00000010: b265 0d3d 5b0c 56bd 3f58 60bd 5153 253d
00000020: 2ea2 873d 8e13 d23d 688b aabd bdb9 babd
00000030: f514 173c 5197 143e c473 0f3c d6f6 223c
00000040: bda4 c23c 67dd 673d 8522 343d 45c3 613e
00000050: 7fec fcbd 3bc8 cbbd 0000 b1be 312d 01be
00000060: c404 b23b 86e0 0d3e 75fc 60bd 2535 7dbb
00000070: 4f4d bb3b b995 73bd 7603 48bd 8832 18bd
00000080: 2789 e5bd 60f6 99bd 5559 80be 5ec5 07be
00000090: 1667 b53d 89a1 fabc b56f 583d a90a cd3d
000000a0: a981 cbbd 4d9a a3bd 3494 a43d c978 a83c
000000b0: d28a 193c 6227 013d 06c7 4dbd 7ef1 72bd
000000c0: fb20 f63c 62d1 373e 5330 d33d 2d6c 463c
000000d0: db35 15be 48e6 30be 3a12 a5bc 2787 723c
000000e0: 8a38 bf3d 72ab ffbd f2c4 efbd 6fa9 8f3d
000000f0: ff83 4a3d fa83 353c b027 94bd 3401 77bd
00000100: c3d7 0abd 1007 4cbd a902 62bd b298 de3d
00000110: 686b 2a3d 6bbd 033e 88a6 fabd 71cd d8bc
00000120: 24e9 f8bc a99f c83d c6d4 013c 6826 853c
00000130: 4d8e 15be a6a1 a33d 63ec 043e 0691 c6bd
00000140: e3ef bfbd 4ffc 523e 33a1 c1bd adc4 033e
00000150: 0136 24bd 3e42 b43d 1091 423d 5914 9ebd
00000160: 6c50 483d 5ce0 6cbd 6438 a1bd 0fa5 043e
00000170: 9f1d 103c 6b55 423d bd22 f23c 41bb 5ebe
00000180: 71b3 113d 082c b6bd 1bea 323d 8002 d2bd
00000190: e515 75bd 930d 62bd b989 003e 27ff b73d
000001a0: c326 71bd b984 433e 4c39 c13d 7275 9dbc
000001b0: af66 193e 364a a5bc 0750 95bd 3382 a7bd
000001c0: f41d 803e 4386 55bd 7f9b bc3b 5f5c 563e
000001d0: b350 8b3d fce8 9e3c 7c10 9ebb 8984 8bbd
000001e0: 10dc 5e3d 3830 b5bd 1db0 b5bd 99cf ac3c
000001f0: ae94 0abe 6377 5fbc 7d42 af3b fcc6 b9bc
00000200: af77 3c3d c307 a33d 7c8f 113c 4b4f 6b3e
00000210: 9fdd 86bd b94d a93d 2b81 013e e16b 64bd
00000220: 9ca1 b2bc 0d99 e63d a50f 423d caf0 d33d
00000230: a7b5 53be 47e6 bb3c 8462 a33d 4b49 173d
00000240: 9b04 623c 5f15 a73c 0586 02bd f75b 063a
00000250: 771c 223d 710e 3abe 74ed ddbd c23a 4dbc
00000260: af75 e53b 61f7 053d b4f4 c6bd 9688 fe3a
00000270: f101 2c3d a7fb c23d cc07 3fbe 7413 1ebe
00000280: 7f55 8a3d 577b 8abc 0abe 17be d942 00be
00000290: ce1b 9a3d 8d75 1cbe 81e8 81bd d170 5fbc
000002a0: 5569 10bc 91cc 2fbd 1ec3 4fbd e29c debd
000002b0: 976a f83d 5863 413d c1ae 853c 55ad 05bd
000002c0: b38f 35bc b54b d0bd d267 73bd df73 703e
000002d0: 4b9a 063e f9aa bbbd 7e88 9d3d e789 38ba
000002e0: 0ecb a1bd 2165 47bd c2e0 a1bd 1dea 8a3d
000002f0: 80e2 e8bc df63 9cbd 2c44 023e edd3 49bd
00000300: 9aa9 503a dc4c 53bd 517f 3abd b420 12be
00000310: c400 af3d ce95 3dbd d8bb d4bd 974c a13c
00000320: f178 47bd b319 e1bd 48db 4ebe 2d0f 453e
00000330: 007f 3e3d e452 6e3c e493 5f3e df07 a73d
00000340: 4e37 afbd 2fa0 a8bc 2d33 95bd c5b9 e53c
00000350: c61d b7bd a1be fdbd 2b83 ae3d 78cd 9d3b
00000360: c7a6 413d 69fa b7bc 6ebd 08be fc8b 073e
00000370: 57ef 443d 2532 febd 7b08 14bd f3e8 9fbd
00000380: a08d 86bd 367c 81bd e927 06bd a65a 32bd
00000390: 85b5 c9bb e4bd 20bd 3505 59bd 85b6 1bbb
000003a0: 729e 613e 7fc6 1c3e afde 0a3e 7b6c a23d
000003b0: 1373 04bd 6799 a03d e134 4739 f35b bf3d
000003c0: 57ad 04bd b3b6 95bc eb50 b23d 0743 293d
000003d0: b495 77bd d0cb b2bc 99eb a13d fc9a b0bd
000003e0: 3c3a f73d 80d4 bfbd 428b bcbd 88f2 fcbd
000003f0: 54e3 253d 1729 8a3a db3a 8bbc bedb 31bc

network_body._body_endoder.seq_layers.2.bias f4 [128]
0.0057181967 0.0019708062 -0.006241765 -0.023314297 -0.016970094 -0.022183008 -0.01773137 -0.033609618
-0.033581506 -0.031469356 -0.00960426 -0.030511674 0.028994106 0.029826958 0.0036044624 -0.02878125
0.019118195 0.03069349 -0.011965499 0.01277684 0.013707223 0.033444133 0.025417855 -0.019469423
0.0031345875 -0.0072496785 0.014512478 -0.054430492 -0.0019753887 -0.008174597 -0.007943045 0.009463454
0.02925933 0.04148676 0.0634053 0.05068507 -0.024711242 -0.03643389 -0.0963054 -0.0039952393
0.0062412065 -0.048500758 0.007483856 0.06847039 -0.003141072 0.019786352 -0.034686357 -0.013838655
-0.022384286 0.050159685 0.015051746 -0.063828856 0.018225756 0.020921059 0.008101855 0.0468431
-0.02074945 0.04882602 -0.056226492 0.031861484 0.026212357 -0.004692998 0.0058586104 0.0011037432
-0.061254937 0.04548938 -0.04405682 0.017052474 -0.035751898 -0.0292175 0.027684519 0.047344852
-0.045138005 0.021563673 -0.025914144 -0.015952121 0.0062252632 0.0032358523 -0.042096198 0.036608074
-0.03228155 0.036659285 0.011771112 0.042852663 -0.054015554 -0.00072139245 0.008645061 -0.006953706
0.022068083 0.005053738 -0.019834332 0.0147596225 -0.0068762605 -0.040007193 0.011669123 -0.04562852
0.020169191 -0.0064488896 0.034052208 -0.0008384259 0.048386123 0.0077061444 0.0075843716 0.025789581
0.053318344 0.017034505 -0.017738298 -0.010184763 -0.028729696 -0.010969678 -0.057318367 -0.027730167
0.0074794115 0.019386165 0.022521358 -0.040099308 -0.009032556 -0.029344253 0.00075214816 0.054849412
-0.047357477 0.033479754 -0.05603683 -0.05584181 -0.006292694 -0.039055284 -0.049147118 0.02712968
00000000: b65f bb3b a428 013b b887 ccbb a0fd bebc
00000010: de04 8bbc 24b9 b5bc 6141 91bc 3daa 09bd
00000020: c38c 09bd 03e6 00bd 305b 1dbc 9ef3 f9bc
00000030: 0c85 ed3c aa57 f43c d838 6c3b a8c6 ebbc
00000040: c39d 9c3c ea70 fb3c f10a 44bc f355 513c
00000050: 4394 603c b7fc 083d 1b39 d03c 577e 9fbc
00000060: a76d 4d3b b68e edbb bfc5 6d3c 82f2 5ebd
00000070: 8675 01bb bfee 05bc 8c23 02bc 9a0c 1b3c
00000080: 43b1 ef3c 05ee 293d a3da 813d 269b 4f3d
00000090: 3b6f cabc b43b 15bd c43b c5bd 7fea 82bb
000000a0: 0983 cc3b bba8 46bd 223b f53b 343a 8c3d
000000b0: 72da 4dbb fd16 a23c 4813 0ebd 87bb 62bc
000000c0: 405f b7bc 3e74 4d3d 999b 763c b4b8 82bd
000000d0: 2e4e 953c a462 ab3c a5bd 043c 8dde 3f3d
000000e0: c0fa a9bc cbfd 473d c04d 66bd 3081 023d
000000f0: 4cbb d63c b8c7 99bb 96f9 bf3b 7aab 903a
00000100: 75e6 7abd 1253 3a3d ed74 34bd a1b1 8b3c
00000110: 9570 12bd 8a59 efbc a5ca e23c adec 413d
00000120: a1e2 38bd 4da6 b03c e649 d4bc 06ae 82bc
00000130: 4bfd cb3b 9810 543b 106d 2cbd 59f2 153d
00000140: a939 04bd 0c28 163d 9fdb 403c 4686 2f3d
00000150: 6a3f 5dbd d41b 3dba 04a4 0d3c eadb e3bb
00000160: 20c8 b43c d499 a53b 9c7b a2bc 58d2 713c
00000170: 4152 e1bb 95de 23bd d92f 3f3c f9e4 3abd
00000180: dc39 a53c 3551 d3bb 547a 0b3d cfc9 5bba
00000190: 8730 463d d383 fc3b 5286 f83b ac44 d33c
000001a0: 5664 5a3d f28b 8b3c e84f 91bc fedd 26bc
000001b0: 8a5a ebbc 2aba 33bc aac6 6abd 602a e3bc
000001c0: da15 f53b bccf 9e3c b67e b83c 2c3f 24bd
000001d0: 49fd 13bc 5c63 f0bc cf2b 453a c7a9 603d
000001e0: eaf9 41bd 1122 093d e086 65bd 62ba 64bd
000001f0: f132 cebb 6ff8 1fbd 7d4e 49bd 103f de3c

network_body._body_endoder.seq_layers.4.weight f4 [128, 128]
-0.018417373 -0.00077657454 -0.060382526 -0.06661302 -0.21042852 0.010344788 0.0034182963 -0.07772948
-0.10378571 0.06833315 0.058159776 -0.03942986 0.028831244 0.08090725 -0.16841878 -0.22257526
-0.12034472 0.1477353 0.06261145 -0.085201584 0.19742247 0.08899644 0.047582235 0.11647933
-0.22798616 0.033277523 0.085795455 -0.027772866 -0.05514535 -0.12961479 0.12507467 0.024015276
-0.09453505 0.06551213 -0.08042009 -0.01692275 -0.15337522 0.004778633 0.06600378 -0.03042865
-0.11253181 0.03782279 0.07693841 -0.11606617 -0.08997802 0.11215693 -0.038907193 -0.055668883
0.15209961 0.060117964 -0.21628545 -0.108277425 0.10130662 0.05438954 0.0671796 0.086900614
0.18122172 0.05068492 -0.076636806 0.078510754 0.04597735 -0.01715764 -0.05401052 -0.05459895
-0.013911324 0.095726445 0.070852704 -0.06522991 -0.117364496 0.034074776 -0.115885295 0.20553648
-0.037344053 0.13976574 0.095984265 -0.05025116 -0.16221519 0.11470558 0.062035788 -0.16285008
-0.08324264 -0.0032246406 -0.073850036 0.1047417 -0.074649885 -0.0424875 0.07024765 -0.20655254
0.05201049 -0.08872113 -0.048945658 -0.06952945 -0.10747838 -0.008563309 -0.23003334 0.14676838
0.01167215 0.09896873 0.07991414 -0.07651006 -0.14626294 -0.013072678 0.18174806 -0.04184977
-0.3034792 -0.087396644 -0.06899878 0.08712737 -0.16219984 -0.012189262 -0.14050925 -0.060700316
0.044538923 0.054833658 0.06715833 0.03468561 -0.05094658 0.20335618 -0.091323964 0.070729434
0.11649441 -0.063351735 -0.17561728 -0.07020122 -0.0692869 0.13417165 0.035806473 -0.1365743
0.14638686 -0.066359855 0.042034354 0.0036453444 0.06240608 -0.0037074985 0.040840063 -0.17725877
-0.04836262 -0.045778472 -0.06464596 0.08344235 -0.13612276 0.23737003 0.028074224 0.022028368
0.15369606 0.19988556 -0.21790653 0.04002156 -0.006122595 -0.12170099 0.099921554 0.18846878
0.3660536 -0.04145708 -0.13701552 -0.012745381 -0.0156195415 -0.08255866 0.16931567 -0.034825645
0.038036626 0.017831687 -0.11939134 0.114224106 0.05705899 0.15608115 -0.032578144 0.22937192
-0.14744519 0.009437956 -0.013412271 0.005580365 -0.12573187 -0.11037573 -0.05371293 0.10078306
0.05248015 0.043100987 0.10478037 -0.0011710959 0.16245554 -0.1309237 -0.06625263 -0.06785759
-0.13687252 0.16811736 -0.061473116 0.1529759 -0.024335688 -0.06653718 0.13548896 0.12431481
-0.015839392 -0.0032406917 0.18947223 -0.06493529 0.079966374 0.09998209 0.06226549 0.1779815
0.02549981 -0.067945555 -0.014347868 0.09150055 -0.013514388 -0.09952632 0.1367781 -0.09625469
0.00828868 0.15575184 0.027249947 -0.008871352 0.13121168 -0.15036614 0.010602491 0.017022107
-0.07015006 0.18604696 -0.006282521 -0.14776321 0.07699053 0.05515658 -0.03566363 -0.07356846
-0.0576265 -0.04764029 0.0649139 -0.04140856 -0.18179744 0.06102729 0.053144354 -0.072462335
-0.020336822 0.07323717 0.16920473 0.03442685 0.10544959 0.063942604 0.04617735 -0.20478715
-0.20811756 0.025269687 -0.021562774 0.07678379 -0.01980359 -0.03517826 0.14123867 -0.046809237
-0.15383641 -0.072700225 -0.08546365 -0.016746854 0.059238285 0.25117815 0.12446619 0.06845802
00000000: 08e0 96bc 0993 4bba ab53 77bd 686c 88bd
00000010: 937a 57be 307d 293c 7f05 603b a230 9fbd
00000020: 9a8d d4bd 40f2 8b3d f238 6e3d 3481 21bd
00000030: 802f ec3c b3b2 a53d f975 2cbe c5ea 63be
00000040: 4b77 f6bd ec47 173e 6f3a 803d 2b7e aebd
00000050: 1e29 4a3e c443 b63d 97e5 423d b78c ee3d
00000060: 3475 69be 034e 083d 87b5 af3d ec83 e3bc
00000070: 17e0 61bd bdb9 04be 9313 003e afbb c43c
00000080: 989b c1bd 392b 863d 4ab3 a4bd 94a1 8abc
00000090: 650e 1dbe 1496 9c3b fd2c 873d 8145 f9bc
000000a0: 1477 e6bd 12ec 1a3d e391 9d3d 1ab4 edbd
000000b0: 6546 b8bd 88b2 e53d 265d 1fbd 0e05 64bd
000000c0: 00c0 1b3e 413e 763d ef79 5dbe 8ec0 ddbd
000000d0: d879 cf3d 91c7 5e3d 7595 893d f3f8 b13d
000000e0: 3092 393e fe9a 4f3d c2f3 9cbd 3fca a03d
000000f0: bf52 3c3d 2e8e 8cbc 233a 5dbd 26a3 5fbd
00000100: 52ec 63bc 3a0c c43d 391b 913d 4297 85bd
00000110: cc5c f0bd fe91 0b3d 4555 edbd 2878 523e
00000120: 14f6 18bd c01e 0f3e 6693 c43d 29d4 4dbd
00000130: bd1b 26be c2ea ea3d 3d19 7e3d 2cc2 26be
00000140: 1e7b aabd 7e54 53bb b03e 97bd d182 d63d
00000150: 0ae2 98bd 5f07 2ebd 00de 8f3d 8282 53be
00000160: f408 553d 6cb3 b5bd 3e7b 48bd 7565 8ebd
00000170: a01d dcbd 1f4d 0cbc dc8d 6bbe 734a 163e
00000180: 8c3c 3f3c 1eb0 ca3d 06aa a33d 4eb1 9cbd
00000190: f4c5 15be c92e 56bc 2a1c 3a3e aa6a 2bbd
000001a0: a061 9bbe 03fd b2bd 3b4f 8dbd d66f b23d
000001b0: b717 26be 78b5 47bc a8e1 0fbe e5a0 78bd
000001c0: 726e 363d 4299 603d 4e8a 893d 8012 0e3d
000001d0: 5cad 50bd 9a3c 503e 0f08 bbbd 98da 903d
000001e0: 9f94 ee3d 8ebe 81bd 04d5 33be a8c5 8fbd
000001f0: 4ae6 8dbd 4b64 093e cfa9 123d 22da 0bbe
00000200: 70e6 153e ade7 87bd 372c 2c3d bbe6 6e3b
00000210: 859d 7f3d 81f9 72bb e947 273d 5383 35be
00000220: e217 46bd 3582 3bbd 1a65 84bd d3e3 aa3d
00000230: c463 0bbe 2111 733e eafb e53c d674 b43c
00000240: 8062 1d3e cdae 4c3e e422 5fbe a6ed 233d
00000250: 0da0 c8bb 5e3e f9bd aca3 cc3d f6fd 403e
00000260: 616b bb3e e6ce 29bd cc4d 0cbe 01d2 50bc
00000270: 1be9 7fbc 8414 a9bd 1661 2d3e 56a5 0ebd
00000280: 4bcc 1b3d c213 923c 7283 f4bd 54ee e93d
00000290: b0b6 693d bdd3 1f3e a970 05bd 79e0 6a3e
000002a0: dffb 16be a8a1 1a3c 24bf 5bbc 7fdb b63b
000002b0: dbbf 00be ac0c e2bd 1702 5cbd 5967 ce3d
000002c0: 6df5 563d a98a 303d 1797 d63d 757f 99ba
000002d0: bf5a 263e dd10 06be 75af 87bd ecf8 8abd
000002e0: 4f28 0cbe f526 2c3e 3ccb 7bbd b7a5 1c3e
000002f0: a35b c7bc a544 88bd 9ebd 0a3e c398 fe3d
00000300: 9dc1 81bc c961 54bb 0205 423e cbfc 84bd
00000310: 69c5 a33d 69c3 cc3d 190a 7f3d c840 363e
00000320: fae4 d03c 0a27 8bbd 5213 6bbc a464 bb3d
00000330: 746b 5dbc 75d4 cbbd 8f0f 0c3e 2e21 c5bd
00000340: 3ecd 073c 697d 1f3e 483b df3c 2659 11bc
00000350: 5b5c 063e 95f9 19be 12b6 2d3c f271 8b3c
00000360: d6aa 8fbd 1883 3e3e 9bdd cdbb 3d4f 17be
00000370: 36ad 9d3d deeb 613d 0714 12bd 10ab 96bd
00000380: c409 6cbd 7722 43bd 94f1 843d 069c 29bd
00000390: 1c29 3abe c0f7 793d e5ad 593d 2267 94bd
000003a0: 6899 a6bc 5ffd 953d 0144 2d3e 2b03 0d3d
000003b0: f4f5 d73d 57f4 823d 7624 3d3d b9b3 51be
000003c0: c51c 55be 6002 cf3c 6aa4 b0bc d240 9d3d
000003d0: 233b a2bc 1417 10bd dfa0 103e 0bbb 3fbd
000003e0: 4b87 1dbe dbe3 94bd 9107 afbd b330 89bc
000003f0: d8a3 723d 6c9a 803e 21e8 fe3d b833 8c3d

network_body._body_endoder.seq_layers.4.bias f4 [128]
0.028611623 0.044261508 -0.08198914 -0.007654247 -0.113076344 0.03399976 -0.076642565 -0.06687825
0.007805258 -0.011003691 -0.02599817 0.059781525 0.0387002 0.00779754 -0.051734373 -0.012517789
0.059824042 -0.08128011 -0.053921796 0.0031641605 -0.10063472 -0.13163611 -0.07918336 -0.084430985
-0.083107285 -0.012670867 -0.060080905 -0.092257135 0.0444293 0.054777473 0.07012236 -0.13678478
0.030378753 -0.030451452 -0.087303445 -0.08975927 0.053406082 0.028482176 -0.061242048 -0.027575051
-0.10397108 -0.038050685 0.035355918 0.041918088 -0.15226011 0.04949926 0.0395689 -0.12571236
0.007854914 0.08111162 -0.07819878 0.07196273 0.057319857 0.08614738 -0.090927325 0.08746002
0.05755097 -0.06465349 -0.10614977 0.0038393876 -0.057549257 -0.007798285 -0.02075121 -0.017253814
-0.10806636 0.00898068 -0.0786828 0.051845104 -0.16189928 -0.02738157 -0.039921157 0.0034810882
-0.05592652 -0.009416581 0.0415664 0.023008935 -0.08975659 0.06684459 -0.04024861 -0.014996794
-0.13524221 -0.10455507 0.00616144 -0.08516906 -0.044222947 0.041941833 0.09348664 -0.06896272
0.056279343 -0.080000624 0.10103161 -0.13375938 -0.010359762 0.07606558 0.054801818 -0.076508306
-0.016243218 -0.100230806 -0.0035124617 -0.018132623 -0.0033774632 -0.045316514 0.015064281 -0.13026838
0.057809316 -0.031464405 0.018542735 -0.0035003289 -0.04313545 -0.049384806 0.017537523 -0.027447024
-0.05483026 -0.06831921 0.09469732 -0.06212239 0.0126205515 -0.07072304 -0.06772014 0.015852509
0.0056266105 -0.015265155 0.0012473915 0.002538127 -0.03581528 -0.016551761 0.020327488 -0.061575286
00000000: ec62 ea3c 8e4b 353d ece9 a7bd 7ad0 fabb
00000010: 9294 e7bd 5543 0b3d c7f6 9cbd 77f7 88bd
00000020: 40c3 ff3b d348 34bc 1dfa d4bc 79dd 743d
00000030: 1a84 1e3d 8282 ff3b 6ce7 53bd 6a17 4dbc
00000040: 0e0a 753d 3076 a6bd 1add 5cbd ce5d 4f3b
00000050: 9319 cebd 9ecb 06be e32a a2bd 27ea acbd
00000060: 2734 aabd 7899 4fbc 6517 76bd 4ff1 bcbd
00000070: 7ffb 353d 585e 603d 509c 8f3d 4f11 0cbe
00000080: dddc f83c 5375 f9bc 26cc b2bd b5d3 b7bd
00000090: 56c0 5a3d 7453 e93c f1d8 7abd 13e5 e1bc
000000a0: caee d4bd 09db 1bbd 5ed1 103d 4db2 2b3d
000000b0: 13ea 1bbe bcbf 4a3d 0013 223d beba 00be
000000c0: e6b1 003c d91d a63d af26 a0bd 3261 933d
000000d0: 3ac8 6a3d 0a6e b03d 1b38 babd 3d1e b33d
000000e0: 91ba 6b3d 0d69 84bd 0d65 d9bd 3c9e 7b3b
000000f0: c5b8 6bbd c288 ffbb 71fe a9bc df57 8dbc
00000100: e551 ddbd b423 133c 7324 a1bd 885b 543d
00000110: edc8 25be 504f e0bc 5e84 23bd f822 643b
00000120: 3513 65bd 0148 1abc 8841 2a3d 3c7d bc3c
00000130: 4ed2 b7bd d1e5 883d badb 24bd 1db5 75bc
00000140: ef7c 0abe f820 d6bd e8e5 c93b 1e6d aebd
00000150: 1f23 35bd 33cb 2b3d ec75 bf3d 543c 8dbd
00000160: 2b85 663d 5ed7 a3bd a9e9 ce3d 38f8 08be
00000170: febb 29bc 45c8 9b3d df77 603d 63b0 9cbd
00000180: 7f10 85bc cf45 cdbd 5431 66bb de8a 94bc
00000190: 6e58 5dbb cf9d 39bd 2dd0 763c 1365 05be
000001a0: 76c9 6c3d d2e0 00bd efe6 973c c665 65bb
000001b0: ccae 30bd b947 4abd daaa 8f3c 95d8 e0bc
000001c0: b295 60bd f1ea 8bbd abf0 c13d 0c74 7ebd
000001d0: 6ec6 4e3c 3ed7 90bd dbb0 8abd 1fdd 813c
000001e0: 6e5f b83b b31a 7abc 837f a33a b456 263b
000001f0: 0bb3 12bd 8f97 87bc d585 a63c 5e36 7cbd

network_body._body_endoder.seq_layers.6.weight f4 [128, 128]
0.16014448 0.008196857 0.042264562 0.22362043 -0.1329821 -0.081978984 -0.05771974 -0.18483447
-0.057593655 0.16029727 0.041620877 -0.012219705 0.072099015 0.03904203 -0.2490097 0.00350306
-0.11047382 -0.13938123 0.048834875 -0.009197121 -0.21464129 0.035061218 0.00458324 -0.22875156
-0.098822296 0.11943335 0.08212151 -0.18399951 0.05543048 -0.20656382 0.09801552 0.062500864
-0.0047879857 -0.10077004 -0.08801468 0.06431996 -0.040798444 0.07883726 -0.053436223 0.13555956
-0.11971972 -0.22828878 0.053423937 -0.045705788 -0.0897607 0.17857169 -0.10938635 -0.18343593
-0.11484316 0.07750076 -0.16765288 0.078728445 -0.034077644 -0.010507119 -0.026462039 -0.052175462
0.09496314 -0.04262946 -0.17922449 0.19914329 -0.09125459 -0.021870133 0.03247565 -0.084064335
-0.042266123 -0.023672095 -0.3581963 0.020217076 -0.11318526 0.025161514 0.02388205 0.023392227
-0.17755459 0.024538523 0.052600585 -0.07409011 -0.056260668 -0.014791715 -0.016747493 -0.002169138
-0.18088044 -0.026254905 0.0070665386 -0.07736056 -0.10875649 -0.0526086 0.12749998 0.13055418
0.0043765465 -0.10381944 0.052717518 -0.015311893 -0.06445836 0.13517055 -0.18617123 -0.00030963722
-0.009194074 -0.14033444 -0.13234289 -0.030180203 -0.029918049 -0.080112584 -0.111630954 -0.048288707
0.12448391 0.05124076 -0.044234067 0.081522666 0.08456351 -0.11901245 0.067688994 0.0013144317
0.08990534 -0.2618247 -0.10622295 -0.040776405 -0.045715004 -0.15480155 -0.07232663 0.09491765
-0.20802362 0.026557947 -0.02604674 -0.14249128 0.082126915 0.033106115 0.031900037 -0.1478528
0.094748564 0.11791288 -0.017220577 0.06705018 0.06122056 0.032641523 0.047065698 -0.058586754
-0.059667874 0.018629288 0.07555186 0.034710847 0.06857373 0.009511334 0.21554492 -0.038072065
0.13513649 -0.0593899 0.11474596 0.24312161 0.015303228 0.16783665 0.06794685 0.095793694
0.09377437 -0.023306984 -0.02058997 0.005812941 0.0145264845 0.07967476 -0.028765395 0.05083034
0.21290463 0.0008393056 -0.15232232 0.16311003 0.10551043 0.10084387 0.15628134 0.28166166
-0.08527847 -0.007663302 0.07900701 0.046678808 0.04996287 -0.03789804 0.12572451 0.018839374
0.032804795 0.007568139 -0.016419558 -0.06712315 0.08169363 -0.002325652 0.026350206 0.061488375
0.054659985 -0.017328579 0.07372316 0.09544177 0.0699906 0.13341515 0.10188529 -0.015898077
0.14578408 0.017906627 0.07874466 -0.12918767 0.08961742 0.0034479478 0.13482687 -0.045600962
0.069885515 0.054853074 0.20455158 0.021376643 0.14328626 -0.046534672 0.028780084 -0.015456067
0.019020611 -0.017793685 0.20748797 0.1167278 0.19727312 -0.016224163 0.18654862 0.060250785
-0.06676873 0.17086437 -0.038358506 0.14492586 -0.09000623 0.13155885 -0.028835794 0.056268025
0.0759188 0.08745817 -0.014318129 0.032243215 0.33926854 0.10060184 -0.1300549 -0.119389266
0.0468 0.067691445 -0.12877083 -0.08001948 0.22944443 0.027853612 0.009458313 0.08125694
0.086433694 0.015727233 0.015884442 -0.1067164 0.06734247 0.1494504 0.1434829 0.01559285
-0.059230223 0.17486317 -0.021511918 0.06731427 0.13559774 0.022773936 0.079609044 0.099941984
00000000: eafc 233e 1c4c 063c 9b1d 2d3d c1fc 643e
00000010: 762c 08be 99e4 a7bd 896b 6cbd 3f45 3dbe
00000020: 53e7 6bbd f824 243e a77a 2a3d 2835 48bc
00000030: a6a8 933d 89ea 1f3d 66fc 7ebe 9893 653b
00000040: 1940 e2bd f4b9 0ebe 1407 483d 85af 16bc
00000050: edca 5bbe 5a9c 0f3d 012f 963b d93d 6abe
00000060: 5863 cabd 7999 f43d 522f a83d 5e6a 3cbe
00000070: 120b 633d 7785 53be 5cbc c83d 7400 803d
00000080: 89e4 9cbb 8660 cebd 0a41 b4bd 2fba 833d
00000090: 451c 27bd 6e75 a13d f1df 5abd 20d0 0a3e
000000a0: 9d2f f5bd 89c4 69be 0fd3 5a3d fe35 3bbd
000000b0: 75d4 b7bd 7fdb 363e f305 e0bd a1d6 3bbe
000000c0: e432 ebbd b8b8 9e3d 32ad 2bbe 613c a13d
000000d0: 0095 0bbd 0d26 2cbc ebc6 d8bc f0b5 55bd
000000e0: 097c c23d 3b9c 2ebd a086 37be 38ec 4b3e
000000f0: b0e3 babd fe28 b3bc 3005 053d ec29 acbd
00000100: 3e1f 2dbd fbeb c1bc 8165 b7be 489e a53c
00000110: accd e7bd 851f ce3c 4aa4 c33c 0ea1 bf3c
00000120: dfd0 35be 0305 c93c b673 573d 8ebc 97bd
00000130: 9671 66bd f358 72bc 0a32 89bc 1928 0ebb
00000140: b938 39be 8714 d7bc 6c8e e73b 376f 9ebd
00000150: b9bb debd 1e7c 57bd 5b8f 023e ffaf 053e
00000160: 2269 8f3b 499f d4bd 53ee 573d bcde 7abc
00000170: bf02 84bd 266a 0a3e aca3 3ebe ce56 a2b9
00000180: bea2 16bc d5b3 0fbe e584 07be 793c f7bc
00000190: b216 f5bc 1112 a4bd c59e e4bd 61ca 45bd
000001a0: 6cf1 fe3d d5e1 513d c82e 35bd 5bf5 a63d
000001b0: a22f ad3d cdbc f3bd 87a0 8a3d 0249 ac3a
000001c0: 4a20 b83d e30d 86be 6b8b d9bd 2905 27bd
000001d0: a83f 3bbd 4c84 1ebe fc1f 94bd 2f64 c23d
000001e0: 2504 55be 0d90 d93c f95f d5bc 3ce9 11be
000001f0: 2832 a83d 479a 073d 9da9 023d b966 17be
00000200: 890b c23d 4f7c f13d 2b12 8dbc 9b51 893d
00000210: 69c2 7a3d 1eb3 053d f6c7 403d aaf8 6fbd
00000220: 4d66 74bd 739c 983c efba 9a3d f62c 0e3d
00000230: 6270 8c3d 6dd5 1b3c cfb7 5c3e 74f1 1bbd
00000240: 3861 0a3e d342 73bd eeff ea3d dff4 783e
00000250: 64ba 7a3c 5fdd 2b3e b827 8b3d 7c2f c43d
00000260: c70c c03d 4aee bebc 4cac a8bc 7c7a be3b
00000270: 7e00 6e3c 852c a33d 68a5 ebbc 7933 503d
00000280: ac03 5a3e d804 5c3a 62fa 1bbe 5106 273e
00000290: da15 d83d 3b87 ce3d 3708 203e f535 903e
000002a0: 7aa6 aebd 701c fbbb 6dce a13d 4732 3f3d
000002b0: dea5 4c3d fa3a 1bbd edbd 003e 0855 9a3c
000002c0: 525e 063d 27fe f73b 4f82 86bc dd77 89bd
000002d0: fd4e a73d f769 18bb 63dc d73c 3cdb 7b3d
000002e0: 26e3 5f3d aaf4 8dbc 2bfc 963d fa76 c33d
000002f0: 3b57 8f3d fb9d 083e 3ca9 d03d af3c 82bc
00000300: 6c48 153e ebb0 923c e144 a13d c649 04be
00000310: 5789 b73d f7f6 613b 0e10 0a3e 13c8 3abd
00000320: 2320 8f3d 9ead 603d f875 513e 121e af3c
00000330: a2b9 123e 249b 3ebd 36c4 eb3c 723b 7dbc
00000340: 1dd1 9b3c 10c4 91bc ba77 543e fc0e ef3d
00000350: f701 4a3e 89e8 84bc 9a06 3f3e 87c9 763d
00000360: 0bbe 88bd 12f7 2e3e cf1d 1dbd 7267 143e
00000370: 3055 b8bd 5db7 063e 0b39 ecbc 4d79 663d
00000380: 517b 9b3d 451d b33d 9696 6abc 7611 043d
00000390: 9bb4 ad3e 5608 ce3d 1d2d 05be 5c82 f4bd
000003a0: 5bb1 3f3d d0a1 8a3d 80dc 03be 41e1 a3bd
000003b0: 7bf3 6a3e 422d e43c 0af7 1a3c 0a6a a63d
000003c0: 2604 b13d 66d6 803c 1720 823c 218e dabd
000003d0: d9ea 893d 8709 193e 2eed 123e 2779 7f3c
000003e0: 649b 72bd 550f 333e c339 b0bc 10dc 893d
000003f0: 22da 0a3e 6890 ba3c 110a a33d 62ae cc3d

network_body._body_endoder.seq_layers.6.bias f4 [128]
0.06712389 -0.066939056 -0.09916957 -0.08812941 0.016477566 -0.010696112 0.009048575 0.0532735
-0.16440812 -0.09657594 0.03138941 -0.07384006 0.0074401265 -0.17808643 -0.0064728432 -0.004601783
0.03213325 -0.084839925 0.06956442 0.036526907 -0.14795415 -0.1395695 -0.008266555 -0.010776624
0.08084537 -0.16980194 -0.14154923 0.06008018 0.09108353 0.061068863 -0.025425037 -0.023713358
-0.14102857 0.049825594 -0.0023485215 0.001763045 0.028084729 0.010263981 -0.026081638 0.09049878
0.07965782 0.092278644 0.088739544 0.067754425 -0.019845435 -0.15168776 0.044740874 -0.14726496
-0.04415917 -0.050247088 -0.20713422 -0.16581956 -0.20445985 -0.0020871563 0.017323183 -0.09889164
-0.09019401 0.040418923 0.040908843 0.06297229 -0.08845883 -0.082615815 -0.13229638 -0.13493451
-0.038573198 -0.08245455 -0.024550611 -0.013791916 0.0053898115 0.03216071 -0.094202936 -0.00023297584
-0.12992957 0.04124863 0.046359487 -0.020201456 0.045531154 -0.031530514 0.03969839 -0.023767939
-0.15301119 -0.121112555 0.029951347 -0.18339735 -0.18592827 -0.1594947 -0.076330625 0.050525367
-0.040221944 0.01899735 -0.18774964 -0.069691405 0.110116996 0.1255131 -0.15555947 -0.0742605
0.02919334 -0.13305178 -0.032135926 -0.011157708 0.07264257 0.027815279 -0.08974863 0.026221383
-0.06836104 -0.14295325 0.054042935 -0.21938737 -0.068026066 0.05263344 -0.021728246 -0.030579988
0.036787875 -0.03850928 0.029366164 -0.08479866 0.07673763 -0.027253835 -0.072755635 -0.109607466
-0.050433416 -0.038868256 -0.16572969 -0.019571539 0.012454167 -0.031679798 0.016918961 0.05187854
00000000: 4078 893d 5817 89bd 6a19 cbbd 317d b4bd
00000010: f6fb 863c bf3e 2fbc 7940 143c 5035 5a3d
00000020: 9a5a 28be 9bc9 c5bd 2f92 003d 7539 97bd
00000030: 4ecc f33b 4a5c 36be 251a d4bb 8eca 96bb
00000040: 289e 033d 8ec0 adbd ca77 8e3d 3d9d 153d
00000050: 4b81 17be 4feb 0ebe 7270 07bc 7090 30bc
00000060: 4292 a53d 8fe0 2dbe 48f2 10be a316 763d
00000070: 008a ba3d 5823 7a3d 2b48 d0bc 8442 c2bc
00000080: cb69 10be ec15 4c3d a7e9 19bb f915 e73a
00000090: f211 e63c 422a 283c 29a9 d5bc 6d57 b93d
000000a0: a423 a33d 96fc bc3d 14bd b53d d5c2 8a3d
000000b0: e592 a2bc 0954 1bbe 3542 373d a0cc 16be
000000c0: 3fe0 34bd e4cf 4dbd fe1a 54be 9acc 29be
000000d0: ec5d 51be acc8 08bb 59e9 8d3c b387 cabd
000000e0: a3b7 b8bd 508e 253d 0890 273d 9ef7 803d
000000f0: e729 b5bd 7b32 a9bd b478 07be 462c 0abe
00000100: eefe 1dbd eedd a8bd 5d1e c9bc 7df7 61bc
00000110: 049d b03b f3ba 033d 78ed c0bd fa4a 74b9
00000120: 420c 05be 53f4 283d 72e3 3d3d 867d a5bc
00000130: e07e 3a3d 2426 01bd c79a 223d fbb4 c2bc
00000140: f7ae 1cbe dc09 f8bd 875c f53c 84cc 3bbe
00000150: fb63 3ebe 9452 23be 3b53 9cbd b0f3 4e3d
00000160: c4bf 24bd 55a0 9b3c 7141 40be 5eba 8ebd
00000170: 0585 e13d 8286 003e fb4a 1fbe e415 98bd
00000180: df26 ef3c ba3e 08be f6a0 03bd d2ce 36bc
00000190: a1c5 943d dedc e33c 21ce b7bd 3ace d63c
000001a0: df00 8cbd 5662 12be 205c 5d3d 15a7 60be
000001b0: 4051 8bbd 2996 573d 6fff b1bc e282 fabc
000001c0: e2ae 163d e8bb 1dbd 4f91 f03c ebaa adbd
000001d0: 9e28 9d3d 6f43 dfbc e800 95bd e179 e0bd
000001e0: 4593 4ebd 5234 1fbd 0bb5 29be 7e54 a0bc
000001f0: 900c 4c3c adc2 01bd a299 8a3c 987e 543d

network_body._body_endoder.seq_layers.8.weight f4 [128, 128]
-0.0730643 0.12943238 -0.020732563 0.07823429 0.19343516 0.03285402 0.24550691 0.008645218
-0.08237166 -0.05489138 0.16713768 -0.06381796 0.056370266 0.15020737 -0.13056728 0.037823204
0.054060128 0.07980446 0.15104078 -0.073527806 -0.13127442 -0.09124426 -0.3648533 0.033306222
0.050376974 -0.0031669154 -0.1558221 0.064774826 0.10514139 0.22383359 0.057697263 -0.076103926
0.1770465 -0.109707065 -0.05720725 -0.15247305 -0.022924332 0.13308612 -0.0805051 0.048342228
0.081897765 -0.08847774 0.012845888 0.12521416 0.0365655 0.13806869 0.020860702 -0.090318315
0.2059767 0.048909873 -0.20369211 0.045609824 -0.036760326 -0.077562414 0.09720632 -0.09021774
0.1560181 0.076445445 0.073576964 -0.025860384 0.22169524 -0.07042001 -0.10655314 -0.080022156
-0.024414232 0.12419759 0.138866 -0.05298378 0.19180751 0.074082635 -0.015963474 0.21487811
-0.2651181 0.21953817 0.2616442 -0.0056373333 0.084109776 0.06063504 0.14824106 0.14584054
0.0013189131 -0.13141838 -0.006679618 -0.20987017 -0.060397908 -0.14640617 -0.03994969 0.0898268
-0.010636281 0.05075203 -0.056696832 0.14035462 0.23715413 0.11917397 0.10500265 -0.097267404
0.09132134 0.15042041 -0.040388186 0.08996939 -0.028973388 -0.06352154 -0.11806574 -0.08312508
-0.06982838 0.21288617 -0.011051956 -0.19047588 0.047112603 -0.090530634 -0.142633 -0.09031312
-0.02835966 0.0596914 0.027271131 -0.15748921 0.20821166 -0.22373253 0.2067633 0.036111552
0.016219033 -0.010628732 -0.10266189 0.05391984 0.06861909 -0.07082887 0.024333727 0.08456007
0.017468035 0.09812295 -0.0026690157 0.02547212 -0.13090976 -0.06036483 -0.07816621 0.07120354
-0.070431605 -0.20811135 0.03989124 0.07267391 0.3389115 -0.1166549 0.10290886 -0.28730017
0.09827745 -0.004032431 0.017347205 0.22197214 0.01293592 -0.08913072 0.02523697 -0.081755646
0.01565131 0.05642851 0.13458575 0.09230508 -0.019584483 -0.15658252 -0.13603863 -0.061980207
0.06712317 0.14031476 -0.13542534 -0.071852855 0.00940291 0.06335319 -0.07011803 -0.028459571
0.1374242 -0.005886616 -0.10395694 -0.22695297 -0.17085604 0.043120198 -0.010479211 0.13793007
-0.032912772 0.030200994 -0.029134657 -0.12692411 0.098825976 -0.08032475 -0.04321791 0.10362622
-0.13672073 -0.041954756 -0.017549152 -0.17794923 -0.11715549 0.012999703 0.12993139 0.09655797
-0.03245787 0.04161271 -0.10557197 -0.10807535 -0.141496 0.0373248 0.030218067 -0.13098937
0.14351456 -0.07081628 -0.16213544 -0.10757159 -0.06325438 -0.17940362 0.019431356 -0.05779451
-0.012709258 0.025178028 -0.022112722 0.09443947 -0.18419378 0.093646124 0.05006653 0.071025476
0.13621666 -0.0023824861 0.0765234 -0.0503109 -0.019756002 -0.19298394 0.17337924 0.09364187
-0.18276607 0.028512347 0.05872792 -0.16811255 0.0005177716 -0.20328453 -0.04302955 -0.07219163
-0.045273606 -0.07813023 0.0029504409 0.11013088 -0.04142763 -0.11981813 -0.054168973 0.15073036
0.0034635912 0.08020928 -0.16362382 0.030703902 -0.13794217 0.049510226 -0.028090263 -0.017694332
-0.062087934 -0.13605064 0.16539356 -0.12296966 -0.11964946 -0.19480321 -0.028522642 -0.10473417
00000000: bca2 95bd ec89 043e 56d7 a9bc 4d39 a03d
00000010: de13 463e f091 063d 2a66 7b3e aca4 0d3c
00000020: 79b2 a8bd c9d5 60bd 2426 2b3e feb2 82bd
00000030: 82e4 663d f6cf 193e 6eb3 05be 81ec 1a3d
00000040: 276e 5d3d 8570 a33d 6faa 1a3e bf95 96bd
00000050: cd6c 06be 45de babd 0dce babe 1b6c 083d
00000060: 1658 4e3d 068c 4fbb d48f 1fbe aaa8 843d
00000070: 5e54 d73d a234 653e f753 6c3d 60dc 9bbd
00000080: ad4b 353e 19ae e0bd 2652 6abd e521 1cbe
00000090: cfcb bbbc ba47 083e dcdf a4bd 8002 463d
000000a0: 04ba a73d d133 b5bd 8f77 523c 2438 003e
000000b0: b5c5 153d e161 0d3e 10e4 aa3c cff8 b8bd
000000c0: 8eeb 523e b855 483d aa94 50be 5ed1 3a3d
000000d0: ff91 16bd 0bd9 9ebd 1b14 c73d 14c4 b8bd
000000e0: 35c3 1f3e 6e8f 9c3d 85af 963d 28d9 d3bc
000000f0: 1404 633e 5e38 90bd 8838 dabd a8e2 a3bd
00000100: 5b00 c8bc 4e5b fe3d e432 0e3e 8505 59bd
00000110: 3069 443e a3b8 973d d5c5 82bc 0209 5c3e
00000120: 8fbd 87be 9dce 603e 3bf6 853e 61b9 b8bb
00000130: bf41 ac3d 735c 783d 81cc 173e 3957 153e
00000140: 61df ac3a 8a92 06be b2e0 dabb 35e8 56be
00000150: cc63 77bd 80eb 15be 49a2 23bd 1df7 b73d
00000160: cc43 2ebc 5ce1 4f3d f03a 68bd 1fb9 0f3e
00000170: 88d8 723e 7b11 f43d a10b d73d 2234 c7bd
00000180: af06 bb3d cf07 1a3e 156e 25bd df41 b83d
00000190: 9959 edbc 9517 82bd 73cc f1bd 7b3d aabd
000001a0: 2f02 8fbd d5fe 593e 4313 35bc 1c0c 43be
000001b0: 25f9 403d 2068 b9bd 630e 12be 16f6 b8bd
000001c0: 8552 e8bc f87e 743d b567 df3c da44 21be
000001d0: 7035 553e 241a 65be c2b9 533e b5e9 133d
000001e0: c7dd 843c 2224 2ebc 6640 d2bd 0ddb 5c3d
000001f0: 2a88 8c3d ba0e 91bd 8657 c73c d42d ad3d
00000200: 2019 8f3c aff4 c83d a7ea 2ebb e8aa d03c
00000210: 350d 06be 1d41 77bd 9b15 a0bd 29d3 913d
00000220: 723e 90bd 241b 55be ff64 233d 0fd6 943d
00000230: cf85 ad3e c4e8 eebd e1c1 d23d 0219 93be
00000240: b045 c93d 7c22 84bb ba1b 8e3c aa4c 633e
00000250: 2ef1 533c 2b8a b6bd c3bd ce3c 816f a7bd
00000260: 2d37 803c 9521 673d d9d0 093e 720a bd3d
00000270: a36f a0bc 2b57 20be b64d 0bbe f5de 7dbd
00000280: df77 893d acae 0f3e f1ac 0abe 9727 93bd
00000290: aa0e 1a3c 51bf 813d 0b9a 8fbd 0c24 e9bc
000002a0: eeb8 0c3e 84e4 c0bb 60e7 d4bd 5c66 68be
000002b0: e3f4 2ebe ce9e 303d ffb0 2bbc 8a3d 0d3e
000002c0: 8bcf 06bd 1368 f73c ceab eebc 65f8 01be
000002d0: 4665 ca3d 4d81 a4bd 4305 31bd fc39 d43d
000002e0: 8500 0cbe c0d8 2bbd 3dc3 8fbc 5338 36be
000002f0: 38ef efbd b5fc 543c bc0c 053e 2fc0 c53d
00000300: 8bf2 04bd 1772 2a3d 1e36 d8bd 9c56 ddbd
00000310: 54e4 10be e4e1 183d e18b f73c 1422 06be
00000320: 7bf5 123e 2008 91bd d506 26be 7e4e dcbd
00000330: 838b 81bd 95b5 37be 822e 9f3c f0b9 6cbd
00000340: 7e3a 50bc 2742 ce3c bd25 b5bc 7b69 c13d
00000350: 4b9d 3cbe 8ac9 bf3d 9012 4d3d ce75 913d
00000360: 617c 0b3e 7c23 1cbb 4db8 9c3d cd12 4ebd
00000370: 57d7 a1bc 959d 45be 548a 313e 4fc7 bf3d
00000380: 0727 3bbe ba92 e93c b08c 703d b225 2cbe
00000390: 10bb 073a d229 50be c13f 30bd 35d9 93bd
000003a0: d170 39bd be02 a0bd 2f5c 413b 4c8c e13d
000003b0: 05b0 29bd 3563 f5bd 49e0 5dbd 0f59 1a3e
000003c0: 6bfd 623b c344 a43d 018d 27be c086 fb3c
000003d0: b640 0dbe 3ccb 4a3d 8d1d e6bc b4f3 90bc
000003e0: eb4f 7ebd dc50 0bbe ee5c 293e 84d7 fbbd
000003f0: c70a f5bd 7e7a 47be 51a8 e9bc de7e d6bd

network_body._body_endoder.seq_layers.8.bias f4 [128]
0.10949716 -0.09640301 -0.10389962 0.069259614 -0.0858053 0.0981895 0.09282304 -0.17643028
-0.12218502 0.031983454 0.043872576 0.08746652 0.10039616 0.058146514 -0.20331395 0.05981318
-0.09967574 -0.024034 -0.10909065 -0.07206062 0.07459835 -0.04441671 -0.062400125 -0.114187576
-0.16370799 -0.14892788 0.026940059 0.11232983 -0.053441186 -0.04998459 -0.15168495 -0.1556975
-0.009446767 0.07281656 -0.10186242 -0.0062319553 0.042055786 -0.012016095 0.0033135575 -0.039756484
0.10007199 0.055214528 0.004356263 0.07973543 -0.093962975 -0.22677168 -0.09370878 -0.021783603
-0.09377928 0.103640825 -0.0044925916 -0.042127404 -0.1285569 -0.19941366 0.034445316 -0.019246861
-0.08226638 -0.05525686 0.03427113 -0.02383381 0.008618186 -0.0634671 -0.036934003 -0.14325227
-0.13894661 0.11324171 -0.06908937 0.11355606 -0.05478565 -0.10182356 -0.011376031 0.056324508
0.07003779 0.055999838 -0.11039426 -0.11035135 -0.10333269 -0.1447864 -0.037941445 0.039601658
0.03984771 0.083704166 0.0019550025 -0.11371126 -0.11160775 0.10202573 -0.077905044 -0.03599688
-0.0048608696 0.05682448 -0.10534258 0.04451494 -0.09744849 0.064132005 -0.010582744 0.04171705
-0.018878544 -0.21483192 -0.05939225 -0.039161272 0.018139241 0.03701488 -0.019356256 -0.08436693
0.1108954 -0.03815097 -0.11202747 -0.101729885 -0.114165395 0.008055365 -0.003408195 -0.09482999
0.13909489 0.050580714 -0.076499894 -0.15496342 -0.0034913966 0.06643163 -0.023957098 0.037908047
-0.012256683 0.06799038 0.08869239 0.030983161 0.08204143 -0.08543943 -0.0641693 -0.03861754
00000000: 0c40 e03d f16e c5bd 53c9 d4bd fcd7 8d3d
00000010: b0ba afbd 9417 c93d 021a be3d 24aa 34be
00000020: 243c fabd 1501 033d bbb3 333d a621 b33d
00000030: 809c cd3d 0a2b 6e3d 8831 50be aafe 743d
00000040: cb22 ccbd f3e2 c4bc eb6a dfbd 8594 93bd
00000050: 05c7 983d 4cee 35bd 4697 7fbd 2ddb e9bd
00000060: 11a3 27be 8d80 18be 66b1 dc3c 2f0d e63d
00000070: 25e5 5abd a4bc 4cbd 4d53 1bbe 2a6f 1fbe
00000080: 9dc6 1abc d920 953d 3f9d d0bd 6e35 ccbb
00000090: b042 2c3d 28df 44bc 4528 593b b2d7 22bd
000000a0: 8bf2 cc3d a128 623d fcbe 8e3b 544c a33d
000000b0: a96f c0bd d636 68be 64ea bfbd 8773 b2bc
000000c0: 5a0f c0bd a441 d43d 9736 93bb c98d 2cbd
000000d0: 6ca4 03be 1833 4cbe 8816 0d3d 98ab 9dbc
000000e0: 477b a8bd 0455 62bd e25f 0c3d 1f3f c3bc
000000f0: 4b33 0d3c 0afb 81bd 1c48 17bd b9b0 12be
00000100: 0548 0ebe 45eb e73d ba7e 8dbd 1490 e83d
00000110: eb66 60bd df88 d0bd 8862 3abc 87b4 663d
00000120: f96f 8f3d 1660 653d 6316 e2bd e3ff e1bd
00000130: 17a0 d3bd e342 14be 7d68 1bbd 5935 223d
00000140: 5a37 233d 176d ab3d 801f 003b 73e1 e8bd
00000150: 9b92 e4bd def2 d03d ae8c 9fbd 7771 13bd
00000160: ee47 9fbb c9c0 683d dabd d7bd 4c55 363d
00000170: 1393 c7bd a457 833d 3f63 2dbc 7fdf 2a3d
00000180: 2da7 9abc e6fc 5bbe 4a45 73bd 9267 20bd
00000190: bf98 943c ea9c 173d 0391 9ebc 92c8 acbd
000001a0: 211d e33d 3144 1cbd a86e e5bd c257 d0bd
000001b0: 8ccf e9bd a6fa 033c 065c 5fbb 3a36 c2bd
000001c0: e46e 0e3e b92d 4f3d faab 9cbd bbae 1ebe
000001d0: eacf 64bb 4e0d 883d ad41 c4bc 7845 1b3d
000001e0: 41d0 48bc 8a3e 8b3d 5ba4 b53d 66d0 fd3c
000001f0: 5605 a83d defa aebd 326b 83bd 6d2d 1ebd

action_model._continuous_distribution.log_sigma f4 [1, 8]
-1.4881275 -0.5946667 -0.40796173 -0.420563 -0.55642796 -0.2898852 0.012268938 -0.27995098
00000000: f67a bebf 143c 18bf 5ce0 d0be 0954 d7be
00000010: 1072 0ebf d56b 94be a803 493c bc55 8fbe
