Assets/Quadruped 2.onnx (onnx, 328423 bytes, 14 tensors)

network_body._body_endoder.seq_layers.0.weight f4 [128, 96]
0.08653008 -0.034024842 0.07839343 -0.06415085 -0.17185004 -0.11226062 -0.0382686 -0.07733195
0.04974871 -0.027545521 0.15056527 -0.10874531 0.19877312 -0.13444658 -0.115045935 -0.071640365
-0.044254348 -0.075720385 0.041550413 -0.018885696 -0.018963272 -0.0060313065 -0.044095844 0.06579635
-0.20474665 0.1730774 0.19349726 0.1221937 0.1544998 -0.019280545 0.08473528 0.062867254
-0.0053475606 0.10949317 0.058828413 -0.01523135 0.08734997 0.0798719 0.12338603 0.007345294
0.0005052345 -0.031858977 0.13403204 -0.071939915 0.121332444 -0.121779226 0.03826417 0.034876022
-0.054561492 0.0528903 0.07769743 -0.10557132 -0.09543221 -0.07954454 -0.14849629 0.15839672
-0.14523621 0.11455627 -0.27287045 -0.044067543 -0.07258606 -0.088300735 -0.11776565 0.11905013
0.059488934 -0.17803253 0.11649404 -0.025205387 0.001456999 0.09363216 0.010565102 -0.040330216
0.25301522 0.062353507 -0.02893136 -0.063192464 0.12324565 0.15581985 -0.099432655 -0.11563947
0.049677514 0.1505569 -0.16771328 -0.12444043 0.011003694 -0.034493856 -0.07570989 0.0074988394
-0.030839136 0.080294006 -0.20588106 0.010936447 0.06462285 0.12781893 -0.13861686 -0.013068756
-0.045806784 0.048138186 -0.15350544 -0.073186465 -0.026390364 -0.19667622 -0.067079745 -0.08094086
0.0019030011 -0.16253668 0.08557998 -0.2640208 -0.04605941 0.20260304 0.061503146 -0.09101331
0.0673881 -0.08087543 0.17821805 -0.23543066 -0.037591252 -0.18116878 0.018773336 -0.008818641
-0.22036368 0.08563592 -0.032822616 -0.018261349 -0.070995875 -0.033799622 0.006343233 -0.017656645
0.06699818 0.009272497 0.0028354898 -0.031028744 0.017495262 0.13439219 0.13817045 -0.11496375
-0.031474434 0.16098443 -0.058312416 0.11692947 0.057960268 -0.0049107294 -0.08048431 -0.06757647
0.10042448 -0.19673082 0.03261897 -0.12924702 -0.103949584 0.06953497 -0.096185274 -0.15968446
-0.1296355 0.03581844 -0.01465029 0.09003736 0.086952165 0.033874594 0.11378104 -0.16679929
0.15225878 -0.20673914 -0.056222506 0.1316483 -0.16011095 0.13936171 -0.10363877 0.06713646
0.10155468 -0.0387765 -0.15544699 0.07407004 0.211367 0.07914301 -0.20535241 0.06676538
-0.12015788 0.15142825 -0.06584194 0.0047222753 0.22032405 -0.016465766 -0.092182495 -0.19186896
-0.05975469 0.049285397 -0.2359297 0.21271615 0.1966325 0.09017714 -0.09498351 0.04149124
-0.047416914 0.08326395 -0.07688071 -0.12926109 -0.0751733 -0.06500329 0.1995947 -0.009080887
-0.12656632 -0.090918355 0.0034387554 -0.12890205 -0.070077434 -0.17349133 0.13589595 0.108027704
-0.05423744 -0.14821838 0.08317575 -0.0041696243 -0.0069586923 0.18370421 0.107269235 0.043769963
-0.054926317 0.058726158 0.019401647 -0.027332881 0.047808204 -0.037257865 -0.014152047 -0.09657638
0.11396191 -0.10553163 -0.14548922 0.18966693 0.04824883 -0.061696615 -0.10422826 0.19779044
0.037227865 -0.006537229 0.1796361 0.13075832 -0.06918979 -0.10805996 -0.12865143 -0.01247045
-0.18386845 -0.1442142 -0.057174526 -0.12961748 -0.050996866 -0.07239922 -0.020906383 -0.012092577
-0.040396642 0.040907856 -0.11058626 -0.11834638 -0.17775328 0.05602053 -0.11315397 0.10316458
00000000: af36 b13d a25d 0bbd bc8c a03d 8561 83bd
00000010: 75f9 2fbe e5e8 e5bd 89bf 1cbd 3760 9ebd
00000020: 4ec5 4b3d 25a7 e1bc c82d 1a3e dcb5 debd
00000030: 2e8b 4b3e 5dac 09be 349d ebbd 2fb8 92bd
00000040: 0c44 35bd 4a13 9bbd c430 2a3d 2db6 9abc
00000050: dd58 9bbc 44a2 c5bb d89d 34bd 3dc0 863d
00000060: 1ba9 51be 343b 313e 2524 463e b140 fa3d
00000070: 3235 1e3e 3cf2 9dbc b189 ad3d 8cc0 803d
00000080: 973a afbb f53d e03d 10f6 703d ea8c 79bc
00000090: 8be4 b23d e193 a33d d1b1 fc3d cbb0 f03b
000000a0: b771 043a 8f7e 02bd b23f 093e 3c55 93bd
000000b0: 257d f83d 6367 f9bd e4ba 1c3d 29da 0e3d
000000c0: df7b 5fbd 80a3 583d d51f 9f3d c735 d8bd
000000d0: f671 c3bd 3fe8 a2bd 690f 18be c032 223e
000000e0: cdb8 14be 7a9c ea3d adb5 8bbe 2b80 34bd
000000f0: 00a8 94bd 04d7 b4bd 1e2f f1bd 8ed0 f33d
00000100: abaa 733d 294e 36be 6d94 ee3d 877b cebc
00000110: c6f8 be3a 38c2 bf3d 4019 2d3c 4c31 25bd
00000120: 368b 813e 6466 7f3d 7601 edbc 0d6b 81bd
00000130: 3768 fc3d 3d8f 1f3e 59a3 cbbd 63d4 ecbd
00000140: a67a 4b3d 972b 1a3e 08bd 2bbe a0da febd
00000150: d648 343c 6e49 0dbd c90d 9bbd d3b8 f53b
00000160: 5ba2 fcbc 2f71 a43d 7cd2 52be c92e 333c
00000170: fc58 843d f7e2 023e 94f1 0dbe 561e 56bc
00000180: e59f 3bbd 8c2c 453d 8830 1dbe c9e2 95bd
00000190: 9b30 d8bc 7e65 49be 1b61 89bd 52c4 a5bd
000001a0: 1f6e f93a 0470 26be 8e44 af3d bc2d 87be
000001b0: cba8 3cbd 2c77 4f3e b9ea 7b3d 3065 babd
000001c0: c602 8a3d 04a2 a5bd cb7e 363e bc14 71be
000001d0: 49f9 19bd 4f84 39be 8aca 993c 107c 10bc
000001e0: 04a7 61be e361 af3d 0271 06bd d398 95bc
000001f0: 4966 91bd 7971 0abd e5da cf3b aba4 90bc
00000200: 5736 893d aceb 173c a0d3 393b fe2f febc
00000210: 3952 8f3c 1b9e 093e 8e7c 0d3e 1d72 ebbd
00000220: 56eb 00bd 1ad9 243e 00d9 6ebd b878 ef3d
00000230: bf67 6d3d 2fea a0bb f5d4 a4bd 8865 8abd
00000240: 5aab cd3d ce73 49be 789b 053d 5559 04be
00000250: 85e3 d4bd 5a68 8e3d c9fc c4bd 5384 23be
00000260: 2bbf 04be 5bb6 123d c507 70bc 8265 b83d
00000270: fa13 b23d 16c0 0a3d 0906 e93d 6fcd 2abe
00000280: bae9 1b3e 6db3 53be 9249 66bd d0ce 063e
00000290: 20f4 23be d6b4 0e3e 9040 d4bd d77e 893d
000002a0: e6fb cf3d 1bd4 1ebd 7f2d 1fbe 08b2 973d
000002b0: 9770 583e bb15 a23d e747 52be 4abc 883d
000002c0: 5615 f6bd 0210 1b3e 24d8 86bd 51bd 9a3b
000002d0: a19c 613e 37e3 86bc 2dca bcbd 4c79 44be
000002e0: 55c1 74bd 7cdf 493d 8e97 71be 43d2 593e
000002f0: 085a 493e cbae b83d b786 c2bd b8f2 293d
00000300: 3d38 42bd 4a86 aa3d a273 9dbd 055d 04be
00000310: 76f4 99bd 7220 85bd 8e62 4c3e 00c8 14bc
00000320: 9a9a 01be 6733 babd be5c 613b e6fe 03be
00000330: c284 8fbd b6a7 31be 4f28 0b3e a13d dd3d
00000340: 1428 5ebd 8fc6 17be 0c58 aa3d 58a1 88bb
00000350: be05 e4bb f51c 3c3e f9af db3d 2248 333d
00000360: 6bfa 60bd d78a 703d 34f0 9e3c 35e9 dfbc
00000370: 89d2 433d b49b 18bd fddd 67bc d6c9 c5bd
00000380: dd64 e93d f820 d8bd 20fb 14be 0c38 423e
00000390: 91a0 453d 97b5 7cbd a075 d5bd 9489 4a3e
000003a0: 3f7c 183d 4036 d6bb 87f2 373e 82e5 053e
000003b0: 60b3 8dbd 8a4e ddbd 33bd 03be dc50 4cbc
000003c0: 0348 3cbe e3ac 13be d62f 6abd 72ba 04be
000003d0: 17e2 50bd 0b46 94bd dd43 abbc f21f 46bc
000003e0: f376 25bd ff8e 273d 0d7b e2bd 965f f2bd
000003f0: f504 36be c975 653d 45bd e7bd f447 d33d

network_body._body_endoder.seq_layers.0.bias f4 [128]
0.02126094 0.023002015 -0.033733506 -0.0089931395 0.020833686 -0.039602466 -0.017930763 -0.0031720437
0.008683774 0.014917545 0.0012664557 0.006979713 0.008722679 0.020171406 -0.024374196 0.007094037
-0.012661526 -0.008483712 0.022448622 -0.017763073 -0.010747602 0.026439909 -0.00313577 -0.02795519
0.0072153886 0.033384457 0.009278955 -0.008982439 -0.029833954 -0.019368637 -0.012029084 0.053520113
-0.0030154407 0.020374054 0.014215729 0.039314598 0.00089952716 0.020816997 0.004812462 0.024120364
0.01593698 -0.038043868 0.013266143 0.007253151 0.0005065199 -0.03905857 -0.0017481978 0.001345177
0.0006102942 0.008412435 -0.0085282335 -0.04799307 0.0065123443 -0.00011515151 0.00152954 -0.0045639426
0.03607696 -0.032180626 -0.01752756 -0.009864368 0.004319911 -0.025476055 0.0019948792 -0.020271415
0.007871347 0.0034970355 -0.0013525505 -0.010490676 0.012038116 0.010496892 0.022728808 0.013769516
-0.019804679 0.014707435 0.00076105946 -0.009241605 -0.04099191 -0.014840899 0.007166368 0.025093406
-0.0117389485 0.0007022232 0.0013896832 -0.013254902 0.016684227 0.019836105 -0.115717486 -0.0005244162
0.041757457 0.005569782 -0.01722998 -0.0057621067 -0.017275171 -0.026064293 -0.030838178 -0.004726006
0.025796501 0.029452778 -0.0110332025 0.014455003 -0.002464542 -0.012936412 0.0059014256 0.0039139288
0.0020827723 -0.00047254207 0.006369182 0.002472234 0.021967528 -0.0011701155 0.038487487 -0.0089452155
-0.025383014 -0.0021408454 -0.010647154 -0.00017516327 -0.0042156177 0.0026892947 -0.050399132 -0.012448657
0.00645421 0.0032563964 0.029358769 0.015962148 0.038342416 0.020277102 -0.035978697 -0.0018785343
00000000: 6c2b ae3c b96e bc3c 252c 0abd f657 13bc
00000010: 68ab aa3c 3236 22bd 89e3 92bc 10e2 4fbb
00000020: 6346 0e3c b868 743c 34ff a53a 14b6 e43b
00000030: 91e9 0e3c 813e a53c 65ac c7bc 1875 e83b
00000040: 4a72 4fbc 44ff 0abc 2ce6 b73c dd83 91bc
00000050: b616 30bc 8298 d83c 7e81 4dbb 4802 e5bc
00000060: 116f ec3b 24be 083d c206 183c 142b 13bc
00000070: 5666 f4bc faaa 9ebc a315 45bc e837 5b3d
00000080: b39e 45bb 7de7 a63c 17e9 683c 5808 213d
00000090: 3fce 6b3a 6888 aa3c dbb1 9d3b 1298 c53c
000000a0: 458e 823c e3d3 1bbd 3d5a 593c d7ab ed3b
000000b0: fac7 043a e1fb 1fbd c923 e5ba a650 b03a
000000c0: 27fc 1f3a 4fd4 093c 01ba 0bbc 6294 44bd
000000d0: 8165 d53b 7f7d f1b8 d97a c83a 208d 95bb
000000e0: 6fc5 133d d5cf 03bd f595 8fbc 289e 21bc
000000f0: 0a8e 8d3b 29b3 d0bc 85bc 023b 3d10 a6bc
00000100: d2f6 003c 852e 653b 1048 b1ba 16e1 2bbc
00000110: 853b 453c 28fb 2b3c c431 ba3c 8999 613c
00000120: 6c3d a2bc 74f7 703c d681 473a 1a6a 17bc
00000130: 22e7 27bd 3e27 73bc dad3 ea3b b090 cd3c
00000140: b854 40bc 6715 383a 0826 b63a 172b 59bc
00000150: 5cad 883c 547f a23c 4afd ecbd fa78 09ba
00000160: de09 2b3d b882 b63b e325 8dbc 0ed0 bcbb
00000170: a984 8dbc c984 d5bc 59a0 fcbc 9ddc 9abb
00000180: 2f53 d33c f446 f13c 9bc4 34bc add4 6c3c
00000190: 2784 21bb 3ff3 53bc bf60 c13b 6a40 803b
000001a0: 1f7f 083b 86bf f7b9 92b4 d03b 3405 223b
000001b0: 3ff5 b33c 905e 99ba 0ea5 1d3d f48e 12bc
000001c0: 0af0 cfbc 6d4d 0cbb 6771 2ebc 08ac 37b9
000001d0: 2a23 8abb e13e 303b 526f 4ebd 74f5 4bbc
000001e0: d67d d33b 4469 553b cd81 f03c 0dc3 823c
000001f0: f00c 1d3d 2a1c a63c 665e 13bd 2739 f6ba

network_body._body_endoder.seq_layers.2.weight f4 [128, 128]
-0.034389783 -0.016338464 -0.10463273 -0.15336874 0.07937134 -0.057870425 0.15318777 0.017893123
0.16491415 0.03751179 -0.112241335 -0.29945135 0.09103383 0.21373723 0.014176391 -0.06991635
0.0052258465 0.02093555 0.02064934 0.13418344 0.101867996 -0.04766194 -0.0016513632 0.1046764
-0.05145236 -0.036783192 0.03319997 0.036598008 0.061403908 0.03425009 -0.0030177657 0.027037188
0.21572474 0.058910217 0.04293772 0.10959423 -0.035169452 -0.19166145 -0.05424021 -0.09198144
-0.034944315 0.064638115 0.07961027 -0.12658049 0.071523346 -0.1503027 0.007185515 0.14329125
0.15925337 0.021048512 0.029905964 0.05172785 -0.11238834 0.12517664 0.039887458 -0.0040710974
0.06923491 0.055819646 -0.15102443 0.10595639 -0.1381507 -0.04804713 0.0035775735 0.060708053
0.0354482 0.0021612963 -0.0583153 0.16505584 -0.021575995 0.049757402 0.18916422 0.15753733
-0.010628304 0.027999923 -0.020361453 -0.12059978 -0.020908998 0.028908659 -0.10740633 -0.0011999164
0.12106133 -0.16503617 -0.04924298 0.006068254 0.042662933 -0.06628621 0.12362538 -0.07641208
0.21048571 -0.021964727 0.013129741 0.11892679 0.0074234996 0.088854805 -0.029324627 -0.022395642
0.22946328 0.004059367 0.15907116 0.041792035 -0.09547053 -0.10638236 0.3042864 -4.508867e-05
0.120210454 -0.07989894 -0.029951407 -0.006356674 0.13018775 -0.008736722 -0.05603383 0.050707802
-0.027663568 -0.049814064 -0.12915558 -0.18431088 -0.038352095 0.079344906 0.17875828 -0.031609222
-0.044921406 -0.12841643 0.10305221 0.014878275 0.015236035 0.06331631 0.11597903 -0.04280517
-0.08126054 0.0028920616 -0.03354607 0.07855971 0.0683676 0.13094226 0.0055656983 0.10555685
0.1439821 -0.11554479 0.05522103 -0.017401496 0.036773816 0.07103845 -0.025944233 -0.031720795
0.07667623 -0.033977505 -0.06883496 -0.08359817 0.1552337 0.0049764067 0.0148487985 -0.21059716
0.07479344 -0.015140981 0.11281015 0.09049688 0.0137349535 0.110041745 0.080182515 -0.00032214893
0.07461211 0.10420674 0.18310025 -0.11829476 0.11146651 -0.059291534 -0.021315845 -0.07439016
-0.088095285 0.0033843184 0.122867 -0.07913116 0.16720408 -0.023577284 -0.050877117 0.046002075
-0.03992309 -0.11685749 0.0859841 0.07779038 0.054638594 -0.16296172 -0.10218811 0.036389355
-0.08527012 0.21730661 -0.15387502 -0.06594856 -0.137319 0.075941145 -0.012463768 0.004507132
0.06555688 0.10498944 0.03615223 -0.027555525 -0.18695302 -0.1517112 -0.003979988 0.02963552
-0.092007555 -0.08158477 0.10452231 0.010122647 -0.025561763 0.059932694 0.17305665 -0.12528366
0.032296766 0.091172986 -0.057115868 -0.044331852 -0.17407909 0.12720534 -0.012928373 0.21036614
-0.2312791 0.0873727 0.075275615 -0.12671386 -0.03220226 0.027018998 0.008605596 -0.008490186
0.09266567 0.077931665 -0.07066965 0.04336948 0.12113802 0.029240401 -0.0067993435 -0.00027800526
-0.034428813 0.008363513 0.14726858 0.0938266 0.04908315 0.11703411 -0.12163006 0.0041728322
0.1500485 0.15645953 -0.12811933 -0.15083802 0.15442184 -0.041930474 -0.019519564 -0.04552346
-0.11769848 0.028673314 -0.07647643 0.16259879 -0.0653248 -0.007786371 -0.07105244 -0.0011898129
00000000: 4ddc 0cbd 3ed8 85bc af49 d6bd b20c 1dbe
00000010: 718d a23d 8a09 6dbd 41dd 1c3e 9994 923c
00000020: 41df 283e f6a5 193d c9de e5bd b051 99be
00000030: f26f ba3d efdd 5a3e 1844 683c 4e30 8fbd
00000040: 943d ab3b 0881 ab3c ce28 a93c 6267 093e
00000050: 2ba0 d03d 2b39 43bd 8e72 d8ba 9560 d63d
00000060: b6bf 52bd f9a9 16bd b1fc 073d cbe7 153d
00000070: aa82 7b3d d349 0c3d b5c5 45bb 187d dd3c
00000080: f2e6 5c3e d74b 713d 76df 2f3d f172 e03d
00000090: d80d 10bd e642 44be fc2a 5ebd c460 bcbd
000000a0: c521 0fbd fd60 843d b60a a33d 519e 01be
000000b0: d57a 923d f3e8 19be 7874 eb3b f1ba 123e
000000c0: 5113 233e ee6d ac3c 5afd f43c 95e0 533d
000000d0: dc2b e6bd 4e2e 003e 0861 233d d766 85bb
000000e0: 08cb 8d3d 24a3 643d 26a6 1abe aaff d83d
000000f0: 6177 0dbe 11cd 44bd b975 6a3b 02a9 783d
00000100: 2232 113d 89a4 0d3b 06dc 6ebd 6604 293e
00000110: 24c0 b0bc 6bce 4b3d 44b4 413e 7751 213e
00000120: 5722 2ebc 1860 e53c 10cd a6bc 04fd f6bd
00000130: 5949 abbc dad1 ec3c daf7 dbbd 8346 9dba
00000140: 01ef f73d 3eff 28be 02b3 49bd 34d8 c63b
00000150: 54bf 2e3d 11c1 87bd 4e2f fd3d f07d 9cbd
00000160: 9189 573e 5fef b3bc 201e 573c e48f f33d
00000170: d440 f33b 82f9 b53d 333a f0bc 1177 b7bc
00000180: 6cf8 6a3e 7004 853b 8de3 223e 202e 2b3d
00000190: 0e86 c3bd ffde d9bd 6dcb 9b3e 971d 3db8
000001a0: e630 f63d 0ea2 a3bd a75c f5bc a54b d0bb
000001b0: f04f 053e 7824 0fbc bb83 65bd fcb2 4f3d
000001c0: b59e e2bc d509 4cbd 5c41 04be febb 3cbe
000001d0: 1617 1dbd 957f a23d 690c 373e ac78 01bd
000001e0: 82ff 37bd 997f 03be 090d d33d 02c4 733c
000001f0: 90a0 793c fbab 813d 6a86 ed3d 7954 2fbd
00000200: ed6b a6bd be88 3d3b 9b67 09bd eae3 a03d
00000210: 5004 8c3d ba15 063e 7660 b63b 312e d83d
00000220: 0b70 133e bfa2 ecbd 722f 623d 958d 8ebc
00000230: 24a0 163d 9b7c 913d 0089 d4bc aaed 01bd
00000240: 6d08 9d3d ff2b 0bbd 58f9 8cbd 8435 abbd
00000250: 95f5 1e3e 2011 a33b 6048 733c c8a6 57be
00000260: 4e2d 993d e111 78bc 0209 e73d 6e56 b93d
00000270: 9208 613c 915d e13d bb36 a43d 19e6 a8b9
00000280: 3cce 983d 586a d53d a27e 3b3e 8644 f2bd
00000290: 8e48 e43d aedb 72bd 919e aebc de59 98bd
000002a0: 4d6b b4bd 71cb 5d3b b2a1 fb3d 850f a2bd
000002b0: 8c37 2b3e 2625 c1bc 8664 50bd ac6c 3c3d
000002c0: 6586 23bd fb52 efbd 6f18 b03d 9050 9f3d
000002d0: b8cc 5f3d 70df 26be 0048 d1bd 010d 153d
000002e0: 1aa2 aebd a085 5e3e 6a91 1dbe 0a10 87bd
000002f0: 5a9d 0cbe 0887 9b3d d534 4cbc 90b0 933b
00000300: af42 863d b404 d73d 5c14 143d 20bc e1bc
00000310: 9d70 3fbe 2e5a 1bbe 8f6a 82bb 31c6 f23c
00000320: 756e bcbd ea15 a7bd cb0f d63d 75d9 253c
00000330: e766 d1bc fc7b 753d c335 313e 5c4a 00be
00000340: 9d49 043d e7b8 ba3d 54f2 69bd 5195 35bd
00000350: ca41 32be 1e42 023e 87d1 53bc 396a 573e
00000360: 6ed4 6cbe 75f0 b23d 1a2a 9a3d 47c1 01be
00000370: 84e6 03bd f256 dd3c 7cfe 0c3c 6c1a 0bbc
00000380: 80c7 bd3d a39a 9f3d 40bb 90bd 32a4 313d
00000390: 3617 f83d 9189 ef3c 07cd debb 3cc1 91b9
000003a0: 3a05 0dbd 1e07 093c 93cd 163e 2928 c03d
000003b0: 6a0b 493d 94af ef3d 2e19 f9bd 41bc 883b
000003c0: 50a6 193e ed36 203e b731 03be 4875 1abe
000003d0: c220 1e3e 4abf 2bbd 7ee7 9fbc cf76 3abd
000003e0: e70b f1bd 4ce4 ea3c ad9f 9cbd 4c80 263e
000003f0: 02c9 85bd d024 ffbb f183 91bd 7ff3 9bba

network_body._body_endoder.seq_layers.2.bias f4 [128]
0.0080305 -0.021163233 0.0056118965 -0.028119655 -0.005943072 0.0015265952 0.0033985768 0.013523494
0.009848739 0.018569333 -0.013789753 0.0048067807 -0.0143128 0.012894325 -0.031949826 0.012785795
-0.012813325 0.0455201 -0.0067006983 0.0108759245 0.014607548 0.025705265 -0.020137329 0.009119756
0.0013018228 -0.0025448294 -0.0008741497 0.017824303 -0.008936219 -0.020373527 -0.003821589 0.016292335
-0.0071410234 0.0076655173 0.0026420008 0.0039422614 -0.013323194 0.008562755 0.022648277 0.007213301
0.021660367 0.003129325 0.0074023954 -0.015201794 -0.012911569 -0.029826032 -0.005550198 0.0060872766
-0.02063545 -0.015791997 0.0066272207 -0.007761372 -0.0134369815 0.0049914075 -0.006670755 -0.0007247797
-0.018085264 0.010025917 0.007812694 -0.00072670146 0.017947234 0.009786446 -0.008275659 -0.0078022927
0.0007334077 0.0047636344 0.015869789 0.016546939 -0.021285584 0.007639879 0.0096628 -0.00397706
0.0050383424 0.009402449 0.0014017177 -0.0022312007 -0.008753892 -0.01454658 -0.000549444 -0.0058715
0.021662636 0.011496355 0.020884598 -0.01291395 0.0021565484 -0.011083026 0.006988233 -0.046133187
-0.019185692 0.030108115 0.028458102 0.0050921673 -0.035459243 -0.011189148 0.0047419313 -0.010560947
-0.0008115181 0.023256635 -0.0016343883 -0.0076456545 0.011810694 0.00092570676 -0.0038557171 -0.03461213
-0.04161838 -0.02185234 0.0069452785 0.005855923 -0.0154538145 0.022448214 0.016816504 -0.036546882
0.00865009 -0.0012690645 -0.017027892 -0.015483739 0.0010172179 0.012028764 -0.0047353115 -0.0036489093
-0.01157127 0.0036614568 0.007273631 -0.007999057 0.00147905 0.0003788542 0.027980473 0.025079155
00000000: 5c92 033c 845e adbc 00e4 b73b 315b e6bc
00000010: 1abe c2bb 0918 c83a a8ba 5e3b a591 5d3c
00000020: 9b5c 213c b71e 983c 6bee 61bc 3382 9d3b
00000030: 3c80 6abc b842 533c d2dd 02bd 837b 513c
00000040: fbee 51bc 4973 3a3d 8891 dbbb ef30 323c
00000050: 7f54 6f3c d993 d23c 0af7 a4bc 076b 153c
00000060: eda1 aa3a 27c7 26bb 3127 65ba 4604 923c
00000070: 3869 12bc 62e6 a6bc a073 7abb 8177 853c
00000080: 3fff e9bb 052f fb3b 6b25 2d3b 162e 813b
00000090: 8749 5abc cc4a 0c3c e188 b93c 8e5d ec3b
000000a0: 1571 b13c 5d15 4d3b cb8f f23b f210 79bc
000000b0: 0c8b 53bc b955 f4bc 6fde b5bb c777 c73b
000000c0: ad0b a9bc 385e 81bc 2829 d93b 1b53 febb
000000d0: c926 5cbc f68e a33b 5996 dabb 24ff 3dba
000000e0: 8c27 94bc be43 243c d000 003c 1c80 3eba
000000f0: 1406 933c 5457 203c a196 07bc 60aa ffbb
00000100: 2842 403a 4318 9c3b 5c01 823c 728d 873c
00000110: 1b5f aebc f357 fa3b b850 1e3c ff51 82bb
00000120: ae18 a53b bb0c 1a3c d7b9 b73a 5639 12bb
00000130: 7c6c 0fbc c754 6ebc 9008 10ba b665 c0bb
00000140: d775 b13c 355b 3c3c 2d16 ab3c 0895 53bc
00000150: e154 0d3b 9595 35bc 8cfd e43b 27f6 3cbd
00000160: 502b 9dbc 4ba5 f63c f720 e93c 32dc a63b
00000170: b63d 11bd b052 37bc 3462 9b3b d207 2dbc
00000180: 0fbc 54ba b384 be3c f938 d6ba 6688 fabb
00000190: a481 413c 21ab 723a 33b0 7cbb 73c5 0dbd
000001a0: 0978 2abd ae03 b3bc 3895 e33b 0be3 bf3b
000001b0: ff31 7dbc 51e5 b73c c4c2 893c 2fb2 15bd
000001c0: 1bb9 0d3c bd56 a6ba 147e 8bbc 82af 7dbc
000001d0: 2b54 853a 4b14 453c ac2a 9bbb 8a22 6fbb
000001e0: 6d95 3dbc 0df5 6f3b a457 ee3b 7a0e 03bc
000001f0: afdc c13a f3a0 c639 4e37 e53c cd72 cd3c

network_body._body_endoder.seq_layers.4.weight f4 [128, 128]
-0.01018088 0.1306959 -0.09737556 -0.060924295 0.10105334 -0.16250788 -0.11101287 0.10439051
0.051720098 -0.059147216 -0.1000876 0.08537346 0.06953723 -0.004155838 -0.05910291 0.013500026
-0.18356642 -0.05120934 0.043565825 -0.16431242 -0.126919 0.083920084 -0.022016974 0.03930894
-0.17249078 -0.04738216 -0.12250432 -0.061678346 0.013716804 0.029709889 0.030906146 -0.18730074
0.034612596 -0.020880794 -0.01824843 -0.09294824 0.029866975 0.062388692 -0.07530587 0.07427923
-0.16633368 0.009467071 0.19169034 -0.0007250529 0.016715549 0.18394792 -0.09795696 -0.027657446
0.15728109 0.0612824 0.09712186 0.07562792 0.008030833 0.15130751 0.024948698 -0.036812022
0.14379436 0.08433876 0.107500486 -0.11306789 -0.047164537 0.07566772 0.051899098 0.010813122
-0.17960402 -0.07728124 -0.027139263 -0.020101728 -0.1529796 -0.06829537 -0.02677349 0.055188596
0.049434498 -0.013961029 0.027650293 0.023839746 0.08765987 -0.029224575 0.07129799 0.12312579
0.0063666995 0.0402729 -0.08725986 -0.005959632 -0.06673774 0.018513015 0.0917428 -0.0024417886
-0.05094042 -0.00042246396 -0.20457748 -0.12258768 0.055732317 -0.095677026 0.09021215 0.14570582
0.07026293 -0.13419887 -0.10506136 0.115315974 0.019742263 0.07669231 -0.08672864 -0.15166059
-0.022329316 0.051180847 0.055705786 -0.10676309 -0.070066065 -0.21181384 0.20073217 0.18944727
-0.070216596 -0.12756768 -0.027762108 0.039508957 0.029073184 -0.18843825 -0.017898114 0.061951842
-0.07395945 0.09970853 -0.12835829 -0.107188016 -0.041432843 -0.010160077 0.030705035 0.04166352
-0.079339005 0.071853586 0.18885122 -0.063013054 0.071134746 0.026383163 0.056023672 0.01942677
-0.18132113 0.037091378 0.011495163 0.20449145 0.020796476 -0.0023558293 0.033552144 -0.13166948
-0.07543194 0.004152186 0.1058635 0.15758662 -0.02287084 0.20696193 -0.053393256 -0.1440054
-0.055399414 0.085503615 -0.06640901 0.0059059416 -0.049767043 -0.08480522 0.044959553 -0.08238936
-0.109193295 -0.14589363 0.07909367 -0.06341739 -0.12424517 0.04430724 -0.11565058 -0.0118693905
0.01876613 0.05399317 0.034668185 0.06580618 0.06927772 0.114421725 -0.08981762 -0.1950784
-0.1529801 -0.033942815 -0.08253635 0.15486549 0.05857112 -0.057866503 -0.034148023 0.04889113
0.0687595 0.028178403 -0.0666927 -0.015742172 0.024733862 -0.06433223 0.16229355 -0.15582924
-0.07130415 -0.05994107 -0.071785085 -0.04766325 0.049087696 0.021866538 -0.019695573 -0.1610708
-0.093149 0.094291724 0.047203243 -0.029696625 -0.027900318 -0.0068726256 -0.10518026 0.23161483
-0.080508664 0.021081455 -0.054678164 0.15169768 -0.069998704 -0.09884131 0.04645744 -0.06275041
-0.105184 -0.13740307 0.05116884 0.08165582 0.030773252 0.057327542 0.018048035 0.124299236
0.10761652 0.11762114 0.11781791 0.08119358 -0.02854618 -0.04518689 0.11301739 0.0062380936
0.020190552 -0.07322413 0.065297216 -0.13030167 -0.112509266 -0.11766384 -0.061128054 -0.0016619851
0.10565384 0.13331023 0.07631507 0.077264525 -0.031762466 0.0015004602 -0.20104106 0.04232954
-0.15065864 -0.042954527 0.0096163945 0.024336986 -0.07933674 -0.043420866 0.09292806 -0.01483727
00000000: b5cd 26bc 25d5 053e d66c c7bd c18b 79bd
00000010: 0ef5 ce3d 7768 26be b75a e3bd b1ca d53d
00000020: 74d8 533d 5a44 72bd bafa ccbd 48d8 ae3d
00000030: 8969 8e3d b22d 88bb e515 72bd 372f 5d3c
00000040: d6f8 3bbe e3c0 51bd 1472 323d 8441 28be
00000050: 0ef7 01be 4bde ab3d f15c b4bc 6902 213d
00000060: 6ca1 30be cc13 42bd 8ce3 fabd 6fa2 7cbd
00000070: 72bc 603c 2762 f33c e32e fd3c c4cb 3fbe
00000080: f0c5 0d3d 330e abbc bb7d 95bc a65b bebd
00000090: 96ab f43c 498b 7f3d f739 9abd b51f 983d
000000a0: 6053 2abe c61b 1b3c 794a 443e 7a11 3eba
000000b0: 0cef 883c d85c 3c3e a99d c8bd de91 e2bc
000000c0: 4b0e 213e 4103 7b3d d3e7 c63d d0e2 9a3d
000000d0: c193 033c 5bf0 1a3e 3661 cc3c 34c8 16bd
000000e0: d43e 133e cdb9 ac3d 3729 dc3d 2390 e7bd
000000f0: 9a2f 41bd adf7 9a3d 2694 543d 8529 313c
00000100: 1eea 37be a045 9ebd 2953 debc 61ac a4bc
00000110: afa6 1cbe 71de 8bbd 1454 dbbc 700d 623d
00000120: d47b 4a3d cdbc 64bc de82 e23c 924b c33c
00000130: 0587 b33d 6068 efbc ae04 923d 6029 fc3d
00000140: bf9f d03b 32f5 243d 4cb5 b2bd 0449 c3bb
00000150: ccad 88bd 9ba8 973c a6e3 bb3d 6a06 20bb
00000160: e7a6 50bd 277e ddb9 c27c 51be 400f fbbd
00000170: 9247 643d 51f2 c3bd 26c1 b83d e833 153e
00000180: 03e6 8f3d 6e6b 09be 692a d7bd c82a ec3d
00000190: 87ba a13c dc10 9d3d c99e b1bd ea4c 1bbe
000001a0: f8eb b6bc 02a3 513d c02b 643d 9ba6 dabd
000001b0: cc7e 8fbd bae5 58be bc8c 4d3e 77fe 413e
000001c0: b8cd 8fbd 1aa1 02be 5c6d e3bc 25d4 213d
000001d0: e32a ee3c f5f5 40be 119f 92bc 37c1 7d3d
000001e0: 0d78 97bd fc33 cc3d 5b70 03be 6485 dbbd
000001f0: 7cb5 29bd 7476 26bc 2089 fb3c 5ea7 2a3d
00000200: 7d7c a2bd f927 933d 3762 413e fd0c 81bd
00000210: 18af 913d 8121 d83c 1479 653d e424 9f3c
00000220: 3fac 39be 21ed 173d 3556 3c3c 3566 513e
00000230: 5f5d aa3c 4264 1abb f96d 093d 5dd4 06be
00000240: 107c 9abd 100f 883b f6ce d83d 635e 213e
00000250: a15b bbbc d4ed 533e e3b2 5abd 2776 13be
00000260: 7fea 62bd 851c af3d 7201 88bd a186 c13b
00000270: 87d8 4bbd 5cae adbd 8227 383d c1bb a8bd
00000280: bca0 dfbd 2465 15be ddfb a13d fae0 81bd
00000290: 4074 febd 827b 353d 36da ecbd d577 42bc
000002a0: 6dbb 993c f127 5d3d 3a00 0e3d 64c5 863d
000002b0: 7ae1 8d3d f055 ea3d 4df2 b7bd a2c2 47be
000002c0: d1a6 1cbe 9f07 0bbd d108 a9bd 0f95 1e3e
000002d0: 45e8 6f3d 6d05 6dbd ccde 0bbd 1142 483d
000002e0: c8d1 8c3d 65d6 e63c 2f96 88bd baf5 80bc
000002f0: ab9e ca3c 9ec0 83bd 4830 263e b391 1fbe
00000300: e907 92bd c484 75bd 0f04 93bd 8a3a 43bd
00000310: 2e10 493d 7421 b33c 9c58 a1bc beef 24be
00000320: e7c4 bebd 051c c13d 3058 413d 5646 f3bc
00000330: 358f e4bc c333 e1bb c068 d7bd 702c 6d3e
00000340: bae1 a4bd 04b3 ac3c 36f6 5fbd a356 1b3e
00000350: 7b5b 8fbd 506d cabd 284a 3e3d 4983 80bd
00000360: b66a d7bd 64b3 0cbe 6b96 513d 2b3b a73d
00000370: 3018 fc3c 49d0 6a3d 79d9 933c 9990 fe3d
00000380: 0d66 dc3d 5ae3 f03d 844a f13d d248 a63d
00000390: aed9 e9bc e315 39bd a975 e73d ec68 cc3b
000003a0: a866 a53c 88f6 95bd 8cba 853d cd6d 05be
000003b0: 426b e6bd bdf9 f0bd 6961 7abd f7d6 d9ba
000003c0: 0a61 d83d 7a82 083e 134b 9c3d dd3c 9e3d
000003d0: 5c19 02bd 17ab c43a b5dd 4dbe bd61 2d3d
000003e0: 4246 1abe 16f1 2fbd 158e 1d3c 5c5e c73c
000003f0: 4d7b a2bd 14da 31bd 1151 be3d 0518 73bc

network_body._body_endoder.seq_layers.4.bias f4 [128]
-0.015418201 0.004686115 -0.003055176 -0.0023462777 -0.0518273 -0.017003963 0.038156953 -0.030407937
0.04690702 -0.018439723 -0.020070022 -0.030869974 0.022832457 -0.043407764 0.016430166 -0.05005251
-0.0128077455 0.0033585182 0.016363107 0.020207621 -0.000517548 0.0037423589 0.016749024 -0.016833795
0.0021649802 0.017925553 0.040656548 -0.054138295 0.02976005 -0.008769963 -0.0158978 -0.0033173787
-0.01941216 -0.037047304 -0.0039764796 0.0052304105 -0.009061897 0.021079874 0.0017024829 -0.040557574
-0.013868798 -0.030663457 -0.054853983 -0.06978656 0.0028485649 0.018080147 0.005345564 0.016889123
0.016324438 0.017145298 -0.043930773 -0.020275041 0.03426472 -0.011739198 0.026812501 -0.0048510553
-0.035580657 -0.039762434 0.01472515 -0.0039891354 -0.042930644 0.05557009 -0.0065303165 -0.030659216
-0.026391692 0.037612814 -0.029129641 0.019303698 0.017201668 0.005780342 -0.03880567 -0.0026454737
0.0031078567 -0.014555768 0.016332395 0.0027183138 -0.007529863 -0.042850457 -0.020671215 0.014886802
-0.010917683 0.044146404 0.0066340403 -0.034747742 -0.018557861 -0.01730073 0.05185295 -0.038951293
0.009929377 0.007215651 -0.056606773 -0.007949603 0.013678849 -0.032064203 0.00071268756 -0.041343234
-0.016535453 -0.07856556 -0.013646509 0.004195272 0.00377606 0.043661192 -0.01343235 0.011360417
-0.042644955 -0.057126172 -0.019205611 -0.0035622646 -0.027342182 0.03652765 0.024632374 -0.0112235
0.024227291 -0.005953805 -0.0021655338 0.0043220064 0.014760065 -0.039454788 -0.00031091511 0.011341586
0.012232376 -0.03086936 0.0392189 -0.04429261 0.041317157 0.028415991 -0.037749838 0.0030854547
00000000: 9f9c 7cbc fb8d 993b 5939 48bb 02c4 19bb
00000010: dd48 54bd e54b 8bbc 774a 1c3d 111a f9bc
00000020: 9321 403d e70e 97bc e369 a4bc 07e3 fcbc
00000030: 220b bb3c 57cc 31bd 8e98 863c dc03 4dbd
00000040: 94d7 51bc 961a 5c3b ec0b 863c 748a a53c
00000050: 0fac 07ba 5d42 753b 4035 893c 07e7 89bc
00000060: 57e2 0d3b 9cd8 923c 7b87 263d 1ec0 5dbd
00000070: 59cb f33c e4af 0fbc 1a3c 82bc 6168 59bb
00000080: 4006 9fbc eabe 17bd 214d 82bb dd63 ab3b
00000090: 5a78 14bc b3af ac3c d925 df3a b31f 26bd
000000a0: f439 63bc ee31 fbbc 92ae 60bd 42ec 8ebd
000000b0: fdae 3a3b d11c 943c d729 af3b 0f5b 8a3c
000000c0: d4ba 853c 4c74 8c3c c1f0 33bd d817 a6bc
000000d0: 2a59 0c3d c455 40bc e4a5 db3c 9af5 9ebb
000000e0: 06bd 11bd efdd 22bd c141 713c 4bb7 82bb
000000f0: 0bd8 2fbd 769d 633d 44fc d5bb 0929 fbbc
00000100: 6433 d8bc e50f 1a3d 49a1 eebc ca22 9e3c
00000110: 83ea 8c3c 0669 bd3b b2f2 1ebd af5f 2dbb
00000120: 2fad 4b3b 517b 6ebc 84cb 853c bd25 323b
00000130: 12bd f6bb f683 2fbd ae56 a9bc c6e7 733c
00000140: 15e0 32bc dcd2 343d 5d62 d93b a653 0ebd
00000150: a806 98bc 43ba 8dbc c263 543d 648b 1fbd
00000160: d3ae 223c 4571 ec3b 81dc 67bd 0d3f 02bc
00000170: 401d 603c c155 03bd a7d3 3a3a 8657 29bd
00000180: 5c75 87bc fbe6 a0bd 9b95 5fbc 7e78 893b
00000190: c677 773b 14d6 323d 5c13 5cbc 0b21 3a3c
000001a0: 7aac 2ebd 22fd 69bd 1655 9dbc e274 69bb
000001b0: b6fc dfbc 049e 153d d5c9 c93c c5e2 37bc
000001c0: 5078 c63c 2318 c3bb a1eb 0dbb 9e9f 8d3b
000001d0: 33d4 713c 589b 21bd 5202 a3b9 0fd2 393c
000001e0: 4e6a 483c bde1 fcbc ffa3 203d 2b6c 35bd
000001f0: 2e3c 293d a7c8 e83c 939f 1abd 5735 4a3b

network_body._body_endoder.seq_layers.6.weight f4 [128, 128]
0.04384562 0.1337908 -0.13750425 -0.059897732 0.12241323 -0.2345078 0.01911492 -0.08835084
0.007218594 -0.06317458 0.029257914 -0.031752467 0.03485687 -0.14230442 -0.1761765 -0.12032957
-0.15628545 0.037700385 -0.01767401 0.1280803 0.035860535 0.024391161 0.09751699 -0.09605888
-0.0060148346 0.021083144 -0.02669532 0.0486705 -0.0921595 0.08205018 0.023385156 -0.020954141
-0.0047360878 -0.010191067 -0.15410616 -0.05099066 0.1663282 -0.087982215 0.020749174 -0.00045886764
0.116568044 -0.07175798 -0.07033996 0.07002197 0.04213121 0.011465484 -0.12547201 -0.16436176
0.04657988 0.13764171 -0.004021806 -0.094387256 0.08887777 0.078259826 -0.24150963 0.14740866
-0.12507476 -0.09266621 -0.03656837 -0.02939374 0.022302529 0.08897065 0.0153677445 -0.048770756
0.05671454 0.021699218 0.002726418 0.0003137905 -0.050902452 -0.06445054 0.006296275 -0.20315076
0.1196029 -0.09269937 0.24206233 0.09407273 0.0153132975 0.09543609 -0.04875407 -0.08290021
-0.10734939 -0.116717495 0.001615312 -0.06349605 0.0379842 0.12941812 0.10891134 -0.052944813
-0.04219243 -0.041257408 0.09862564 -0.081561714 0.034266535 -0.045852177 -0.045659192 0.029874807
-0.017115375 0.027745482 -0.034212817 0.10397505 -0.0014501772 -0.17643479 0.23577242 0.0025965683
0.012807628 -0.025089454 -0.0022316189 0.097173356 -0.16908872 -0.028882427 -0.11505051 0.12599406
-0.059243463 0.07059606 -0.0689747 0.12805991 -0.08999539 -0.096013054 0.019579256 0.09478941
-0.14650807 0.09215729 -0.07239872 0.3377266 -0.06289473 -0.014855162 -0.062174845 0.06473056
-0.0008893147 0.14512031 0.00096448633 -0.12203395 0.011601395 0.09651328 0.15344957 0.1388968
-0.13349846 0.13917252 0.02421528 0.09277298 -0.074006245 0.09968398 0.015926022 0.036268923
0.019283313 -0.049684197 0.00576529 -0.06462558 -0.04927491 -0.032216024 -0.18210803 0.13936913
-0.041049737 -0.016622499 -0.010847192 -0.08263245 -0.067144945 0.019036653 -0.18009992 6.285175e-05
0.052998226 -0.038480047 -0.022871485 -0.11533289 0.0028646907 -0.026697973 0.03359481 0.009371179
0.077729665 0.06147525 -0.16333085 0.13803846 -0.25460044 0.01378493 0.06460576 0.004297715
-0.19281727 -0.06099255 0.17369084 -0.029710187 -0.027685711 -0.060307786 0.035183232 -0.08764714
0.033163767 -0.028787382 0.09075389 -0.053122915 0.1347848 -0.01898556 0.010833008 -0.13622256
-0.07437118 -0.026275445 0.019077023 -0.014744316 0.08448008 -0.09154419 0.004840906 0.014550953
-0.022922715 -0.0004679135 -0.019603664 -0.05875586 0.15690425 -0.16628858 -0.07502468 0.054862097
-0.04256602 0.17240043 -0.088541746 0.12036162 -0.096603364 -0.08075783 -0.1559848 -0.045330588
0.041307922 0.038972747 0.1045479 -0.041897707 -0.03655637 0.025260255 0.01113752 0.038407166
-0.16932766 0.101455495 0.07287052 0.093718454 0.12654175 0.07075092 0.14021908 0.15486242
0.06573284 0.09206375 0.14234713 0.032549396 -0.13099281 -0.042397298 -0.2119502 -0.09265624
0.08399425 -0.067601524 0.025791027 -0.044265844 0.06442998 -0.08944003 0.037572354 0.14298652
-0.01950413 -0.018644407 -0.13457176 -0.09771517 -0.07809174 -0.18704544 0.052683815 0.17390367
00000000: 7797 333d 7500 093e eacd 0cbe 5357 75bd
00000010: cab3 fa3d d022 70be e596 9c3c 49f1 b4bd
00000020: f589 ec3b ad61 81bd 4bae ef3c e00e 02bd
00000030: 14c6 0e3d 40b8 11be 9d67 34be 596f f6bd
00000040: 4b09 20be b86b 1a3d 16c9 90bc 7b27 033e
00000050: 7fe2 123d f9cf c73c fdb6 c73d 85ba c4bd
00000060: 1718 c5bb 8fb6 ac3c 25b0 dabc b85a 473d
00000070: 1fbe bcbd ed09 a83d 3a92 bf3c 05a8 abbc
00000080: 2f31 9bbb 6ff8 26bc 01ce 1dbe 95db 50bd
00000090: f151 2a3e 0530 b4bd 2cfa a93c 2c94 f0b9
000000a0: 3abb ee3d d9f5 92bd 660e 90bd ae67 8f3d
000000b0: c791 2c3d bad9 3b3c bc7b 00be 734e 28be
000000c0: 8bca 3e3d f3f1 0c3e 5bc9 83bb 1b4e c1bd
000000d0: 8c05 b63d b046 a03d 4d4e 77be 4cf2 163e
000000e0: 9913 00be c8c7 bdbd b7c8 15bd 24cb f0bc
000000f0: cbb3 b63c 3f36 b63d fec8 7b3c d8c3 47bd
00000100: 814d 683d 8fc2 b13c b4ad 323b 3f84 a439
00000110: 177f 50bd a5fe 83bd fc50 ce3b c106 50be
00000120: 5ef2 f43d 2bd9 bdbd 30df 773e 34a9 c03d
00000130: a0e4 7a3c ff73 c33d 59b2 47bd 96c7 a9bd
00000140: ffd9 dbbd 9509 efbd e0b8 d33a 380a 82bd
00000150: 5295 1b3d 2f86 043e e90c df3d a9dc 58bd
00000160: f8d1 2cbd 87fd 28bd 3dfc c93d d409 a7bd
00000170: 115b 0c3d 7ecf 3bbd 2205 3bbd 03bc f43c
00000180: 8b35 8cbc 7e4a e33c bd22 0cbd dff0 d43d
00000190: df13 beba 52ab 34be 536e 713e 302b 2a3b
000001a0: 16d7 513c 6688 cdbc 5a40 12bb d302 c73d
000001b0: 9825 2dbe d79a ecbc 9a9f ebbd 9604 013e
000001c0: 46a9 72bd ab94 903d 9c42 8dbd 2322 033e
000001d0: 814f b8bd 7ea2 c4bd ad64 a03c f320 c23d
000001e0: 3606 16be f6bc bc3d c845 94bd 80ea ac3e
000001f0: f4ce 80bd 1163 73bc 0dab 7ebd 7591 843d
00000200: e620 69ba 6b9a 143e 95d5 7c3a f0ec f9bd
00000210: c713 3e3c c1a8 c53d e221 1d3e f63a 0e3e
00000220: d2b3 08be 3e83 0e3e 1f5f c63c c3ff bd3d
00000230: 9690 97bd 1d27 cc3d 4a77 823c b98e 143d
00000240: 0af8 9d3c a881 4bbd c2ea bc3b 6b5a 84bd
00000250: 7dd4 49bd f3f4 03bd 877a 3abe c8b6 0e3e
00000260: c523 28bd e82b 88bc 6cb8 31bc 343b a9bd
00000270: 4a83 89bd c1f2 9b3c 1d6c 38be 47cf 8338
00000280: ab14 593d 419d 1dbd fb5c bbbc a633 ecbd
00000290: 89bd 3b3b b5b5 dabc b69a 093d 9389 193c
000002a0: bb30 9f3d 79cd 7b3d 3440 27be f459 0d3e
000002b0: fd5a 82be 30da 613c 0650 843d d9d3 8c3b
000002c0: e471 45be 53d3 79bd 03dc 313e c762 f3bc
000002d0: 25cd e2bc 4c05 77bd 4b1c 103d 5880 b3bd
000002e0: bbd6 073d 84d3 ebbc 2ddd b93d 6a97 59bd
000002f0: 0705 0a3e 9b87 9bbc ee7c 313c ed7d 0bbe
00000300: eb4f 98bd 9a3f d7bc 6b47 9c3c 2592 71bc
00000310: e403 ad3d 857b bbbd 76a0 9e3b 1f67 6e3c
00000320: 6bc8 bbbc 4952 f5b9 dd97 a0bc fca9 70bd
00000330: 82ab 203e 8e47 2abe 8aa6 99bd 14b7 603d
00000340: b559 2ebd bd89 303e 6055 b5bd 2780 f63d
00000350: fcd7 c5bd 5c64 a5bd 7bba 1fbe 91ac 39bd
00000360: 7f32 293d e3a1 1f3d 361d d63d ee9c 2bbd
00000370: 22bc 15bd 98ee ce3c 257a 363c d550 1d3d
00000380: 3b64 2dbe e6c7 cf3d 243d 953d 76ef bf3d
00000390: 2994 013e dce5 903d 9795 0f3e 4194 1e3e
000003a0: f09e 863d eb8b bc3d 72c3 113e 8452 053d
000003b0: fb22 06be caa8 2dbd 7909 59be 8ec2 bdbd
000003c0: 2d05 ac3d ab72 8abd b447 d33c 1a50 35bd
000003d0: def3 833d 562c b7bd 78e5 193d 0f6b 123e
000003e0: 20c7 9fbc 28bc 98bc 2ecd 09be e41e c8bd
000003f0: 90ee 9fbd d788 3fbe fcca 573d ce13 323e

network_body._body_endoder.seq_layers.6.bias f4 [128]
-0.025313526 -0.001333653 -0.010139755 -0.014988607 0.003153147 0.044483576 -0.025194172 0.05856337
-0.06427537 0.03971009 -0.0029137807 0.0054325205 -0.0877704 -0.015840175 -0.10330876 0.016154531
-0.07671389 0.040678367 0.00992409 -0.052455667 -0.016905276 -0.064069375 -0.010243425 -0.005884034
0.017669644 0.020672504 0.022793705 0.008581158 0.0068121804 0.038243 -0.0022573732 -0.009576028
-0.00041363217 -0.019666458 -0.010756871 0.0025037865 0.027184445 0.021980155 -0.00882844 -0.064297855
0.02554165 0.012429594 0.0054121143 -0.083106205 0.00929182 -0.03160682 -0.055401724 0.030009422
-0.011038243 -0.011901359 -0.009007747 -0.016851723 0.045082938 -0.03529507 0.027961703 -0.0059818528
0.029005578 -0.024055094 0.05897134 -0.009058443 -0.016160795 -0.048258167 0.039302174 -0.011345122
-0.024112245 -0.008356465 -0.043557975 -0.03781138 0.023849018 0.044157565 0.040539503 -0.0033731794
0.026549729 -0.016248198 0.004525906 -0.0005420854 0.011145128 0.020879164 -0.044193853 0.005271277
0.063060194 -0.0021566453 0.008847658 -0.02805613 -0.0009214309 0.024676356 0.045534935 0.003079412
0.00087212515 0.035255753 -0.056292836 0.034981426 0.04463183 0.013616672 -0.091021135 -0.045004543
0.02173793 0.058870602 0.004891722 0.016663453 0.0470538 0.067145914 -0.0683956 -0.07734896
0.022384726 0.053224042 0.024953747 -0.07356383 -0.080871314 0.0062487936 0.0034235013 -0.04917358
0.022323709 -0.008716581 -0.042725004 -0.013015786 0.02075929 -0.05244879 0.052311804 -0.012293405
-0.035730965 0.037123375 0.014615077 0.0038915398 -0.0130612925 -0.022490287 0.028691424 -0.01193903
00000000: 505e cfbc f8cd aeba 3721 26bc c692 75bc
00000010: 07a5 4e3b 6934 363d 0264 cebc 25e0 6f3d
00000020: cea2 83bd 0ca7 223d 21f5 3ebb 4903 b23b
00000030: f8c0 b3bd 41c3 81bc 8b93 d3bd 8256 843c
00000040: 2c1c 9dbd 5c9e 263d a698 223c c1db 56bd
00000050: ef7c 8abc ce36 83bd 0ad4 27bc dbce c0bb
00000060: eebf 903c 6259 a93c ddb9 ba3c fc97 0c3c
00000070: b638 df3b b1a4 1c3d 70f0 13bb c6e4 1cbc
00000080: c5dc d8b9 8d1b a1bc 963d 30bc 9116 243b
00000090: eab1 de3c ba0f b43c 29a5 10bc 98ae 83bd
000000a0: b93c d13c 7fa5 4b3c 1b58 b13b 9633 aabd
000000b0: b83c 183c 2776 01bd ebec 62bd 52d6 f53c
000000c0: bfd9 34bc ebfd 42bc 3b95 13bc a00c 8abc
000000d0: e3a8 383d 9091 10bd f10f e53c 6b03 c4bb
000000e0: 1b9d ed3c 300f c5bc ef8b 713d dd69 14bc
000000f0: a563 84bc 5baa 45bd 51fb 203d e4e0 39bc
00000100: 0b87 c5bc 8ee9 08bc d969 32bd 1be0 1abd
00000110: 045f c33c 90de 343d c00c 263d 8f10 5dbb
00000120: d17e d93c f11a 85bc 0d4e 943b bc1a 0eba
00000130: 0e9a 363c c80a ab3c 9d04 35bd adba ac3b
00000140: b425 813d 8156 0dbb c4f5 103c f8d5 e5bc
00000150: 2e8c 71ba 1226 ca3c d782 3a3d f6cf 493b
00000160: 549f 643a 5668 103d 5193 66bd af48 0f3d
00000170: decf 363d 7618 5f3c 4a69 babd af56 38bd
00000180: be13 b23c 4d22 713d bd4a a03b cb81 883c
00000190: 7cbb 403d cc83 893d fe12 8cbd 2269 9ebd
000001a0: 2c60 b73c 7401 5a3d cd6b cc3c a2a8 96bd
000001b0: dc9f a5bd aec2 cc3b d25c 603b 3c6a 49bd
000001c0: 36e0 b63c fecf 0ebc 6a00 2fbd 2a40 55bc
000001d0: 630f aa3c 8bd4 56bd e744 563d 476a 49bc
000001e0: a25a 12bd ae0e 183d 1374 6f3c 3409 7f3b
000001f0: 08ff 55bc 8d3d b8bc 470a eb3c ec9b 43bc

network_body._body_endoder.seq_layers.8.weight f4 [128, 128]
0.12610352 -0.14485458 -0.071679726 -0.31155968 0.11420856 0.13036121 -0.09503617 0.039419107
0.082209975 -0.003058931 0.077221364 0.22758587 -0.050504018 -0.26533425 -0.0034342066 -0.028493313
-0.036169328 0.115809225 0.16810983 -0.17354639 0.045256414 -0.033183273 0.033280924 0.075865366
0.01925902 -0.08624732 -0.012543107 -0.14182177 0.122836016 -0.032981854 0.09798586 -0.031295348
0.01896215 6.157407e-05 0.26381403 0.161615 -0.037509702 0.058160573 -0.08417069 -0.04377087
-0.15305293 0.022478385 -0.14380102 -0.17032515 -0.07169036 0.16475278 -0.18313582 -0.120485894
0.010321969 -0.06810467 0.14141895 0.201485 -0.0027097345 -0.25936186 -0.034072246 0.0032102894
-0.21361749 0.043240953 -0.01691686 0.16683023 0.008560322 0.19326273 0.09314164 0.1443806
0.043645423 -0.051519573 -0.07040392 -0.13224372 -0.274686 0.19381067 0.12245633 0.23716587
0.21681657 -0.064357065 -0.12428147 -0.10230708 0.022082934 0.021067701 -0.107388675 -0.212507
-0.2851534 0.22662649 -0.040996958 -0.17761831 -0.037570786 -0.30867505 -0.16041061 -0.11570752
0.06387368 0.0027134668 -0.038237184 -0.1920636 -0.24099955 0.20434885 -0.10686271 0.011382305
-0.027959641 -0.1989446 -0.18750316 0.012991541 -0.095259786 0.041521024 -0.1584982 -0.17635883
0.07393063 -0.021083865 -0.06711074 -0.017949708 -0.124146506 -0.09189044 -0.014688412 -0.076356724
0.053552896 -0.05390293 -0.21020275 -0.08673162 -0.17450733 -0.16463691 -0.236149 -0.029104182
-0.16224365 -0.16493364 0.037124034 -0.06673091 -0.0844286 0.069037996 -0.3112357 -0.0660868
0.054590777 -0.026173374 0.03476408 -0.122356996 0.081606366 -0.19547816 0.08671142 -0.15467714
0.18995693 -0.02853114 -0.08163633 -0.0041843015 0.063283764 0.16735385 0.18159091 0.032760747
0.16057408 0.03574425 -0.16179088 0.0057809534 0.08179519 0.07019682 -0.12740451 0.11120881
-0.110970184 -0.1157357 -0.13202402 0.014638669 -0.023746967 0.15555194 0.022584263 -0.026036425
-0.13372238 -0.00039568072 -0.061289903 -0.052572217 0.038022622 -0.015911503 -0.058361877 0.16128024
-0.12808585 0.0069644344 0.024013689 0.06122458 0.054908786 0.0053171474 0.033518907 -0.010734617
-0.115540944 -0.059474107 -0.096904784 0.077166066 -0.13296741 0.07904539 0.028236395 0.15485308
-0.06320477 0.13528176 -0.10737024 0.02478553 -0.1299066 0.21811037 -0.21124823 -0.116407745
-0.08973322 0.015416464 -0.09003626 0.09417964 -0.0014010697 0.09478407 0.14458336 0.007080685
0.09004914 0.24951491 0.036876213 -0.024447761 -0.049172558 -0.10782112 0.09289071 -0.1535974
-0.183754 0.06857661 -0.0058505256 0.019940108 0.10698891 -0.010708405 0.013693073 0.14874707
0.2884298 0.08622314 0.0258461 0.036246303 0.073893346 -0.040873487 -0.053138416 0.052731663
0.021606034 -0.122586474 -0.0058229347 0.0030329155 -0.06476256 -0.09469304 0.082951985 0.13783376
0.012280503 -0.085335426 0.080206856 -0.041029446 0.05987758 0.29071915 0.110694155 0.08864971
-0.10223193 0.04667443 0.27673218 0.12768953 -0.020906113 0.20532337 -0.1237024 0.09321937
0.06132241 -0.17163952 -0.04535514 -0.12001436 -0.057134457 0.011519599 -0.11173322 0.27303994
00000000: 4821 013e c254 14be d2cc 92bd c084 9fbe
00000010: 2de6 e93d 697d 053e 53a2 c2bd ee75 213d
00000020: b45d a83d 5978 48bb 3c26 9e3d 450c 693e
00000030: 4ddd 4ebd e4d9 87be 6d10 61bb cf6a e9bc
00000040: 4a26 14bd 632d ed3d fc24 2c3e 25b6 31be
00000050: ca5e 393d 2feb 07bd 9451 083d 4d5f 9b3d
00000060: 18c5 9d3c 6fa2 b0bd 9b81 4dbc ba39 11be
00000070: 7391 fb3d fb17 07bd d0ac c83d 8d2f 00bd
00000080: 8356 9b3c 5421 8138 a212 873e 677e 253e
00000090: c6a3 19bd c839 6e3d af61 acbd 1549 33bd
000000a0: e8b9 1cbe 9724 b83c 9340 13be b769 2ebe
000000b0: 65d2 92bd f4b4 283e f587 3bbe 4fc1 f6bd
000000c0: 7a1d 293c 767a 8bbd 21d0 103e 1552 4e3e
000000d0: cd95 31bb 14cb 84be 578f 0bbd b863 523b
000000e0: 8bbe 5abe 6d1d 313d 3a95 8abc 8bd5 2a3e
000000f0: 9840 0c3c aae6 453e 0bc1 be3d 82d8 133e
00000100: 8bc5 323d 3006 53bd ee2f 90bd e66a 07be
00000110: a5a3 8cbe 4e76 463e 62ca fa3d 9cdb 723e
00000120: 2a05 5e3e a3cd 83bd 4987 febd 6086 d1bd
00000130: 45e7 b43c 2c96 ac3c 98ee dbbd 6f9b 59be
00000140: a0ff 91be c610 683e 6dec 27bd 93e1 35be
00000150: d3e3 19bd a80a 9ebe ae42 24be 10f8 ecbd
00000160: 34d0 823d 6bd4 313b 989e 1cbd 52ac 44be
00000170: 96c8 76be d340 513e d6da dabd d97c 3a3c
00000180: 9e0b e5bc 22b8 4bbe d400 40be 79da 543c
00000190: 9017 c3bd f311 2a3d 5a4d 22be 6997 34be
000001a0: f168 973d 12b8 acbc 5b71 89bd 440b 93bc
000001b0: 8640 febd 0e31 bcbd aaa7 70bc ea60 9cbd
000001c0: 485a 5b3d 52c9 5cbd 643f 57be 59a0 b1bd
000001d0: 0db2 32be 9496 28be 0bd1 71be e56b eebc
000001e0: 3323 26be 5de4 28be 5f0f 183d 37aa 88bd
000001f0: e7e8 acbd cb63 8d3d 495a 9fbe 8458 87bd
00000200: 949a 5f3d 8b69 d6bc c864 0e3d 4e96 fabd
00000210: 3d21 a73d 6d2b 48be c295 b13d af63 1ebe
00000220: 1284 423e 23ba e9bc f330 a7bd 771c 89bb
00000230: eb9a 813d cf5e 2b3e f8f2 393e 2230 063d
00000240: 886d 243e 9068 123d 82ac 25be 276e bd3b
00000250: 3d84 a73d 5ac3 8f3d 5476 02be 72c1 e33d
00000260: 5644 e3bd d706 edbd 4e31 07be 07d7 6f3c
00000270: 0089 c2bc 0249 1f3e a202 b93c 574a d5bc
00000280: 85ee 08be 5e73 cfb9 1f0b 7bbd f755 57bd
00000290: 9cbd 1b3d d758 82bc dd0c 6fbd a626 253e
000002a0: f028 03be e935 e43b 5bb8 c43c a0c6 7a3d
000002b0: 09e8 603d 773b ae3b 1f4b 093d 3fe0 2fbc
000002c0: bba0 ecbd 1f9b 73bd 0476 c6bd 3e09 9e3d
000002d0: 9c28 08be 8de2 a13d 0350 e73c ce91 1e3e
000002e0: 8171 81bd 4d87 0a3e eee4 dbbd 060b cb3c
000002f0: 3c06 05be 5358 5f3e 7551 58be 2f67 eebd
00000300: 0dc6 b7bd 5695 7c3c ee64 b8bd 41e1 c03d
00000310: 19a4 b7ba 271e c23d a90d 143e 1705 e83b
00000320: af6b b83d d680 7f3e 830b 173d ac46 c8bc
00000330: 2a69 49bd 52d1 dcbd 7c3d be3d a348 1dbe
00000340: 022a 3cbe e571 8c3d c4b5 bfbb 7059 a33c
00000350: 001d db3d 4e72 2fbc e958 603c 2751 183e
00000360: 12ad 933e c295 b03d 33bb d33c 0177 143d
00000370: 6555 973d f56a 27bd aba7 59bd 28fd 573d
00000380: 23ff b03c 9e0e fbbd 51ce bebb e1c3 463b
00000390: 3ca2 84bd 6dee c1bd bbe2 a93d 4b24 0d3e
000003a0: 2a34 493c 57c4 aebd 7e43 a43d 7e0e 28bd
000003b0: 3142 753d 24d9 943e 9eb3 e23d fb8d b53d
000003c0: f95e d1bd b02d 3f3d d7af 8d3e 0bc1 023e
000003d0: 4c43 abbc 4a40 523e af57 fdbd cce9 be3d
000003e0: 352d 7b3d 45c2 2fbe 50c6 39bd 17ca f5bd
000003f0: d205 6abd b3bc 3c3c 63d4 e4bd e4cb 8b3e

network_body._body_endoder.seq_layers.8.bias f4 [128]
0.07061306 -0.09031729 0.058781303 -0.037064303 0.0020608485 0.016940491 -0.022911578 -0.10214397
-0.04131201 -0.023505509 0.091601945 -0.08108388 0.0013368555 0.012220363 0.0053581945 -0.11953474
0.021052653 -0.060026504 -0.0329132 0.06623204 -0.023689149 -0.024298389 -0.028192319 0.05306615
0.04288419 -0.032044124 -0.01575518 -0.008948096 -0.13582264 0.06879193 -0.03461466 -0.13048255
0.03852544 -0.06761664 0.008290681 -0.0066768043 -0.01584489 0.039109048 -0.0669161 -0.034734767
0.022787608 -0.007739676 0.06076117 -0.056905393 0.044158198 0.006743102 0.062007464 0.073411345
0.02259516 0.00011146612 0.008506773 -0.045319043 0.023282684 -0.12844777 -0.002099279 -0.052745417
-0.022090193 0.0137538165 -0.05638546 0.020666495 0.021184096 -0.010522053 0.016734317 -0.023785973
-0.016316991 0.021823527 0.023821548 0.00065395463 -0.13454159 0.0038676327 0.00074656593 -0.0032793034
-0.045928728 -0.013969338 -0.04382842 0.06063812 -0.035654213 -0.077568196 0.0029505596 0.030779567
0.075395465 0.021002652 0.02194151 -0.009259924 -0.04921509 -0.020627756 -0.017571934 0.01529078
-0.00039217577 0.019343708 0.004601991 0.051734682 0.031883013 -0.017382495 0.013149399 0.04296671
0.016452113 -0.01375499 0.019057212 0.0022481591 0.03545662 0.02933946 0.012659038 0.017819203
-0.02199524 -0.03245909 0.02626012 -0.09036184 -0.062953584 -0.044949748 -0.014918145 -0.042849276
0.002497885 0.02328774 -0.07977635 -0.056682575 -0.09407237 -0.0023476088 -0.06196323 0.00014436018
-0.055272248 -0.011316127 -0.059989918 0.055214558 -0.013156507 -0.11867843 -0.09226051 0.0630241
00000000: 949d 903d 45f8 b8bd aac4 703d bdd0 17bd
00000010: 4d0f 073b c9c6 8a3c 10b1 bbbc dc30 d1bd
00000020: c836 29bd a08e c0bc cd99 bb3d 4e0f a6bd
00000030: 6d39 af3a eb37 483c cb93 af3b a1ce f4bd
00000040: 9d76 ac3c 5ade 75bd fecf 06bd aaa4 873d
00000050: bf0f c2bc 6a0d c7bc 94f3 e6bc e45b 593d
00000060: 55a7 2f3d b340 03bd 0211 81bc 099b 12bc
00000070: 1715 0bbe c9e2 8c3d 1ac8 0dbd 389d 05be
00000080: dacc 1d3d 987a 8abd a3d5 073c 18c9 dabb
00000090: 25cd 81bc cf30 203d 4f0b 89bd 0b46 0ebd
000000a0: 14ad ba3c 1c9d fdbb b4e0 783d a115 69bd
000000b0: 3adf 343d 3df5 dc3b 8afb 7d3d b058 963d
000000c0: 7c19 b93c ebc2 e938 fe5f 0b3c 76a0 39bd
000000d0: 54bb be3c d087 03be 0f94 09bb 940b 58bd
000000e0: 7ef6 b4bc b057 613c 71f4 66bd c84c a93c
000000f0: 458a ad3c b064 2cbc 6816 893c cdda c2bc
00000100: 36ab 85bc 41c7 b23c 6825 c33c 276e 2b3a
00000110: 45c5 09be 1c78 7d3b 31b5 433a 95e9 56bb
00000120: c31f 3cbd a6df 64bc 6e85 33bd ad5f 783d
00000130: 270a 12bd 13dc 9ebd 2d5e 413b 6e25 fc3c
00000140: f068 9a3d c10d ac3c aebe b33c f0b6 17bc
00000150: c395 49bd 8afb a8bc 04f3 8fbc 2e86 7a3c
00000160: f19c cdb9 b276 9e3c 4ccc 963b bfe7 533d
00000170: c397 023d bc65 8ebc 9470 573c dcfd 2f3d
00000180: 95c6 863c 9c5c 61bc df1d 9c3c da55 133b
00000190: f63a 113d 4f59 f03c db67 4f3c 94f9 913c
000001a0: 5d2f b4bc d3f3 04bd 771f d73c a10f b9bd
000001b0: cfed 80bd 3a1d 38bd 3c6b 74bc b982 2fbd
000001c0: 8eb3 233b eec5 be3c c861 a3bd fd2b 68bd
000001d0: 04a9 c0bd 57da 19bb 28cd 7dbd 645f 1739
000001e0: 2765 62bd 4767 39bc fdb7 75bd a928 623d
000001f0: 648e 57bc ad0d f3bd 14f3 bcbd c812 813d

action_model._continuous_distribution.log_sigma f4 [1, 8]
-0.26846418 -0.15610127 -0.048737478 -0.18320177 -0.017974889 -0.24142347 0.06306013 -0.034709007
00000000: 2374 89be 03d9 1fbe f3a0 47bd 3f99 3bbe
00000010: 1340 93bc b737 77be ab25 813d 082b 0ebd
