Assets/Quadruped 4.onnx (onnx, 328423 bytes, 14 tensors)

network_body._body_endoder.seq_layers.0.weight f4 [128, 96]
00000000: edfe cabc 03fe b3bd 3011 25bd 32f0 2abd
00000010: dfda d6bd 48f6 97bd 6434 943c 5ae7 d0bc
00000020: 8956 c93d 3e12 733d 637a 6a3e 165c 70bd
00000030: c0ab 4a3d e8bc 7b3e 4f30 c0be 8eda 42bd
00000040: c4e0 37be 1340 eabc 142e 2abb 43a7 9fbd
00000050: 8611 433e 280f b8be cc5d dc3d 9183 c7be
00000060: 0ee8 7d3d 8c33 85bc e7f9 143e 2555 ddbb
00000070: 0649 b0be 9ac9 1bbd 0f5a 1cbe 2cd7 2bbe
00000080: 6785 323e b144 32be 25c7 813c 64d2 09be
00000090: c265 c93d 641e 3b3d c459 713d bcda 6a3e
000000a0: 92de 3fbd a6a7 50be 4c9d a23e fb24 973d
000000b0: 482d 3abe 8711 693d e9f0 7e3d da5f 113e
000000c0: eaaa 68be d0bd 83bd 35c8 36bd 4cd2 253d
000000d0: 55e8 0fbe bc3d b2bd d2f9 c5bd a624 babc
000000e0: 1240 973d 1061 ff3a 463d 27be c619 83be
000000f0: 5fe3 e8bd def8 0a3e f7c6 e73d cca3 56bd
00000100: fe1e b8bd b453 83be ccef 08be d872 34be
00000110: 9dc3 bfbd 0c57 37bd 9a08 fa3d 4478 bdbc
00000120: 4c63 ff3c 2197 e8bb 521e 2f3d 5e8f 1dbd
00000130: 7ece 5bbd 5800 0c3d 890d 23bd 1694 2c3e
00000140: 9592 a0bd 3f2a 82bd aa1b 12be d3b1 5c3e
00000150: 06d4 6ebe f7c1 ca3c 40c4 4fbd 651a 06bd
00000160: cdb6 a73d 664b 23be 2a75 9a3e 90aa d5bd
00000170: 7a6c e03d 93f1 783d 4bb9 94be ae42 ee3d
00000180: 43d5 0abe 21f8 0c3d 3b14 4bbe 7417 02be
00000190: e12b f53d f67d 833d 07d3 86bd adc4 293d
000001a0: 8ed3 7cbd 5f8d b43e d10f 4fbc 6469 903d
000001b0: 5037 15ba ce4c dabd 05bc 463d ed1a eabd
000001c0: 4b01 013e 3699 bc3d ca6b ca3d 1722 df3d
000001d0: 0f20 d0bd 2592 2c3e 6668 21be e27e b5bc
000001e0: 06b5 0abd b3e7 d8bd 6358 4c3e 6f67 3fbd
000001f0: bfff 7dbd 28a1 3ebd de79 30bd 96e7 633d
00000200: e174 bd3d 0176 41bd d506 a7bd ba00 7f3c
00000210: 62e7 713e 950a 1fbd a7be 1cbe 5a64 143d
00000220: eec7 653d cae5 0e3e d18e b8bc 0f70 8d3d
00000230: 9b56 c1bd b65a 5a3e 13b2 d03d 2f5a 4bbe
00000240: 9082 9d3e 01be 2dbc 0cf0 3abd 921d 90be
00000250: 0aa3 363e 3585 d53d b1ab 17be ce68 1b3e
00000260: af49 1d3e 75c4 a0be 6582 0dbe 2b57 133d
00000270: 338b 21ba 4356 b13e dd02 9dbd 133b debd
00000280: 5f80 273d 50a0 c1bc 3d85 07be b63d c5bd
00000290: 9ea4 babb d447 9ebc 1e71 4e3e a807 74bc
000002a0: 2212 babd 882e ebbd f5e9 893e e0b8 5dbe
000002b0: 7f2a f03b 9488 713e 659e 3dbd 8fd9 753e
000002c0: b1ef 22be 058d 8d3d ee6f 683c 45ba 7f3e
000002d0: b4e1 a63d 342f b93d c39d d33d dd15 66be
000002e0: ac75 ebbd d08a 423e b7d3 b63e c36c 073e
000002f0: 8171 eabd ef9e 803e 9cc5 f5bd 82a0 abbd
00000300: b0ea 913c 7569 2b3e ff3b b239 299e a33e
00000310: ad90 debd 54f6 17be 92d3 a23c e901 96bd
00000320: 378b cfbd fc10 04be 6b8d e4bd 23bc 4f3b
00000330: 7b6e 293e be72 1d3e 3724 7bbe 18ec 2a3c
00000340: b3cf 6cbe 97b1 de3b dfab bbbc 8ca9 483d
00000350: a33e e73d debb 9abe e32c 00bc 2b10 1abe
00000360: 7464 febd 3c71 06be 728d 31bc a34c c63b
00000370: fd15 85be 2c36 b43c c02f 88bc db8c 093e
00000380: 5c78 e2bc 391f 1f3e 4d87 b9bd 8f3e febc
00000390: ed5c 05bd ef55 cc3d 77b6 81be 3360 82bb
000003a0: 4a78 dc3d dfc9 a9be 37f2 78bd 2526 203e
000003b0: f4e8 c1bd e518 9cbc 8d52 453c 069a ff3c
000003c0: de6b c8be 8c5f fd3a 4f4b 843d 0363 b3bd
000003d0: 5050 0b3e 0f0e c1bd 972a c33a 6b48 2a3d
000003e0: 8b20 89be f2c5 9c3d 8d9d 02be 3cf5 4b3c
000003f0: 26bd bdbd 652b c0bd 0426 b9bd 1fbf d6bd
-0.024779761 -0.08788683 -0.040299594 -0.041732974 -0.10490965 -0.07420021 0.018091388 -0.025500942
0.098309584 0.05934357 0.2289825 -0.05868157 0.0494802 0.24583781 -0.37536857 -0.04757171
-0.17956835 -0.028595006 -0.0025967406 -0.077955745 0.19049653 -0.35949063 0.10760078 -0.38967565
0.061988883 -0.016259931 0.14548455 -0.006754535 -0.34430712 -0.03803406 -0.1526873 -0.167813
0.17433701 -0.17409016 0.01584203 -0.13459164 0.09833862 0.04568328 0.058923498 0.22935003
-0.04684312 -0.20376453 0.31760633 0.073801 -0.18181336 0.05690148 0.06224147 0.1419672
-0.22721449 -0.06432688 -0.044624526 0.040483758 -0.14053471 -0.08703181 -0.0966679 -0.022722553
0.07385267 0.0019483883 -0.16331968 -0.256056 -0.113714926 0.13571498 0.113172464 -0.052402303
-0.08990286 -0.25649798 -0.13372725 -0.17621934 -0.09363482 -0.04476075 0.12208672 -0.023128636
0.031175278 -0.007098094 0.042753525 -0.038466804 -0.053663723 0.034180015 -0.03980783 0.16853365
-0.07840458 -0.06355714 -0.14268366 0.2155221 -0.23323068 0.024750693 -0.050724268 -0.032740016
0.08189163 -0.15946731 0.30167514 -0.10432923 0.1095819 0.060777258 -0.29047617 0.11633812
-0.13557915 0.03441632 -0.19831936 -0.12704259 0.1197126 0.064205095 -0.06583219 0.04144733
-0.06172519 0.35264108 -0.012638048 0.07051352 -0.0005692141 -0.106591806 0.048519153 -0.11430917
0.1259815 0.0920891 0.098838404 0.10895174 -0.10162365 0.16852625 -0.15762481 -0.022155229
-0.033864044 -0.10591068 0.19955592 -0.0467295 -0.062011477 -0.04654041 -0.04308497 0.05564078
0.092508085 -0.047231678 -0.081556 0.015564138 0.23623422 -0.03882845 -0.15307103 0.036228515
0.05609887 0.13954845 -0.022529038 0.06906139 -0.09440347 0.21323666 0.10190215 -0.19858621
0.30763674 -0.0106043825 -0.045639083 -0.2814756 0.17835632 0.10425798 -0.14811589 0.15176699
0.1536014 -0.31399885 -0.13819273 0.0359718 -0.0006162405 0.34636125 -0.07666562 -0.10851111
0.04089391 -0.023636013 -0.1323442 -0.09630911 -0.0056958934 -0.01932136 0.20160338 -0.0148944035
-0.0908549 -0.114834845 0.26936308 -0.21652555 0.0073292847 0.23587257 -0.046293635 0.24008773
-0.15911748 0.06911663 0.014186842 0.249734 0.08148518 0.090422064 0.10332825 -0.22469278
-0.114970535 0.18998265 0.357084 0.13225083 -0.114474304 0.25121257 -0.120005816 -0.08380224
0.017812103 0.16739447 0.00033995506 0.31956604 -0.108674385 -0.1484006 0.019876275 -0.07324583
-0.10133975 -0.12897104 -0.11159786 0.0031697832 0.16546051 0.15375802 -0.24525534 0.010432266
-0.23126106 0.0067960727 -0.022909103 0.048989818 0.11291244 -0.30221456 -0.007823202 -0.1504523
-0.12421504 -0.13129133 -0.010836946 0.0060516163 -0.25993338 0.021998487 -0.016624331 0.13432638
-0.027645282 0.15539254 -0.0905901 -0.03103569 -0.032559324 0.09977328 -0.25334522 -0.003978753
0.10765131 -0.33161828 -0.06077787 0.15639551 -0.094682604 -0.01905484 0.012043607 0.031201374
-0.39144796 0.0019330843 0.064596765 -0.08759119 0.13604856 -0.094265096 0.0014890012 0.04157297
-0.2678264 0.076549426 -0.12755413 0.012448605 -0.09264593 -0.09383277 -0.09040454 -0.10485672

network_body._body_endoder.seq_layers.0.bias f4 [128]
00000000: a9b0 f4bc 0c8f 28bc 738a afbb 1902 073c
00000010: 0868 24bc 2b53 6b3c 21d8 2ebc 9a60 d2bc
00000020: da15 04bd feae 163d 12ac 1f3c 1419 05bc
00000030: d46d 063d dcf6 31bc 7d7f 1d3d 9432 233c
00000040: d2ff 62bc 924a d8bc e0a5 cabc e79f 133c
00000050: d363 883c ed9f 2fbd 3c9b 7cbb 48c3 9a3b
00000060: faa4 713b 1a7c 6fbe e729 f03c 3ee5 173d
00000070: e4f4 05bc 43fa f0bc cf35 46bd a470 453b
00000080: 622b 8a3c 2acf 3f3c 9d0a 42bd af22 76b9
00000090: 9ad3 2dbd 8b85 a5ba 1338 4dbb 5eaa 4d3d
000000a0: a42a 8a3d 8c25 68bd 9c78 6abb 1708 9d3c
000000b0: 38e0 6dbc d0df 4eba 1f78 47bd dd3f 04bd
000000c0: 403f c53b d50d f5bc 5add 86bc f906 223d
000000d0: 6220 dabc 5bc1 84bb 1955 3a3c 5f1a dfbb
000000e0: ba47 413a 2352 b13b d848 10bd ddcf 833c
000000f0: 3579 c5bb 5323 03bd 9576 d73c 2cf3 d7bb
00000100: 4a65 ed3c df10 a1bc 353e bb3c 8c03 2bbd
00000110: 332c 2dbd eb32 d9bc 1a01 f2bc 5b01 843c
00000120: 6836 17bc 4f69 58bc 89a6 59bc 228a e43b
00000130: 8574 903c 34f3 cf3c 1e15 71bc 506d 72bc
00000140: 207f 37bc bf70 f83c 8d4f 00bd b4de a0bc
00000150: 6dcd afbc cc18 803c d73a 2fbc 3388 a0ba
00000160: 7729 953c 5821 d3bb 8455 1a3a 9958 efba
00000170: d61b b63c 3743 2cbd ad76 5cbc 3ebb b23b
00000180: 04e2 503c 5f0c c0bc 1583 6bbc 4e37 7ebc
00000190: 3be0 823a 5824 393b 29ab 0fbc bfce cfbc
000001a0: 23a2 c73c 7250 eb3b 695a e53c bc66 8ebc
000001b0: de5a 723b 5847 3eba 0629 acbc b841 c23c
000001c0: 9403 0f3d 8ee9 02be 3fdc 523c 3835 febc
000001d0: a02c a0bc f831 33bd 6f07 0fbd eeb0 633c
000001e0: 5ebf 723c d1a8 813b 7937 f93c 588d b23c
000001f0: 18a3 6cbc 0d03 44bc 476c f73c cfb7 21bb
-0.029869394 -0.010288011 -0.0053570806 0.008240246 -0.010034569 0.0143630905 -0.010671646 -0.025680829
-0.0322474 0.03678798 0.009745615 -0.008123655 0.032819584 -0.0108620785 0.03845166 0.009960789
-0.013854938 -0.026402745 -0.024737298 0.009010292 0.016649162 -0.042877126 -0.0038544675 0.0047229864
0.0036872015 -0.23387185 0.029316856 0.037083857 -0.008176062 -0.02941621 -0.04839116 0.0030126953
0.01686639 0.011707107 -0.047373403 -0.00023473309 -0.042438127 -0.00126283 -0.003131394 0.050211303
0.06746414 -0.056676432 -0.0035777455 0.019168897 -0.01451879 -0.0007891627 -0.04869854 -0.032287467
0.006019503 -0.029913822 -0.01646297 0.03955743 -0.02662677 -0.00405137 0.011372828 -0.0068085636
0.0007373054 0.005411403 -0.03522572 0.016090328 -0.006026412 -0.03201611 0.026301662 -0.0065902676
0.028978962 -0.019661365 0.022856811 -0.04175143 -0.04227848 -0.026513537 -0.02954154 0.016113928
-0.00922928 -0.013208701 -0.013284334 0.0069744745 0.017633686 0.025384523 -0.014714507 -0.01479657
-0.011199743 0.030327199 -0.031325866 -0.019637443 -0.02146026 0.015636824 -0.010695181 -0.0012247622
0.018208249 -0.006443184 0.00058873766 -0.0018260657 0.02223007 -0.04205629 -0.013456029 0.00545445
0.012749199 -0.023443399 -0.014374514 -0.015516115 0.0009985039 0.0028250422 -0.008768835 -0.025367139
0.024369305 0.0071812207 0.027997212 -0.017382972 0.003698043 -0.0007258556 -0.021015655 0.023712978
0.03491552 -0.12784407 0.012869894 -0.031031236 -0.019552529 -0.043748826 -0.0349192 0.013897164
0.014816133 0.003956892 0.03042196 0.021795914 -0.014443181 -0.011963618 0.030202998 -0.002467621

network_body._body_endoder.seq_layers.2.weight f4 [128, 128]
00000000: eb1c 12bd d556 b23b 1707 d93d b1d0 273d
00000010: 47a0 9a3c a6bb 23bd bb71 12bd 5c7b 303c
00000020: 6352 8b3d 74f0 0e3e fa9c c0bd 17cd bbbd
00000030: d554 ecbc d570 123e 56cd 4e3c 0104 513c
00000040: f4a4 2c3d 545f b93d c86e c23c bd5f 5d3e
00000050: 9d39 d7bd b93c ddbd 84eb bdbe 0403 12be
00000060: e56b bf3b bc1c e43d fe29 9ebd cb69 be39
00000070: b728 6b3d ce39 babd 2f5e 8cbd e8ee 5abd
00000080: f268 12be 3f13 b7bd 10ef 80be b4dc 04be
00000090: b9a0 b73d 35db 56bd 2cb8 843d 089c b23d
000000a0: 5f8b 90bd 02b0 f0bd 0a42 183d 0ac3 853d
000000b0: cb55 a939 51d9 843d 6afd 7bbd 17a5 a3bd
000000c0: dbea 223d 81ce 2e3e 1bcc b83d 6651 73bb
000000d0: 2599 0abe f647 1ebe 1dc4 db3c 8090 6e3c
000000e0: 6b36 b63d f044 18be e3c3 0dbe ed40 8b3d
000000f0: b3a9 f93c a2a9 8aba 3b65 b9bd e8c7 99bd
00000100: f341 16bd fb86 2ebd 4882 81bd 5cd3 b53d
00000110: 41d1 1a3d bea8 fd3d e426 efbd eb70 18bd
00000120: 3d44 29bd 6094 e23d 45be f63b 85cc 0a3d
00000130: ea42 23be f820 e13d 8066 003e 148e e5bd
00000140: b47c e6bd 6a4a 6d3e 3290 d0bd deec ee3d
00000150: bb75 00bd 8c6d 863d 6eff 8c3d c5d1 9ebd
00000160: 1e06 6f3d 8c54 97bd d60a 96bd 120a 083e
00000170: 6978 353d 58a0 cd3c eb30 b4bb 30db 59be
00000180: b34d 363d bb9f f3bd 8988 953d f99b c7bd
00000190: d64d 4ebd 3308 b7bd 4ed7 f93d cac0 943d
000001a0: 78fa bcbd a4da 553e 0c79 c83d 9277 0dbd
000001b0: 671f 143e 5337 a03a 85dc 4bbd e25a ebbd
000001c0: 3c4e 8e3e 9c50 91bd 90fa 1b3a 4ee2 433e
000001d0: ac44 823d dec1 8c3c c0fe 00bd dfeb bbbd
000001e0: a167 c13d 96e9 f2bd cbc9 fbbd ba1e 303b
000001f0: a0a6 f6bd ea53 1abd b447 fa3c 8a03 bbba
00000200: 3a16 6c3d f9ed 7d3d 0f27 1c3d 0649 723e
00000210: b835 b1bd 671c b33d 1d54 173e 67cf 95bd
00000220: 26b2 10bc 9dcc 163e 7fc7 1a3d be16 c63d
00000230: 76af 7abe b346 f93c c09b c13d 4e41 6d3d
00000240: 3d69 173d ec28 033d 8157 30bd 2d4c 24bc
00000250: af1f 4d3d aafa 48be 0e6e 0abe 3c0a 8bbc
00000260: abe9 023d ea63 8e3c 943c ecbd 795b 833c
00000270: 4680 aa3d 60ab 8d3d ede6 57be f0b1 30be
00000280: 063a 0c3d ac55 fbbc aab6 1dbe 1c64 0cbe
00000290: 90c5 9a3d b8d5 22be c5d6 88bd 4a15 d8bc
000002a0: 9027 803c 45b0 89bd 6b4d bdbd fcc9 86bd
000002b0: ab23 c93d adae 993d 1480 16bc ed6f 40bd
000002c0: f4fb 29bc 54f3 02be d63b 94bd 6ed7 6c3e
000002d0: 470c 0c3e 927b a3bd 3c82 fc3d 8662 213c
000002e0: 2c40 8fbd 636a 8fbd d31a b9bd 8563 a23d
000002f0: b087 70bd 215c a2bd 2504 003e 72e9 95bd
00000300: 2f4a a83c 5f19 6bbd af4d 6ebd d39e 1dbe
00000310: 7b28 af3d f451 8cbd 9807 dcbd bfa8 8a3c
00000320: a792 72bd 4c9c efbd bcfe 4ebe aa90 463e
00000330: 2062 ea3c 7755 323d 387c 733e 0115 a13d
00000340: f9d1 d2bd 81a3 833c b0ef 9bbd 5fee d0bb
00000350: 7572 bdbd e232 e7bd fe7e d93d 27e7 b73b
00000360: aad1 803d e981 c9bc 6e7e 0dbe b7f7 1f3e
00000370: b1f2 843d 5ff7 02be e5ce 77bd cefb 9bbd
00000380: 6895 66bd cfd7 bcbd cb99 c5bc 726a 24bd
00000390: 7c81 aa3b 98c4 96bd 944a 25bd 2c95 a7bc
000003a0: 9354 523e b33a 333e 988d 0e3e ad85 833d
000003b0: 652a 85bd b7e4 e23d 5dc7 f03c 0216 aa3d
000003c0: a7c0 bdbb 8ad2 09bd d77d bf3d d1e3 043d
000003d0: 02d7 82bd e6d7 42bc a1f6 963d 6ca6 eabd
000003e0: 2c88 273e 787a debd ac47 05be 1504 08be
000003f0: 2143 783d 8ca1 85bc d1be beba b0d0 863c
-0.03567211 0.00544248 0.105970554 0.040970508 0.018875254 -0.039973877 -0.035752993 0.010771599
0.068028234 0.13958913 -0.09404941 -0.09169977 -0.028849045 0.14300855 0.012622198 0.012757302
0.0421495 0.090513855 0.023734465 0.21618553 -0.10509036 -0.108025976 -0.37093747 -0.14258963
0.0058417195 0.11138293 -0.07722853 0.00036318446 0.057411876 -0.090930566 -0.068539016 -0.053450495
-0.14297846 -0.08939218 -0.2518239 -0.12974817 0.08966202 -0.052455146 0.064804405 0.08721167
-0.07057833 -0.11752321 0.037172355 0.065313414 0.00032298113 0.06486762 -0.06152097 -0.07990473
0.039774757 0.17070962 0.09023305 -0.0037127375 -0.13534983 -0.15457138 0.026826913 0.014560819
0.08897098 -0.14870048 -0.13844256 0.06799493 0.030476427 -0.0010579119 -0.09052511 -0.07508832
-0.036683988 -0.042609196 -0.06323677 0.08878204 0.037797216 0.12385701 -0.1167734 -0.037217062
-0.041324843 0.110634565 0.007530006 0.03388645 -0.15943494 0.109926164 0.125391 -0.1120874
-0.11254254 0.23172918 -0.10183753 0.116662726 -0.031362277 0.06563863 0.06884657 -0.07754854
0.058355443 -0.07389173 -0.073262855 0.13285092 0.044304285 0.025100872 -0.0054989955 -0.2127502
0.044507693 -0.118957005 0.07301433 -0.09746546 -0.0503672 -0.08937111 0.12199269 0.07263334
-0.092274606 0.20884186 0.09788713 -0.03453786 0.14465104 0.0012223519 -0.04977085 -0.11491944
0.27794063 -0.07095453 0.00059501175 0.19129297 0.06360754 0.017182287 -0.03149295 -0.09175848
0.09443594 -0.11860959 -0.12294348 0.0026873783 -0.120435 -0.037677683 0.030551769 -0.0014268022
0.057638384 0.061994527 0.038123187 0.23660669 -0.08652824 0.08745652 0.1477818 -0.073149495
-0.008831536 0.14726491 0.03778791 0.096723065 -0.24480996 0.03042922 0.09453535 0.057923608
0.036965597 0.032021448 -0.0430522 -0.010027927 0.050079044 -0.19626871 -0.13518545 -0.016972654
0.031961124 0.017381627 -0.11534992 0.016034828 0.083252475 0.06917453 -0.21084185 -0.17255378
0.034235023 -0.0306805 -0.15401712 -0.13710064 0.07557213 -0.1590184 -0.06681589 -0.026377339
0.015643865 -0.06723074 -0.09243282 -0.06581494 0.09821256 0.0750402 -0.00918581 -0.04698174
-0.010375012 -0.12788135 -0.07237975 0.23129055 0.13676558 -0.079825535 0.12329528 0.00985015
-0.06994662 -0.070027135 -0.090383194 0.07929138 -0.05872315 -0.079277284 0.12501581 -0.07319917
0.020543186 -0.057397243 -0.058179554 -0.15392618 0.08552643 -0.06851569 -0.10743636 0.016926168
-0.05922189 -0.11699733 -0.20214361 0.19391122 0.028611243 0.043538537 0.23777854 0.07865334
-0.10293955 0.016069176 -0.07614076 -0.0063760723 -0.092503466 -0.11289002 0.10619925 0.0056122723
0.0628999 -0.024598079 -0.1381776 0.1562184 0.06491602 -0.12789677 -0.060500044 -0.07616387
-0.05629483 -0.0922085 -0.024121186 -0.040140577 0.005203424 -0.07361716 -0.040354326 -0.020456873
0.20540075 0.1750286 0.13921201 0.06421981 -0.06502227 0.1107878 0.029391939 0.08304979
-0.005790788 -0.03364805 0.09350174 0.032443825 -0.06388666 -0.0118922945 0.073712595 -0.11457524
0.16360539 -0.10863203 -0.13015622 -0.13282807 0.060610894 -0.016312383 -0.0014552717 0.016456932

network_body._body_endoder.seq_layers.2.bias f4 [128]
00000000: 9ea9 8a3c 521c 773c 2d0e 9fbc d5d3 a9bc
00000010: 7622 c8bc eec8 22bd 6058 17bd b485 1bbd
00000020: f11f 8bbd 07f6 f6bc c1d7 f9bc 3910 26bd
00000030: 25b9 eb3c e53b 7b3c 3bf2 0338 7a7e 65bd
00000040: 4a91 acbc 727d a63c e2f5 d5bc b79c 6e3c
00000050: 4b03 e63c e094 8b3c 28fc 0a3c 8a8b cebc
00000060: 7523 e9bc 0330 2cbd 028c 4eb8 ff3b 9cbd
00000070: 61f8 ebbc d149 49bb 251d fbbc a3ef dc3b
00000080: be27 173d 77f3 2e3d 7c6a ab3d 834a 453d
00000090: 3e1d 06bd d4f9 47bd 91bc dbbd 0171 91bb
000000a0: f6d1 6c3c e435 a5bd bbf6 913b a5bd a73d
000000b0: 98b0 e1bc 6017 033c 7ff6 37bd 289b fdbc
000000c0: e7bb 55bd a6bf 543d ce05 473c 1714 a5bd
000000d0: f698 6d3c d4a2 eab9 02b6 c93b d04c 523d
000000e0: 488e 95bc 4b3f 3d3d 879f 95bd e97c 423d
000000f0: ce44 5a3c 0a15 143b d062 d7bc 3f18 0dbd
00000100: 5e1b aebd a77e 603d 9fe0 99bd b949 983b
00000110: 97a5 5fbd 9135 8ebd 2970 bb3c 41e7 253d
00000120: 0582 1bbd 7563 023d 0646 01bd 8980 72bd
00000130: c5f3 3e3c 56de 35bc 01d2 7bbd 4d68 973c
00000140: 67d1 78bd 4f7f 1a3d 4e8a 38bb afdb 6e3d
00000150: 0118 a9bd de72 8a3c 04ec a13a 06da 96bc
00000160: a9db 093d d989 46bc 09ea 31bd 35d6 1a3c
00000170: f06f 12bc 41f3 6abd 4ff8 693c 6789 2abd
00000180: b7b6 383c 5ba2 a9bb 04a5 123d e920 883c
00000190: 0aef 843d 3e68 93bc a2b1 61bc e230 853c
000001a0: 2813 623d f708 4fbb d6a3 32bd d800 83bc
000001b0: 8e7c 3bbd 7046 0fbc 2fc9 a5bd e7ca 29bd
000001c0: b38a 663c a4d8 8b3a 5da6 dc3c 859a 76bd
000001d0: 7a4f 9b3b 06d1 0ebd da17 fbbc 15cd 813d
000001e0: ea97 55bd 584f 3d3d 2d0d 9bbd 939c 9abd
000001f0: cf23 c1bc 5923 62bd 4c9a 86bd 9571 c93c
0.016926583 0.015082436 -0.01941594 -0.020730892 -0.024430495 -0.039742403 -0.036949515 -0.037969306
-0.06793202 -0.030146612 -0.030498387 -0.040542815 0.028774807 0.015334104 3.145843e-05 -0.05602882
-0.021065373 0.020323489 -0.026118223 0.014563731 0.028077742 0.017038763 0.00848297 -0.025213022
-0.02845929 -0.042037975 -4.924462e-05 -0.07628631 -0.02880496 -0.0030714164 -0.030653546 0.006742434
0.036903135 0.042712655 0.0836992 0.048166763 -0.03274273 -0.04882224 -0.107293256 -0.00443852
0.014454355 -0.080669194 0.0044544614 0.08190469 -0.027550027 0.0080011785 -0.04491281 -0.030957773
-0.05218115 0.051940583 0.01214738 -0.080604725 0.014501801 -0.00044753274 0.00615573 0.051342785
-0.018256322 0.04620294 -0.07305818 0.047482405 0.013322068 0.0022595548 -0.026292235 -0.03444695
-0.085013136 0.054808285 -0.07513546 0.0046474603 -0.05460128 -0.06943811 0.02288063 0.040503744
-0.037965793 0.03183313 -0.03156092 -0.059204612 0.011654799 -0.011100372 -0.061479572 0.018482352
-0.060746577 0.037719067 -0.0028158608 0.058314975 -0.082565315 0.016900476 0.0012353663 -0.018414509
0.03365675 -0.012117826 -0.043436084 0.009450485 -0.008937821 -0.05736089 0.014280393 -0.041634943
0.011274031 -0.005176825 0.035801902 0.016617255 0.064909056 -0.017994042 -0.013775261 0.01625866
0.05519405 -0.0031591037 -0.043613277 -0.015991613 -0.04577308 -0.008744821 -0.08095013 -0.04145327
0.014071154 0.0010669422 0.026934797 -0.060205955 0.004739699 -0.03486731 -0.030651022 0.063379444
-0.05214683 0.046218246 -0.075708725 -0.075493954 -0.023576645 -0.05520949 -0.065723985 0.024590293

network_body._body_endoder.seq_layers.4.weight f4 [128, 128]
00000000: 7f49 d3bc af37 0dbc 7650 42bd 33c4 62bd
00000010: a7d9 5abe c458 86bb 27a9 e2bc b5fb 95bd
00000020: 864e 9ebd 9e53 a63d 3012 983d 2760 8abd
00000030: 8ff3 fc3c eec4 bb3d 1131 36be a9d2 52be
00000040: f433 f9bd 00a6 113e e56d 863d a824 d4bd
00000050: 6b52 4c3e 9f56 7e3d e839 623d 6b47 b13d
00000060: b695 76be 0c68 583d 470f b63d 8ed2 92bc
00000070: 4c9d cebc 995a 37be 1e92 1d3e c6c0 a43c
00000080: be38 b8bd 8188 0c3d e043 b0bd cad3 14bd
00000090: 98b9 4abe 64d4 ef3c f3ad a43d 9a3a 9cbd
000000a0: 5c46 ecbd f32d 863d 93c3 633d 9ac7 02be
000000b0: 8f9d ccbd 5411 ea3d fd39 53bc eff6 1cbd
000000c0: 38bb 2d3e e11d 753d 8950 8fbe 3dc2 e1bd
000000d0: 3546 d43d f184 e43c 0a2e 4c3d be63 b33d
000000e0: 2e7d 413e efc9 0b3d 54ef 93bd cf06 543d
000000f0: dc00 493d c379 cabc 3da1 3bbd b568 8ebd
00000100: 252c c03c 19a1 c13d 89ce bd3d dc69 86bd
00000110: fd98 cebd 14e2 5e3d 6426 fbbd a3ec 583e
00000120: 49bd c3bc c421 d73d 6639 9f3d 466f 04bd
00000130: f8ec 57be 70c5 d03d bdde aa3d fa9f 49be
00000140: b0e5 7fbd 8b99 e6bc 9893 48bd 3322 9e3d
00000150: c1e5 dbbd 5ea0 3ebd 48be 8b3d e76f 5dbe
00000160: de11 5c3d 74bf a5bd 5801 a3bd 3cb4 abbd
00000170: b204 16be ece2 533c 5ba6 77be 98b7 cc3d
00000180: 6966 fe3c fefd 013e c8db 483d b48c cfbd
00000190: 2f09 18be 6e5e 80bc b214 303e bbb4 7bbd
000001a0: 841d a6be 88e7 98bd bef4 b2bd 9f57 633d
000001b0: 11c7 41be d9be 9fbc 6b2f debd 6583 55bd
000001c0: d301 9e3c 8f43 843d 7b0c 523d fd03 283d
000001d0: d6ac 59bd 21ee 353e ed52 e5bd 5234 8f3d
000001e0: dd0f e03d b1c6 c1bd 171c 43be cf54 48bd
000001f0: 061b bebd 5a31 d83d 3e72 383d 1300 0cbe
00000200: ae2b 183e d6c2 8cbd 8d0b 873d 7a46 a1bc
00000210: fa0c 803d d799 a63b 9403 483d 9d66 26be
00000220: fab9 c2bc 0546 d1bc 5a90 a1bd 1365 863d
00000230: 5a00 06be ce7d 743e 416a 653d 52d0 873d
00000240: b125 303e 9b7e 313e d06c 3ebe 1eae 923d
00000250: bc07 5abc 608d 11be b5fc e53d ba11 333e
00000260: 8759 ac3e 54dc 47bd 4d74 0fbe a48a 6ebc
00000270: 834b 763c bcc3 c5bd 74e1 4c3e 4c5c 153c
00000280: 7317 523d adcb 8dbc 6f41 0fbe 4b89 bd3d
00000290: 3aab 0c3d b00f 483e 855a 34bc b7cf 513e
000002a0: 8677 06be 4ab9 283d 17bd 48bd 5f5d 8dbc
000002b0: f0e8 0bbe aaeb 9ebd 1657 babc 0459 fa3d
000002c0: 900c 103d 5075 423d 8c4a b43d 8cc8 b33c
000002d0: 1d1c 463e 4bd2 3ebe d873 96bd 58ea 89bd
000002e0: c85e edbd 786f 073e de98 59bd 9389 c13d
000002f0: 298b 64bc 9636 c5bd 91e4 0f3e 2bfc dd3d
00000300: f988 cb3c e78f 2bbb 4165 5c3e 330a 49bd
00000310: dd1d e63d c86c b93d ab4c 0f3d cd90 2f3e
00000320: 62e2 753d c019 b3bd e229 39bc 86c1 b03d
00000330: a646 4abd df5e c9bd 0775 353e 8395 12be
00000340: 1749 9b3b 9b15 df3d ccb3 753d 4948 65bd
00000350: 82d2 f43d bc3b 3fbe d226 fabc 75ad ad3c
00000360: 510b a6bd 3870 4b3e f7a2 22bd 32b5 26be
00000370: 648c 7d3d 27be b63d 8944 25bd 8abb a6bd
00000380: a0eb 2fbd 55d7 e1bc 8915 dd3c f070 b1bd
00000390: 7231 4bbe 6fac e43c 6a3f b53c 8ed0 eabd
000003a0: d022 4dbd b06f 583d 8f27 213e 6edb 893a
000003b0: b2e1 da3d 92a7 643d 947f b33d 7fdb 32be
000003c0: 2798 53be a301 7f3c 72a6 25bd 1d9b b23d
000003d0: bd19 90bd ee26 a1bc f6dc dd3d 1d6d 8dbd
000003e0: d1e5 0cbe 073c d6bd cbff bcbd 7581 8b3c
000003f0: 61c0 c53c b6a5 713e 9941 083e dbea 963d
-0.025791882 -0.008619233 -0.047440015 -0.05536289 -0.2137209 -0.004099937 -0.027668549 -0.073234
-0.07729821 0.081214175 0.07425344 -0.06756621 0.030877857 0.09168421 -0.17792155 -0.20588173
-0.121681124 0.1422348 0.065639295 -0.10358554 0.19953315 0.062094327 0.055231005 0.086562
-0.24080548 0.0528336 0.08889633 -0.017922666 -0.02522149 -0.17905654 0.1538777 0.020111453
-0.08995198 0.034309868 -0.08606696 -0.03633479 -0.19797361 0.02927608 0.08040991 -0.07628365
-0.115368575 0.06551733 0.055606436 -0.12771454 -0.099909894 0.11429086 -0.012892243 -0.03832143
0.1696595 0.059842948 -0.2799113 -0.11023376 0.103649534 0.027895423 0.049848594 0.08759259
0.18895409 0.034128126 -0.072233826 0.051764306 0.049073085 -0.024716264 -0.045808066 -0.06953565
0.02345855 0.09454555 0.09267909 -0.0656316 -0.10087774 0.054414824 -0.12263182 0.2118402
-0.02389397 0.10504487 0.0777462 -0.03233268 -0.2108649 0.10193908 0.08343265 -0.19689932
-0.062474906 -0.028149387 -0.04896888 0.07721367 -0.107371815 -0.046539657 0.06823403 -0.21624719
0.053727977 -0.080931574 -0.07959241 -0.08383986 -0.14650229 0.01293252 -0.24184553 0.09995955
0.031054692 0.12694547 0.049037725 -0.10134259 -0.14847253 -0.015670028 0.17195395 -0.061451655
-0.32444394 -0.07466036 -0.08738087 0.055503484 -0.18923594 -0.019500183 -0.10848888 -0.05212726
0.01928798 0.06458198 0.051281434 0.04101943 -0.053143345 0.1776662 -0.111974575 0.06992401
0.10940526 -0.094617255 -0.19053684 -0.048909005 -0.09282498 0.10556288 0.045030825 -0.13671903
0.14860412 -0.068730995 0.06594 -0.019686926 0.06252475 0.005084257 0.048831537 -0.16250081
-0.023770321 -0.025546083 -0.07888861 0.06562247 -0.13086072 0.23876116 0.056009535 0.06631531
0.17201878 0.17333452 -0.18596196 0.071621165 -0.013307508 -0.14214087 0.11229841 0.17487231
0.33662054 -0.048794106 -0.14009209 -0.014559422 0.015032652 -0.09656474 0.20007879 0.009116244
0.051291894 -0.017309034 -0.13989805 0.09254702 0.034342982 0.19537234 -0.01100791 0.20489393
-0.13131532 0.04119233 -0.049008455 -0.017256437 -0.13663077 -0.07759793 -0.022746604 0.1222401
0.03516823 0.04747516 0.08803281 0.021946214 0.19346662 -0.18634908 -0.07346314 -0.06734151
-0.11590344 0.13226116 -0.0531243 0.09450068 -0.013949194 -0.09629552 0.14052035 0.10839113
0.024845587 -0.0026178302 0.21523 -0.049081992 0.11236165 0.090539515 0.034985226 0.17145081
0.06003035 -0.08745146 -0.01130149 0.08630662 -0.04938378 -0.09832548 0.17720424 -0.14314847
0.0047389376 0.10892793 0.05998592 -0.05597714 0.11954214 -0.1867513 -0.03053609 0.021200875
-0.08107627 0.19867027 -0.039706197 -0.16280058 0.061901465 0.089229874 -0.040348563 -0.08141239
-0.04294932 -0.027568499 0.026987808 -0.08664119 -0.1984308 0.027914254 0.022124965 -0.1146556
-0.050082028 0.05284089 0.15737747 0.0010517666 0.10687579 0.05582387 0.08764568 -0.17466544
-0.2066351 0.015564355 -0.040441938 0.08720992 -0.07036159 -0.019671883 0.108331606 -0.06905577
-0.13759543 -0.10460668 -0.09228476 0.017029503 0.024139585 0.2359837 0.13306274 0.07369014

network_body._body_endoder.seq_layers.4.bias f4 [128]
00000000: 13ad 9c3c b162 6e3c 6246 01be 1ce5 38bd
00000010: b76f 09be 50d9 903c a464 bbbd dbee d2bd
00000020: db58 893c 2081 30bd 730c d0bc 0087 403d
00000030: a964 1d3d 62d0 ecbc 19ba 9fbd c086 95bb
00000040: 5cc6 813d dfad e6bd 300e c0bd 21a5 1bbc
00000050: eec1 03be 249f 0cbe bcbe c6bd a25c d7bd
00000060: 5338 ebbd 45f1 3cbd 8dd9 b9bd 79f0 e2bd
00000070: 57ac 5e3d b32a 573d 1e31 6f3d c0f4 16be
00000080: a31c 423c ceea 53bd a566 e2bd 766d debd
00000090: 13b3 4f3d f3e3 733c 7896 c9bd aabf 28bd
000000a0: 520a f8bd 7b7b 07bd 2945 ad3c 4ccb 533d
000000b0: d992 2cbe 4c20 6e3d 6167 013d fc2f 11be
000000c0: 3c0f fcbc a7b9 a63d 1a22 f6bd 73cd b53d
000000d0: dfb1 693d 8d03 ba3d c95f d1bd ae94 bd3d
000000e0: 7a5f 783d a15f c4bd 8b69 00be f00f d6bc
000000f0: 54f6 61bd f4b2 eabc 0147 5bbd 9b77 8cbc
00000100: 1df8 fabd 14c6 453c 8742 c2bd aa4e f53c
00000110: 323b 2cbe 3eaf 76bd 349c a1bd 7d6d d6bc
00000120: 0e64 a2bd 6ca1 cabc 9d14 d03c aad2 20ba
00000130: 1b46 cdbd 78aa b33d 3722 5fbd f13e 35bd
00000140: 8632 2fbe 4c5a 09be a3bf 69bc 2d46 e2bd
00000150: 6f67 75bd e448 0e3d a62c c73d 353a dbbd
00000160: fbf9 203d 0ee7 efbd fecf f03d 4179 29be
00000170: d875 09bd 21c1 b83d 0c32 503d 5d80 60bd
00000180: 74ad 10bd a4f1 dbbd f494 babb eecf 39bd
00000190: ded6 e1bc a811 20bd 8a53 413c 6b5b 28be
000001a0: 5668 8a3d 186d bfbc a047 a23c 3230 64bd
000001b0: e120 a3bd 5b1f 80bd a78a b6bb b5e8 e6bc
000001c0: 8704 6dbd 403b b3bd 9a07 d33d 8cd8 a4bd
000001d0: c598 483c b95f aebd 8fce 96bd 29fb 3a3c
000001e0: eabb 6d3c e742 22bc bd8c 0f3c 8fa4 89bc
000001f0: 4ef6 61bd b6ca 0ebd ac0e 463c ba51 99bd
0.019125497 0.014549897 -0.12624505 -0.04514037 -0.13421522 0.017681748 -0.09150055 -0.10299464
0.016766002 -0.043091893 -0.025396561 0.047003746 0.038426075 -0.028907958 -0.07799167 -0.0045631826
0.06336662 -0.11263632 -0.09377706 -0.009499819 -0.12866947 -0.13732582 -0.097043484 -0.10515715
-0.11485352 -0.04612853 -0.09074698 -0.11081023 0.054363575 0.052530956 0.05839645 -0.14741802
0.011847648 -0.0517376 -0.11054734 -0.10860722 0.050707888 0.01488589 -0.09843153 -0.04119841
-0.121113434 -0.033076745 0.021151142 0.05170755 -0.16852893 0.05813627 0.03159273 -0.14178461
-0.030768983 0.08140879 -0.12018223 0.08877077 0.057054397 0.090827085 -0.10223348 0.09256874
0.06063793 -0.09588552 -0.12540261 -0.026130646 -0.055166557 -0.028649785 -0.05353451 -0.017146876
-0.12254355 0.012071151 -0.09485345 0.029944737 -0.16819456 -0.060225718 -0.078911215 -0.026175255
-0.0792924 -0.024735175 0.025400454 -0.0006134907 -0.10023137 0.08772749 -0.05447599 -0.04424948
-0.17109117 -0.13413352 -0.014266881 -0.11048541 -0.059913095 0.034737483 0.09725313 -0.107044615
0.0393009 -0.11713992 0.11758421 -0.16550161 -0.03355965 0.090212114 0.05082898 -0.054809917
-0.035321668 -0.10739449 -0.005694026 -0.045364313 -0.027568277 -0.03907934 0.011799702 -0.16441123
0.06758182 -0.02336745 0.019809544 -0.055710025 -0.079652555 -0.062559806 -0.005570728 -0.028187135
-0.057865646 -0.087515354 0.10304184 -0.080491155 0.012243454 -0.085143514 -0.07363617 0.01141242
0.014510134 -0.009903646 0.008761582 -0.0168021 -0.055166535 -0.03486129 0.012088459 -0.07486291

network_body._body_endoder.seq_layers.6.weight f4 [128, 128]
00000000: bea5 213e 8307 06bc 8c5b a83d 3fec 4d3e
00000010: d224 c2bd 59ed abbd c1bb 57bd 82ea 16be
00000020: 2770 abbd 368e 233e e9bc 473c 6f23 52bd
00000030: 8c7c 6e3d 52bb b33c 0855 56be 8f89 efbc
00000040: f1df c1bd 8ec7 b1bd 83a3 c43d e7ba ac3a
00000050: 1d95 2ebe 1f61 8d3d 2f1a d13c cb3d 51be
00000060: 2ac9 44bd 281a 003e a06b 003e 8b50 20be
00000070: 6dc2 b03d 0738 79be a444 773d 8b0d c83d
00000080: f094 1fbc 1873 80bd 2c66 73bd 2bb9 873d
00000090: d1c8 72bd 6e57 283d d36d 62bd 9a1d d43d
000000a0: 3dde d7bd fc78 3ebe 385c 1d3d af9b 97bd
000000b0: 8ff1 45bd 7c41 043e aa6d d9bd 1b79 28be
000000c0: 59a6 5cbd a151 633d 050d 07be 4765 953d
000000d0: d0bb 5dbd 88c5 2abd 2bfe eb3c a036 e7bc
000000e0: 1070 6e3d 4aaa d7bc 9436 16be ead9 3d3e
000000f0: c987 bfbd 6e0c 70bc 7cbb 433d bcb8 59bd
00000100: b886 d93b e1d8 6f3a 3693 bdbe 7447 b23b
00000110: 5fad abbd 0d2d 593d a66a b83c 75b2 be3c
00000120: 4ce6 11be d019 2a3d 7ebd 113d 0bfc 74bd
00000130: 3390 a23b b270 90bd a539 c73c c172 393d
00000140: 0a7a 1bbe 7e94 713b aef7 c23b e2f6 22bd
00000150: 611b c0bd ad06 a9bd 5879 c83d d82e 153e
00000160: 62a5 6cbd 6c38 86bd a987 a33c 643e 423c
00000170: d335 24bd 8fc3 343e 43b4 3ebe 2b12 d63c
00000180: 4f68 74bc 3c53 a7bd 24d8 20be 9e8e 31bc
00000190: 075e d1bc 42d3 2bbd d6f0 fabd c3bf 093b
000001a0: fb1b bb3d 0b37 273d 6006 06bc 3eac ac3d
000001b0: 5e8f 823d fbbf 9abd 0f31 6b3d dbe6 643d
000001c0: 3d6a aa3d a5d3 74be 57a4 26be 7771 73bc
000001d0: 3e88 88bd dc95 22be 0fe6 24bc ee1a f13d
000001e0: 5557 78be 1499 cb3c b81f 663c be0f 15be
000001f0: 236b b23d 5cf2 953d d15d 1cbc bdc2 ecbd
00000200: 3bcf b53d 9e4e 083e f18a 74bc 3fcc b53d
00000210: 608a 863d 51af df3a 3c2a c03c 9dc4 66bd
00000220: 574e 70bd c038 193d 08ed d73c a78c fb3c
00000230: 78ab dd3d 467c 303c f3f0 473e 21b9 99bd
00000240: 6f2e 423e 9d54 4bbd ad55 e93d 02b1 7f3e
00000250: c659 923c e497 353e 9caf 283d 53da 8c3d
00000260: c89e c93d eebd 6abd 7c0b d1bc a764 023b
00000270: 2e01 203d ee3f 953d 372f 1dbd 4869 2e3d
00000280: 571f 4e3e fe28 933c 5917 1dbe 7495 0e3e
00000290: 36eb c43d 22db a03d 8fda 1b3e 86e9 773e
000002a0: 2ba2 dfbd e67d 9d3b 5ee7 983d d79d bc3c
000002b0: 1836 503d 5efd 4dbd 72fc e93d 7d88 48ba
000002c0: c8b2 253d 14b1 03bc 3dce 6abc 3acd 81bd
000002d0: 2ea7 713d 7287 56bc 7fbe 6c3c 20ae 783d
000002e0: 80d8 7f3d e5d7 c5bc 50d9 7c3d 9be4 d43d
000002f0: 589d 103d 91cd d93d defc 9a3d 7197 aebc
00000300: ac8e 123e 8979 083d 2a2d 553d 7965 08be
00000310: 1751 9e3d c697 c9b9 7712 d43d 038b 9abd
00000320: b9bb 963d 049f 613d 2543 483e 7266 8bbc
00000330: 5105 203e 854d a0bd bb54 873c b1cd 8fbc
00000340: 98c6 3f3b b905 07bd 123a 4d3e 305d cf3d
00000350: 0afb 2c3e ef5f 04bd 9ee7 5c3e bf17 833d
00000360: 45da 84bd 268f 253e 6423 5dbd 6184 063e
00000370: ffff b0bd 3724 243e 7020 973c 48f9 533d
00000380: 2ddf 3e3d 174d bc3d 459b 23bd e301 3c3c
00000390: e843 b73e 547d de3d b818 21be 83c3 edbd
000003a0: 064a 0a3d 28a2 da3c 795c e3bd eb13 b3bd
000003b0: 48ff 463e d660 533d cbff a03c d636 ab3d
000003c0: 59d6 473d 2a78 fe3a 1bf0 aa3c 3013 dbbd
000003d0: f1e6 663d c022 093e 7044 0d3e f130 9e3b
000003e0: e479 cbbd 5b0d 0e3e 9f98 063c 33fb 453d
000003f0: 9430 e73d ab46 353d 3e04 f93d 0fc3 db3d
0.15785882 -0.008180502 0.08220586 0.20109652 -0.09479679 -0.0839488 -0.05266929 -0.14737895
-0.08371001 0.15972218 0.012191036 -0.051303323 0.058224246 0.021939907 -0.20930874 -0.029240398
-0.094665416 -0.0868064 0.096015 0.001317826 -0.1704907 0.0690329 0.02552518 -0.20433728
-0.048043407 0.12509978 0.12541056 -0.15655725 0.08630834 -0.24337779 0.060368195 0.09768208
-0.009740099 -0.062719524 -0.05942361 0.06627115 -0.059273545 0.041099004 -0.055280518 0.103572085
-0.105404355 -0.1860084 0.038418025 -0.07402741 -0.04832607 0.12915605 -0.1061662 -0.16452448
-0.05386958 0.05549777 -0.1318856 0.07294708 -0.05413419 -0.041692287 0.02880772 -0.02822429
0.05821234 -0.026326317 -0.14669257 0.18540159 -0.09352071 -0.014651401 0.04778622 -0.053154692
0.006638374 0.0009149444 -0.37026376 0.005440647 -0.08382677 0.05302148 0.022511791 0.023278454
-0.14248008 0.041528523 0.035581104 -0.05981068 0.0049610375 -0.07052745 0.02431948 0.045275453
-0.15183273 0.003686219 0.005949936 -0.039786227 -0.09380222 -0.082532264 0.097887695 0.1456865
-0.05777491 -0.0655373 0.019962149 0.011855695 -0.040090393 0.17652725 -0.18623452 0.02613171
-0.014917447 -0.081701726 -0.15707451 -0.010837225 -0.025557531 -0.041949518 -0.12252967 0.002101884
0.09136196 0.040823977 -0.008180231 0.0843129 0.06375001 -0.075561486 0.057419833 0.055884223
0.083210446 -0.23908861 -0.16273628 -0.014858595 -0.06666611 -0.1587748 -0.010064616 0.117727146
-0.24252065 0.024853267 0.014045648 -0.14556786 0.08711841 0.07321617 -0.009543852 -0.11560581
0.08877417 0.1331124 -0.014925704 0.088768475 0.06569362 0.0017065798 0.023457639 -0.05633985
-0.05866846 0.037407637 0.026358142 0.030706717 0.10823721 0.010771817 0.19525509 -0.07506014
0.18963026 -0.04964124 0.113932945 0.24969867 0.017865073 0.17733723 0.0411831 0.068775795
0.09844738 -0.057310037 -0.025518171 0.001989642 0.039063625 0.07287584 -0.038375106 0.042580873
0.20129143 0.017963883 -0.15340938 0.139242 0.096151754 0.07854296 0.15220092 0.24210176
-0.10919603 0.004806268 0.07466005 0.023024483 0.050832838 -0.050290458 0.11425103 -0.0007649733
0.040453702 -0.008037824 -0.014331398 -0.06337972 0.058997326 -0.013093816 0.014449715 0.060712934
0.06246233 -0.024150798 0.061730683 0.103951655 0.035306305 0.10634912 0.07567762 -0.021312447
0.14312238 0.03331903 0.052045025 -0.13319959 0.077303104 -0.00038450788 0.103550844 -0.07546046
0.07360024 0.05508329 0.19556864 -0.017016623 0.15627028 -0.07827286 0.016519895 -0.017554136
0.0029262658 -0.032964442 0.20041683 0.10125196 0.16892639 -0.032318052 0.2157273 0.064010136
-0.06486944 0.16167888 -0.05398883 0.13136436 -0.086425774 0.1602944 0.018448085 0.051751405
0.046599556 0.09194391 -0.039943 0.011475059 0.35793996 0.10863748 -0.15732086 -0.116095565
0.033762 0.02668865 -0.11101622 -0.087440334 0.1943332 0.05160602 0.019653222 0.083600685
0.048788402 0.0019414474 0.020866444 -0.10697019 0.056372587 0.13392162 0.13795638 0.0048276116
-0.09935358 0.13872282 0.008215099 0.048335265 0.112885624 0.044256847 0.12159012 0.10730564

network_body._body_endoder.seq_layers.6.bias f4 [128]
00000000: de3c 003d 98a4 a3bd 3fbb 0abe a16c 08be
00000010: 9bca cd3b 8e07 beba 59f8 57bc 3278 8c3d
00000020: 4e29 01be a460 ffbd 9b52 223d 9286 d4bd
00000030: ac1f 04bc 9d8d 45be 6190 61bb e6e7 db3b
00000040: 3868 063d 41fd bebd 6272 963d 6d33 003d
00000050: e4ed 45be 787a 03be fe5c 8fbc 308d 223b
00000060: e20a ee3d 95f6 31be 1efd 0fbe 437b 773d
00000070: 3eaf d23d 1b97 803d 0900 36bd 7eaf 3bbd
00000080: e165 1fbe 0803 f23c f856 7cbc e574 a8bc
00000090: a2c5 31bc 14fb dd3c a530 82bd f192 b43d
000000a0: ab57 bf3d f4c4 aa3d 7247 ce3d 1278 873d
000000b0: f689 80bc 0cdb 31be 3bf4 813d 9027 21be
000000c0: a520 a3bd b5ec 83bd a4b4 6dbe dd91 43be
000000d0: eaac 61be 0a00 4bbd 7fb6 3d3b 764e 01be
000000e0: bd99 e3bd c3c7 763d 1dc2 123d bcd3 b23d
000000f0: 965b a6bd 0b57 ebbd dace e2bd 09ea 11be
00000100: 2130 d9bc 0695 bfbd b025 f6bc 7ccc aebc
00000110: 341f 263c b605 713c f7c7 c9bd 52bb 36bc
00000120: afd5 19be 70f0 733d 8fdf 953d 3d71 a4ba
00000130: bafb 653d 14d6 4cbd bfaa 673d d1d3 b1bc
00000140: 4f9c 24be 828b 27be d58d c03c 47cc 2cbe
00000150: 3dc0 10be e2b7 1dbe e7c5 c7bd 8f18 3a3d
00000160: a2ee 1cbd 464c eb3c 5d9e 32be cd3a a4bd
00000170: 1837 023e b74d 113e 46ae 2dbe f825 d0bd
00000180: 6004 ecbb 0302 01be aee2 8dbd b368 bfbc
00000190: e03c 923d c00e 363d 276e 0abe e01b 063d
000001a0: 6e7d abbd 423a 31be 7097 783d d07b 6abe
000001b0: cfcb 9bbd 2833 133d 8449 3fbd 8f8c 0dbd
000001c0: e302 593d 586d 5abd 25b4 663c 450a fdbd
000001d0: bb02 a63d bc1b 9ebc ae20 f3bd fdc2 15be
000001e0: b624 a8bd 2e3e 49bd 3213 1bbe 1059 f1bc
000001f0: b3d7 1d3c 5ebb 57bd 2b1c 543c 391e c53c
0.031308047 -0.07990378 -0.13547991 -0.13322689 0.006280256 -0.0014498101 -0.013181769 0.06858863
-0.12613413 -0.124696046 0.03962956 -0.1037723 -0.008064192 -0.19292302 -0.0034418332 0.006710994
0.032814234 -0.09325648 0.073460355 0.031299043 -0.1932903 -0.12839687 -0.017500397 0.0024803393
0.116231695 -0.1737922 -0.140614 0.060420286 0.10287331 0.06278821 -0.044433627 -0.04582166
-0.15566207 0.029542461 -0.015401594 -0.020563552 -0.010850342 0.027097262 -0.063569345 0.08817089
0.09342893 0.08338347 0.10072221 0.066146985 -0.015690785 -0.17368716 0.063454114 -0.15737748
-0.07965211 -0.06441633 -0.2321344 -0.19098611 -0.22038618 -0.049560584 0.0028947887 -0.12627587
-0.111133076 0.0602491 0.035829652 0.087317914 -0.081229374 -0.114912115 -0.1107461 -0.14249434
-0.026512207 -0.09354596 -0.030047268 -0.02133774 0.010139275 0.014710834 -0.098525934 -0.011153059
-0.1502292 0.05955547 0.07318031 -0.0012545955 0.05614827 -0.05000885 0.05655932 -0.021707447
-0.16075252 -0.16361812 0.02350513 -0.168748 -0.14135833 -0.15402177 -0.09754544 0.045433577
-0.038313515 0.028722893 -0.17443223 -0.08019028 0.12716329 0.14189802 -0.16961011 -0.10163492
-0.00720267 -0.12598424 -0.06928001 -0.023365354 0.07140517 0.04444766 -0.13518582 0.032741427
-0.08373533 -0.1730738 0.060691297 -0.22898793 -0.07607233 0.03593746 -0.04670097 -0.034557875
0.05298127 -0.053326935 0.014081036 -0.123554744 0.081059895 -0.019300334 -0.118714675 -0.14625163
-0.08210127 -0.049131565 -0.15144041 -0.029461414 0.009633946 -0.05266892 0.012946169 0.024062263

network_body._body_endoder.seq_layers.8.weight f4 [128, 128]
00000000: ac48 01be c5ca e13d 20a8 89bd 20b8 5e3d
00000010: b22b 4d3e ab52 643c d15e 923e ab28 b239
00000020: 4988 e8bd c84d abbd 7d96 1f3e d58d d7bd
00000030: d331 a83c e154 043e 83d2 8cbd 3bfe c53c
00000040: 385f 6e3d cdbc 883d 9365 113e 95dc cfbd
00000050: a55c 34be 95b8 07be 94c0 d7be df5a 5a3c
00000060: 9c93 f63c 0a4e aebc 9916 45be e443 883d
00000070: efbf ae3d 61ac 533e 2f13 1f3d 579d 04be
00000080: 1c41 233e 1b4f 1dbe 853d afbd 3a15 3fbe
00000090: 6b57 42bd 9338 003e 9377 d7bd e718 2c3d
000000a0: 2ff2 a13d 5bf6 07be 6963 e93c 2976 f83d
000000b0: ce33 b03c 7a6e c43d 6480 60bb 2748 fcbd
000000c0: aac6 413e 3d60 333d cdb3 76be ebc4 9c3b
000000d0: 6f9e 8ebd 58f3 0fbe da2e 2c3d 270c 08be
000000e0: f5e8 033e dfda 8b3d 9825 5f3d 245f 1ebd
000000f0: dde6 3c3e fb78 b9bd 2597 15be 5109 ebbd
00000100: d80b 18bd c20f a03d 8bfe 0d3e da06 bcbd
00000110: 85b5 333e 1c4d db3c 0e86 40bc 632c 4a3e
00000120: 65f5 8fbe 3800 523e 89b9 7c3e 29ff b8bc
00000130: 8f9a 9b3d 6157 363d 9f56 0c3e 8833 073e
00000140: 3960 3cbd 2866 14be 5caa 29bd 4d1c 87be
00000150: df72 02be 5607 40be 3513 a1bd 0b3f 243d
00000160: f8e9 0bbd d84e cb3c b76d eabd b049 fe3d
00000170: 0d1f 703e 3697 ec3d 36a5 a73d ec0b c4bd
00000180: 35b6 b03d d1d3 fb3d e919 d6bd 4c80 833d
00000190: c12c 70bd c324 95bd c9fb 1cbe 95bf e1bd
000001a0: aaf8 72bd 4851 4b3e 6d17 34bc 35e7 6ebe
000001b0: 0a53 b73c 36ca a2bd 0fd7 1bbe 3267 b8bd
000001c0: 2708 373d 854c ae3c 8a83 dbbb a570 39be
000001d0: 9ddf 593e 233a 69be 534e 0d3e 862b b9bc
000001e0: 4949 03bc c726 c6bb 024f 0fbe 9917 363d
000001f0: 83bd 713d dcb3 a5bd 6bf9 593a 45c9 aa3d
00000200: 2473 943c 3c22 d53d 3845 d0bb 365b 1f3d
00000210: ce3e b8bd 5635 43bd 4249 79bd 7a60 513d
00000220: f498 9abd 4886 3dbe 19be 793d 913a 7e3d
00000230: 1a41 ab3e 6904 74bd cd9e 793d d361 95be
00000240: d6d8 bc3d 92df c83b cb28 243c 1632 5a3e
00000250: f5e8 1b3b 1827 b6bd d7ab 973b b1d7 cdbd
00000260: 5d52 e73c ed97 8a3d f80a e83d 44c1 a73d
00000270: 9bd5 ffbc a985 0bbe 207b e7bd 62b6 9dbd
00000280: b8cd f03d 822c 043e 4ef2 a2bd eeb5 adbd
00000290: e210 3d3c c67b a63d 10cc 90bd 0b03 4b3b
000002a0: 3f6e 233e 7014 91bc e84a 9abd ee5e 63be
000002b0: 67c4 19be cfd3 ab3d 2339 223c 731c 2e3e
000002c0: dfcd aa3c f87a b13d 6ffb d3bc 6cd8 11be
000002d0: b97e bb3d 59bb 93bd 6110 ccbc 3255 ea3d
000002e0: 531b bebd 167b b8bc 67f9 163c 0ba9 25be
000002f0: 904a 03be 90b5 0a3c efe4 ea3d 78a3 fe3d
00000300: a381 42bd 97de 393d 1d29 89bd 8c79 d1bd
00000310: c083 03be e9b8 e73c 7d0a 853c 897b b6bd
00000320: 9468 193e 43a3 41bc a201 23be ca11 26be
00000330: 1d55 10bd cd33 39be bbf0 153d bf0e e7bb
00000340: 3c21 9ebc 0883 e53d c7f8 d5bc f2e3 a63d
00000350: 3404 5fbe 4f91 e73d 3211 2b3d e07b 803d
00000360: 5acc 2c3e 89b4 2b3c 0085 6d3d ad1e 15bd
00000370: 2e2d dcba 8f2c 49be b6c3 4c3e adf2 ed3d
00000380: 0048 10be 22ba 843d 2ab6 513d 94df aabd
00000390: 9748 39bc e47d 3dbe f154 43bb 8d20 d2bc
000003a0: 3e0b 44bd 2b37 0b3c 8b03 e9bb 134e de3d
000003b0: c8b1 413d 2726 20be 69b1 a1bd a40b 1b3e
000003c0: 9464 11bc 65d5 e63d 5442 05be ed13 b73d
000003d0: a617 c2bd a866 053e 1611 f3bc dfd2 dabc
000003e0: 4c39 62bd 64c1 e4bd 2b8c 163e ad0f e5bd
000003f0: ee59 babd 4054 78be 3ea8 5bbd 1115 b9bd
-0.12625378 0.11025003 -0.067215204 0.054374814 0.200362 0.013935725 0.28587964 0.00033981106
-0.11354119 -0.08364445 0.1558475 -0.10525099 0.02053157 0.12923004 -0.068760894 0.024169078
0.058196276 0.06676636 0.14198904 -0.101494946 -0.17613466 -0.13254006 -0.42139113 0.013327329
0.030099683 -0.021277446 -0.19246902 0.06653574 0.08532702 0.20671226 0.038836654 -0.12950645
0.15942806 -0.15362208 -0.08556656 -0.18660441 -0.04744665 0.12521581 -0.10520854 0.042015936
0.07907521 -0.13277571 0.028489785 0.12131912 0.021509077 0.09591384 -0.0034256214 -0.123184495
0.1892344 0.04379295 -0.24092026 0.0047842166 -0.069638126 -0.14057672 0.04203687 -0.13285886
0.12881835 0.06828856 0.05447921 -0.038664952 0.18447442 -0.09056278 -0.14608438 -0.11476386
-0.03712067 0.078155056 0.13866632 -0.09180994 0.17549713 0.026770167 -0.011750711 0.19743495
-0.2811691 0.20507896 0.24680151 -0.022582607 0.07597839 0.044516925 0.13704918 0.13203251
-0.045990203 -0.14492095 -0.041422233 -0.2638878 -0.12739132 -0.18752798 -0.078649916 0.040099185
-0.034158677 0.024817869 -0.11446708 0.124163985 0.23449345 0.11552279 0.08185808 -0.095725864
0.08628503 0.1229626 -0.10454161 0.06420955 -0.05863643 -0.07282402 -0.15330423 -0.110228695
-0.059319176 0.19855225 -0.010991913 -0.23330386 0.022378463 -0.07948725 -0.15218757 -0.09004058
0.04468551 0.021276722 -0.0066990303 -0.18109377 0.21276708 -0.22776084 0.1379941 -0.022603761
-0.008013078 -0.006047103 -0.13994983 0.0444561 0.059018623 -0.08090946 0.0008315059 0.0833917
0.01812131 0.1040692 -0.006355908 0.038905345 -0.08996354 -0.047658287 -0.06086088 0.051117398
-0.07548705 -0.18508255 0.060972307 0.062067572 0.33448106 -0.05957452 0.06094246 -0.29176196
0.09221046 0.0061301673 0.010019491 0.21308169 0.0023789976 -0.08894175 0.004628639 -0.100509055
0.028237516 0.06767259 0.11330217 0.08191159 -0.031229785 -0.13625206 -0.11302781 -0.077008024
0.11757988 0.12907603 -0.07956372 -0.08481966 0.01153967 0.08129077 -0.07070172 0.0030977156
0.15960024 -0.01770994 -0.075338185 -0.22204182 -0.15016328 0.08390009 0.009901318 0.1700304
0.02085012 0.086660326 -0.025876729 -0.14242715 0.0915503 -0.07213468 -0.024910154 0.11442031
-0.092825554 -0.02251963 0.009214736 -0.16177766 -0.12821412 0.008466139 0.11469447 0.12433523
-0.047486912 0.045378294 -0.06697295 -0.10228261 -0.12843227 0.028286414 0.016240353 -0.08910281
0.149813 -0.01181871 -0.15918592 -0.16217723 -0.03523742 -0.18086167 0.03660653 -0.0070513184
-0.019302957 0.11206633 -0.026119603 0.08148946 -0.21778947 0.11307012 0.041764446 0.06273627
0.16874829 0.010480055 0.057988167 -0.036406208 -0.0016798133 -0.19645904 0.19996533 0.11618552
-0.14089966 0.064808145 0.051199116 -0.083434254 -0.011308811 -0.18505055 -0.0029805268 -0.025650287
-0.047862284 0.00849704 -0.007111018 0.10854735 0.047288686 -0.15639554 -0.078951664 0.1514116
-0.008874077 0.112711705 -0.13013583 0.089393474 -0.09477167 0.13027442 -0.029671233 -0.02671188
-0.055230424 -0.11169699 0.14701907 -0.111846305 -0.09099184 -0.24250889 -0.053627245 -0.09037221

network_body._body_endoder.seq_layers.8.bias f4 [128]
00000000: 35ab f93d 3516 d7bd c3d9 0dbe 1956 893d
00000010: 8d85 c9bd eb83 023e 7749 d23d 8c41 18be
00000020: 9a0e d5bd 18e0 0d3d f2d2 5f3d f6d7 f33d
00000030: 155f cf3d 3429 7e3d b8aa 13be 7726 9d3d
00000040: 04f7 d4bd 71a0 c4bc 0aad 18be b367 3cbd
00000050: 1f91 c93d 6b2b a6bd 1b06 51bd d031 04be
00000060: 70de 4cbe 803b fdbd 9164 d23c 2984 e53d
00000070: 14ea 6ebd 9470 8cbd ba24 41be 4a18 1abe
00000080: e229 c3bc ea64 8d3d 4f5a eebd f213 8f3c
00000090: 839d ba3d 64c3 9bba 56c9 0e3c 564a 08bd
000000a0: 8dc2 0a3e 8a95 523d b3d9 503b 2f4f a33d
000000b0: 07e0 ccbd 9e5f 3ebe be8d fdbd 3156 38bd
000000c0: af30 08be ed35 f13d 01e1 24bd 0de5 aabc
000000d0: 369f 2bbe 6b6c 1cbe b976 ed3c cc95 2339
000000e0: dc3b b3bd 257e 56bd bf36 f23c 7dcd 71bc
000000f0: 8cd0 243d 2904 0fbd 66de 72bd fccc 0ebe
00000100: f854 11be e986 203e 0218 96bd fe12 033e
00000110: 5578 95bd a6f9 b6bd 079f 98bc 293e 9c3d
00000120: 1393 c33d 8a9c 873d 75c3 08be 0fb3 c6bd
00000130: 5b05 3dbe c035 09be 1db0 6abd 3919 ef3c
00000140: 5ffe dc3c d243 9d3d f2c9 0abd 941a a4bd
00000150: 0556 12be c97b 073e 0895 b3bd 5caa 91bd
00000160: d63a 27bb 66c8 233d 4582 0dbe cb5e 2a3d
00000170: e05c eebd 953d 1b3d 4b7a 60bb 99f7 933d
00000180: 4ed8 43bd 5a2a 4ebe f63e 5cbd 83d1 0cbd
00000190: 9224 433d f7cd a63c b444 36bc 1a96 7fbd
000001a0: db41 f03d be77 0dbd 446b 00be f492 b4bd
000001b0: 49d8 29be 218b f53b fb20 0ebc b6d8 07be
000001c0: 13b4 1c3e bf32 8a3d 65bc 08be 45c4 cabd
000001d0: 111f 11bc 05b4 8e3d 49e8 43bc 0a52 bc3c
000001e0: 33e3 7dbb 7681 a23d e328 ce3d f8c3 d33c
000001f0: dc27 b13d 3eb6 04be e4b0 a7bd 44fe c6bc
0.12190858 -0.105022825 -0.13852601 0.06705875 -0.09839926 0.12745635 0.102679186 -0.14868754
-0.10403176 0.03463754 0.054644533 0.11906426 0.10125557 0.062051013 -0.14420593 0.07673352
-0.10398677 -0.024002286 -0.14909759 -0.045997333 0.09842133 -0.0811375 -0.051031213 -0.12909627
-0.20006728 -0.12364864 0.02568272 0.11206848 -0.058328703 -0.0685741 -0.18861666 -0.15048328
-0.023823682 0.069040135 -0.11638319 0.017465565 0.09112074 -0.0011883792 0.008714994 -0.033274017
0.13550778 0.051412143 0.003186804 0.079740874 -0.10003667 -0.18591163 -0.12380551 -0.045004074
-0.13299821 0.11777864 -0.040253643 -0.020861173 -0.16759953 -0.15275733 0.028987275 0.00015600695
-0.08751652 -0.052366395 0.02956712 -0.014758465 0.04023795 -0.034916077 -0.059294127 -0.13945383
-0.1419257 0.15676464 -0.07328798 0.12800214 -0.07298342 -0.089343354 -0.018630518 0.076290436
0.095495366 0.06621654 -0.13355811 -0.097021215 -0.18459074 -0.1339941 -0.05729686 0.029186832
0.026976762 0.07678951 -0.033883996 -0.08012882 -0.14290626 0.13230814 -0.0876866 -0.071125716
-0.0025517247 0.039986037 -0.13819225 0.041594308 -0.11638808 0.037900526 -0.003425258 0.0722496
-0.047813706 -0.20133343 -0.05377098 -0.034379493 0.047642298 0.020361884 -0.011124779 -0.062399007
0.11731311 -0.034538023 -0.12540919 -0.088170916 -0.16586412 0.007493392 -0.008674855 -0.13266262
0.15303068 0.0674796 -0.13353117 -0.09900717 -0.008857504 0.0696793 -0.011957237 0.022988338
-0.0038740158 0.07934849 0.10066392 0.025850281 0.08650181 -0.12960145 -0.08188036 -0.024291165

action_model._continuous_distribution.log_sigma f4 [1, 8]
00000000: cd10 cfbf f520 73bf e145 0dbf dcfd 13bf
00000010: 0136 5fbf 07ee 97be 6cae b9bd b045 06bf
-1.6177002 -0.94972163 -0.5518475 -0.57809234 -0.8719178 -0.29673788 -0.090664715 -0.52450085
