Assets/Quadruped.onnx (onnx, 127456 bytes, 8 tensors)

network_body._body_endoder.seq_layers.0.weight f4 [128, 96]
000000 56 76 2e bd db 82 00 bc 00 83 d8 3d 97 a3 20 3e
       -0.042593323 -0.007843698 0.10571861 0.15687405
000010 5c 53 e0 bc 48 b6 44 3d 4a 68 2a be eb 87 c9 bd
       -0.027383499 0.0480254 -0.16641346 -0.098403774
000020 dd 8a 11 3e 20 46 6c bd 90 89 60 bd bb 7f 1a bd
       0.14213128 -0.057684064 -0.05481869 -0.03771947
000030 f8 ab 97 3d 27 3b c6 bb 1d d1 19 39 ea 18 91 bd
       0.07405847 -0.006049532 0.00014669118 -0.0708483
000040 24 d0 c0 3d b1 6c bf 3c f3 65 c8 bd 7a cc 4b bd
       0.094147 0.023367258 -0.0978507 -0.04975555
000050 13 75 34 bd 15 b5 45 3d f9 f6 a9 3c 5c 6c 57 3c
       -0.044056963 0.048268396 0.020747649 0.0131483935
000060 25 96 32 bc 20 65 a2 bd 68 52 e6 bd 71 9a c1 bd
       -0.010900055 -0.07929444 -0.112461865 -0.094532855
000070 49 14 e8 bd 05 ed 3d be 49 aa 28 be d0 19 24 be
       -0.11331994 -0.18547447 -0.16471209 -0.16025472
000080 9d da 07 3e b3 0f a7 3d a1 33 31 bd e1 a4 df bd
       0.13266988 0.08157291 -0.043262128 -0.1092012
000090 52 95 48 3d c2 42 02 3d c9 af 23 3d 7a 58 09 3e
       0.048970528 0.031801946 0.039962564 0.13412657
0000a0 01 d2 d8 3d 52 18 80 bd 05 ac ba 3d 0b f4 1e be
       0.1058693 -0.06254639 0.09114841 -0.15522783
0000b0 bc bb 4e be 6c 8f c1 bc 5e 38 0c be 8c 08 23 bd
       -0.20188802 -0.02362796 -0.13693377 -0.039803073
0000c0 19 d3 ff bb af 52 1e 3e 72 f4 49 be 38 c0 14 be
       -0.007807147 0.15461229 -0.19722155 -0.1452645
0000d0 0a 87 6e bd a8 df 0c 3d a4 dc c0 bc b2 cb 8f 3e
       -0.058234252 0.034392983 -0.02354271 0.28085095
0000e0 f6 00 a6 bd d6 1f 00 3e 7d 43 05 bd 5f 32 7c bc
       -0.08105652 0.12512144 -0.032535065 -0.015392869
0000f0 17 66 d5 ba 78 8c df bd 2a cf 68 bd 06 c3 68 bc
       -0.0016281035 -0.10915464 -0.056838192 -0.014206653
000100 f9 0d 33 3c d9 aa 7e bc 56 23 b3 bc 2a ad b5 bd
       0.010928624 -0.015543663 -0.021867435 -0.08870919
000110 d6 44 ad 3a 4f e5 29 3c ac f0 01 bd 98 8b 97 3d
       0.0013219367 0.010369613 -0.031723663 0.07399672
000120 fa 7d 17 bd c4 38 67 bc c8 33 e0 bd c2 16 ad bd
       -0.036985375 -0.014112655 -0.109473765 -0.08451606
000130 9e 90 21 be ca c9 92 bd b3 84 73 bd ec f6 bc 3c
       -0.15777823 -0.071673945 -0.059452724 0.02306696
000140 cc ca 54 3d 0c 06 da 3b af 21 f3 bd 3d fb 74 3d
       0.051951215 0.006653553 -0.11871659 0.059809912
000150 e5 59 a3 3d 8e c9 c8 bd 50 c1 a9 bd 08 07 88 bd
       0.079761304 -0.098040685 -0.082888246 -0.06641966
000160 7e 78 01 3d 37 b6 6a 3e 80 8a aa bd 38 01 3d 3d
       0.03160905 0.22921072 -0.08327198 0.04614374
000170 cc 81 0b 3a 90 8b 8a 3c d9 c2 e8 bd 23 2d 3c 3d
       0.00053217704 0.016912252 -0.11365289 0.045941483
000180 1f b7 85 3d bb 7b 10 bd 4d 65 8d 3d 95 f5 db 3d
       0.06529068 -0.03527425 0.06904087 0.107402004
000190 ff 4c 6e 3d bf fb ee 3d 99 55 fc bd 18 6e 8c 3e
       0.058178898 0.116691105 -0.12321014 0.27427745
0001a0 14 89 0f 3e 5c 28 e4 bd 4c 91 b2 bd 69 48 25 be
       0.14017135 -0.111405104 -0.087191194 -0.16140904
0001b0 0a 32 35 3e 46 42 77 3e a7 3b 2b 3e 5f 21 89 bc
       0.1769487 0.24146375 0.16721974 -0.016739545
0001c0 95 10 96 bd aa 7d ec bd a3 42 de bd 16 8d 08 be
       -0.073273815 -0.11547406 -0.10852554 -0.1333507
0001d0 b0 2e 37 be 66 ce cf bd 10 9b b7 3d 25 b8 a5 3d
       -0.17888904 -0.10146789 0.08965123 0.080917634
0001e0 86 8f 06 bc e8 ee 09 be 8b 16 ee 3d f5 ec d8 bc
       -0.00821293 -0.13470042 0.116253935 -0.026480177
0001f0 47 d3 24 bd 4d c3 26 bd 0c f8 21 3d 0b c8 47 3d
       -0.040240552 -0.040713597 0.039543197 0.04877476
000200 bf bb 94 bd b9 11 84 bd e6 1c 97 bd d4 45 5e 3e
       -0.07262372 -0.06448693 -0.07378559 0.21706325
000210 b3 cc 04 3d fe 5b 45 3e 43 fe 0d be ba 53 1a bd
       0.03242178 0.19273373 -0.13866524 -0.037677504
000220 34 ec da bd 96 60 44 bc 06 1c f1 ba 36 db 33 be
       -0.106895834 -0.0119859185 -0.0018395192 -0.17564091
000230 d1 d6 1d 3a 83 8e b3 3d e3 04 80 3d 61 d4 55 3d
       0.0006021085 0.08767416 0.06250932 0.052204493
000240 1a ee ad 3c e5 96 3d bd 2e 6f 8e bc 88 11 b8 bd
       0.0212317 -0.046286482 -0.017386999 -0.08987719
000250 26 6f f2 3d 59 27 3d 3e 1c b4 34 be e1 76 38 3e
       0.11837606 0.18472041 -0.17646831 0.18014099
000260 89 d5 56 3e 5c 5d 35 bc 23 bd 06 bc d7 74 3b be
       0.20979895 -0.011069622 -0.008223805 -0.1830629
000270 23 d3 98 3c b0 98 34 3d a9 9e 06 3e 53 14 98 ba
       0.018655365 0.044090927 0.13146462 -0.0011602737
000280 29 a9 62 3d 7e f6 c6 bc 5f ee a4 bd 1d 1a e8 3d
       0.055337105 -0.024287459 -0.08053278 0.11333106
000290 6e f1 3e be cd 96 ab 3e bc b5 08 3d 3c 7a 17 be
       -0.18646786 0.3351349 0.03337644 -0.14792722
0002a0 c4 66 80 bd da b7 8c bd 55 86 a6 bd fc 79 fc bb
       -0.06269601 -0.068710044 -0.081310906 -0.0077049714
0002b0 6b 8a 52 bc 7d 53 e1 bd 86 96 54 bd 62 a3 37 3d
       -0.012850384 -0.11002252 -0.051901363 0.04483355
0002c0 41 72 ed 3b 44 48 a9 39 51 02 2d bc 47 66 32 3e
       0.007246286 0.00032288034 -0.010559634 0.17421828
0002d0 52 cd c8 3c 7d c2 69 be dd af 0d be a6 3e 48 3d
       0.024511967 -0.22828098 -0.13836618 0.04888787
0002e0 61 67 0b 3e f3 2a 9d bd 8c 46 27 be 47 2a b0 bc
       0.13613655 -0.076742075 -0.16335505 -0.021504534
0002f0 13 6f 59 bd 59 e9 ee 3d 3c 58 f7 bc f3 91 de 3d
       -0.053084444 0.11665601 -0.03019344 0.10867681
000300 03 b3 7a 3d 1c 7e 25 3d 84 11 35 bd de 77 e3 bc
       0.061205875 0.04040347 -0.044206157 -0.027767118
000310 49 b5 3a 3e d7 ab 2b bd a0 3e b3 3d d0 50 ac bc
       0.18233217 -0.041911926 0.08752179 -0.021034628
000320 ef 75 de 3c 5f a9 93 bc b0 6e 9c 3d 5b ac 6e 3e
       0.027155844 -0.018025098 0.076382995 0.23307936
000330 c6 85 a0 bd bb 3f 19 bd de 08 ff bd 92 90 b8 3d
       -0.07838015 -0.037414294 -0.12452863 0.090119496
000340 ed 6c 1d be b7 7c 47 bc 77 f8 c8 3d 7b 0e 60 3b
       -0.15373583 -0.01217573 0.09813016 0.0034188319
000350 8a f1 c5 3c 3b ce 92 3d b4 8e 51 bd 20 9a b3 bc
       0.024163026 0.071682416 -0.051161483 -0.021924078
000360 a1 c8 0f 3d 34 33 38 3e 30 2e 10 bd 2e 36 ee bd
       0.035103444 0.17988282 -0.035200298 -0.11631428
000370 34 44 8a 3c f9 92 e7 bb 10 66 a9 bd 29 73 26 be
       0.016878225 -0.007067081 -0.0827142 -0.16254868
000380 ac 6e 3e bd 01 e6 ba bd 3f 63 41 3d 53 13 d5 3d
       -0.046492264 -0.09125901 0.04721379 0.104040764
000390 6f bb d7 3c 52 06 36 bd 4f 5b bc 3d 69 92 f8 bd
       0.026334492 -0.04443962 0.09197103 -0.121373005
0003a0 ee 24 4c 3e fd 7b f2 3d bb 6d 82 3e 2f 64 1b 3e
       0.19935963 0.11840055 0.25474343 0.15174936
0003b0 2e 65 92 bc 54 56 14 3c 4c cd 11 be 2e c1 86 bd
       -0.017870512 0.009053785 -0.14238471 -0.06579815
0003c0 f7 b8 ad bd ec 7b a9 3b bd d7 46 bd 21 34 a0 bd
       -0.08482545 0.0051722433 -0.048545588 -0.07822443
0003d0 8b 4b 65 bd 17 2d 0a 3b 39 48 4a 3d 9b 1b 2c bd
       -0.055980247 0.0021084005 0.049385283 -0.042018514
0003e0 35 6f 06 3d be ea ed 3c f6 50 8d bd 51 42 19 be
       0.0328209 0.029042598 -0.06900208 -0.14966704
0003f0 35 4a ab 3c f4 60 db 3c ef 05 9e 3d a4 6a a3 bd
       0.020909408 0.02677963 0.077159755 -0.079793245

network_body._body_endoder.seq_layers.0.bias f4 [128]
000000 d1 de 4d bc 1e a5 d1 3a 7d aa 18 3b 75 e9 c9 3b
       -0.012565331 0.0015994643 0.0023294978 0.0061618634
000010 c6 a7 6a ba b9 d9 54 3c f8 34 97 bc f8 40 51 bb
       -0.0008951392 0.012991362 -0.018457875 -0.0031929594
000020 02 57 8e bc 4e dc c8 bb 51 83 fb bc 85 33 04 bc
       -0.017375473 -0.006129778 -0.030702265 -0.008068924
000030 c2 25 9c bc d6 43 d6 3c c8 ec 2c bc cb d2 37 bb
       -0.019060973 0.026155394 -0.0105545 -0.0028049226
000040 f0 ce f1 3b 7b 35 a0 ba 02 36 cb bc d8 bb af bb
       0.007379405 -0.001222297 -0.024806026 -0.005362969
000050 19 26 96 bc 26 73 fb ba 6b e6 9c bb 78 5c cb bc
       -0.018328713 -0.0019184097 -0.00478821 -0.024824366
000060 f5 4b aa bc a2 44 16 bc e2 9e e8 3b e9 67 c8 3c
       -0.020788172 -0.009171637 0.0070990184 0.02446361
000070 7f f8 20 bc 6b c4 b4 bc 2f 6a 8f bc 86 e5 17 3b
       -0.009824871 -0.022066316 -0.017506687 0.0023177578
000080 a7 3a a3 bc 5f 5a 27 3c 7d ba 1c bc 41 53 09 bc
       -0.019925429 0.010214417 -0.009565947 -0.008381666
000090 4b 3f 95 b9 62 34 33 bc 23 4d 23 bc 2f 3b 4d 3c
       -0.00028466652 -0.010937782 -0.009967121 0.0125263175
0000a0 31 d9 6e bc f7 e6 61 38 0a e7 10 bc 15 46 6a 3c
       -0.01457815 5.3859283e-05 -0.0088441465 0.014298935
0000b0 c8 ef 04 bc 76 d5 84 bb 18 a4 fe bc f5 7a 21 3b
       -0.008113809 -0.004053767 -0.031084105 0.0024639938
0000c0 8f 67 1d bc 18 37 6d bc 22 9b b9 3b ff de 07 bb
       -0.00960721 -0.014478467 0.005664245 -0.0020732281
0000d0 21 de 59 3c 1d 4f 0f bc 82 e4 db 3a 83 d1 b3 bc
       0.013297589 -0.008746889 0.0016776475 -0.021950489
0000e0 1d 2e 8a bc 3d cd 6f bc 9b ae ba bc e8 b7 8d bc
       -0.016867692 -0.014636335 -0.022788337 -0.017299607
0000f0 84 e7 a8 bc f3 2b 3f 3c 12 ef 6f bb fa de c4 3b
       -0.020618208 0.011668193 -0.0036611003 0.006008026
000100 d9 fc 1f 3c 40 55 2e bc 03 78 e5 bc 64 a3 ad bc
       0.009764873 -0.010640442 -0.028011328 -0.021196075
000110 dc 3c b9 bc b1 d8 bf 3c e4 df 35 bc 90 67 c7 39
       -0.022612028 0.023418756 -0.011100743 0.00038033398
000120 a3 2f 00 bc 67 0a 12 3c ab 41 95 bc 63 4f 9b ba
       -0.0078238575 0.008913613 -0.01821979 -0.0011849221
000130 8a ce 96 bc 41 28 04 bd 53 f1 f0 bc 2f 22 8c 3c
       -0.018409032 -0.03226495 -0.029411947 0.017106144
000140 10 8f 4c bc 32 95 0c bc 75 38 41 bc 52 01 ac bc
       -0.012485281 -0.008580493 -0.011793246 -0.020996723
000150 b2 27 26 3c 80 4e 99 bb d0 05 0e 3b 36 19 73 3b
       0.0101413 -0.0046785474 0.0021670945 0.0037093884
000160 74 80 f8 bb 57 44 69 bc 06 76 60 bc b3 03 7e bc
       -0.007583672 -0.014237485 -0.013700014 -0.015503812
000170 25 6b 1c bc 59 2b f2 ba 2b fd 81 bb a1 79 9e bc
       -0.00954703 -0.0018476053 -0.0039669476 -0.019345107
000180 96 99 62 3c f9 33 75 bc 94 ec ac 3b e3 f3 f7 ba
       0.013830563 -0.0149660045 0.0052772257 -0.0018917288
000190 04 72 7d 3c b7 4f 8f bb e6 85 09 bc e5 2d 5d 3c
       0.015469078 -0.0043735164 -0.00839374 0.013499712
0001a0 58 57 b6 3b 1d fe 07 bc d7 39 fc 3a 2b 3e 6e bc
       0.0055646114 -0.008300331 0.0019243312 -0.014541189
0001b0 d6 42 f8 bb 84 61 55 bc 65 77 ff 3b 25 f6 2e bc
       -0.007576327 -0.013023738 0.0077962154 -0.010678803
0001c0 4c 7a 6b bc 52 e4 e6 3a 67 a5 06 bd 6e a4 b1 3a
       -0.01437242 0.0017615652 -0.032872584 0.0013553032
0001d0 96 fa 27 bc 31 62 7f bc 92 b5 3a bd ca 35 02 bc
       -0.010252615 -0.0155873755 -0.045583315 -0.007947395
0001e0 85 03 82 bc 71 0b 44 bb 01 c2 2c bb cc f3 66 3c
       -0.015870819 -0.0029914046 -0.0026360753 0.014096212
0001f0 24 16 a7 bb ba 86 cd b8 33 0d b2 bc ae eb a4 b9
       -0.005099075 -9.8002565e-05 -0.02173481 -0.00031456113

network_body._body_endoder.seq_layers.2.weight f4 [128, 128]
000000 69 dc bc bd 43 de 20 bd a9 d6 1c be 2b 3f 12 3d
       -0.092217274 -0.039274465 -0.15316261 0.035704773
000010 29 3d 81 3d d1 0b 48 bd 86 6e ec bd a4 de c7 3d
       0.063104935 -0.048839394 -0.11544518 0.09759262
000020 bd 56 03 be a4 9d 12 bd ac 27 3c 3d 18 57 dc 3d
       -0.12826057 -0.03579487 0.04593627 0.10758799
000030 3e 7a 2c bd 45 2e 81 3b 46 96 01 3c 68 37 16 be
       -0.042108767 0.0039422833 0.007909363 -0.14669573
000040 81 17 af 3d 21 4a bd 3d e5 11 28 3d c5 73 97 bd
       0.08549405 0.092426546 0.04103269 -0.07395128
000050 56 70 0a 3e 27 dd 6d 3d ab 12 3a bd 8b 35 01 3e
       0.13519415 0.058072235 -0.04542796 0.12618081
000060 0a c8 9b bc b3 cc 0f 3d d0 0f 1d be fe 2f 70 3c
       -0.019016284 0.035107326 -0.15338063 0.01465988
000070 d0 f6 c8 bd b6 94 2d 3e 04 e0 76 3d 63 1b 2a bd
       -0.09812701 0.1695126 0.06027223 -0.041530024
000080 06 c1 a4 bd 96 df c3 bb c8 66 1b bd c8 a3 79 bc
       -0.08044629 -0.0059775813 -0.037939817 -0.015236802
000090 d9 57 41 3d 51 c5 eb bd 84 a9 76 bc dc fd 5d 3d
       0.04720292 -0.115122445 -0.015055064 0.054197177
0000a0 ea 51 1a be b5 cb 49 bb 5f 37 33 3d f0 e6 3e 3e
       -0.1507031 -0.0030791585 0.043753978 0.18642783
0000b0 c9 b7 67 bd 97 1a 41 3d 6a ce b0 bc 67 f7 a5 3d
       -0.056571756 0.0471445 -0.0215828 0.08103829
0000c0 49 38 aa 3a 86 5a 9a bd e9 ee 6d 3d 58 73 11 3e
       0.0012986745 -0.07536797 0.05808917 0.14204156
0000d0 af b0 a2 3d 44 bc a3 3d 88 c5 62 be ee 91 41 bd
       0.07943856 0.07994893 -0.22145665 -0.04725831
0000e0 c4 a9 22 3e 73 ed 8a be bd 2b ea bd ac 8e a8 bd
       0.15885073 -0.27134284 -0.11434124 -0.082303375
0000f0 83 a9 38 be 5a ad a1 3d cf 67 a1 bc 56 eb 80 bb
       -0.18033414 0.07894392 -0.01970282 -0.003934304
000100 2a b0 00 3e c6 b8 ce bd 62 53 26 3d 55 7b 0c be
       0.12567201 -0.100938365 0.040606864 -0.13718922
000110 f8 d0 97 bd ff 49 81 bd cb 35 82 3d 69 22 f5 bd
       -0.074129045 -0.06312942 0.063579164 -0.11969454
000120 b7 18 cc bc ab 3a 68 3d 0e cd 3d bd 38 bf 0f 3e
       -0.024914129 0.056696575 -0.046338134 0.14037788
000130 1f 11 ee 3d aa 8c bf 3c c6 aa 98 bd 80 36 8e bd
       0.11624359 0.023382504 -0.074544474 -0.06943989
000140 c1 b1 56 bd 91 67 92 3d 54 6c 02 3e 20 5c a5 bd
       -0.052415613 0.0714866 0.12736636 -0.08074212
000150 92 f4 f9 3d 5d 16 33 3c 20 0b dd 3c 3e de 8c 3d
       0.12204851 0.010930625 0.026982844 0.06878327
000160 25 cf 3c bc 1c b2 08 3e 7a ec 3d 3d 7b ad 61 3d
       -0.0115239965 0.13349193 0.0463681 0.055097084
000170 04 80 c4 3d f2 31 56 3d fc ca fb 3c 6d 30 21 3d
       0.095947295 0.052293725 0.030736439 0.039352823
000180 66 7e 29 3d 6d 05 d3 3c 96 69 a0 bd e7 54 97 bd
       0.04138031 0.025759423 -0.07832639 -0.07389241
000190 0a 9c 04 3d 4b a8 44 bc e6 ea 13 3e 61 bc 5d 3d
       0.032375373 -0.012003015 0.14445075 0.05413473
0001a0 cd 44 cc 3d 2c 9d d7 bd eb b1 1e be ce 59 01 3e
       0.0997406 -0.10528025 -0.15497558 0.12631914
0001b0 c1 9b aa 3d bd d1 02 be db fb c5 3d 5d 21 74 bd
       0.08330489 -0.12775321 0.09667178 -0.05960213
0001c0 f6 e1 d4 3c 50 6b 08 b9 42 a8 c6 bd a1 d7 09 3e
       0.025986653 -0.00013009948 -0.097000614 0.13461162
0001d0 0a f8 d3 bd 56 eb 6b 3d 91 25 ac 3d f4 45 bd bd
       -0.10350044 0.05759748 0.08405603 -0.09241858
0001e0 0e 36 6c bd 43 95 6a 3d 8c de 85 3d 57 5d 93 3d
       -0.057668738 0.057271253 0.06536588 0.071955375
0001f0 98 b4 67 bd c4 53 73 ba af b2 09 3e 06 d9 5a 3e
       -0.056568712 -0.00092821964 0.13447069 0.2137185
000200 e4 83 31 bd 5d 6a 65 3e 67 44 df 3d a8 e6 d6 bb
       -0.04333867 0.22403856 0.109017186 -0.006558258
000210 02 7a 08 bd d9 db e8 bc aa ec 0e bd 20 4f 9a 3d
       -0.03331948 -0.028425144 -0.03489367 0.07534623
000220 1d 6f 02 be ec 2b 4b 3d ab 49 b1 3d f3 14 96 3d
       -0.12737699 0.049602434 0.08656629 0.073282145
000230 78 df 99 bd 94 12 d9 bd 20 20 ae bb a3 df a8 bc
       -0.075133264 -0.105992466 -0.005313888 -0.02061445
000240 8a 10 f6 3d 08 ac ca bb 22 15 22 bd 04 bd 86 3c
       0.12014873 -0.0061850585 -0.039570935 0.016447552
000250 76 b7 ce 3c f8 a8 8b 3d ff 8a 0d bc 1a a7 89 bd
       0.025233965 0.068193376 -0.008639096 -0.06721325
000260 3a fc d1 3d 58 58 6b bd 32 9c aa bc bd ff b2 3c
       0.102531865 -0.057457298 -0.020826433 0.021850461
000270 50 9e 0a bd 7d 40 d1 3c 1c 82 21 3e da 81 2c be
       -0.033842385 0.025543446 0.15772289 -0.1684641
000280 64 b8 9f bc 35 35 c9 3c 61 8c e2 bc 81 76 28 be
       -0.019497104 0.024561504 -0.027654829 -0.16451456
000290 9d 58 b9 bc e5 14 75 bd e4 09 22 bc 84 09 a4 bd
       -0.022625262 -0.05983438 -0.009890053 -0.080096275
0002a0 ab 46 a7 3d 79 8e 38 be 45 18 e8 3c cb d1 86 3c
       0.08167776 -0.18023099 0.028331885 0.016457459
0002b0 9d 9f 42 3e a8 2e fb 3c 88 73 3f 3d 8e 76 d9 bd
       0.190062 0.030661896 0.04674104 -0.10618316
0002c0 9e 26 0d 3d ea e3 68 bd 38 85 59 bd 33 90 fd bd
       0.034460656 -0.05685798 -0.053105563 -0.123810194
0002d0 53 76 c4 bd be f4 15 3e 47 e5 fd 3c 8c f3 10 3e
       -0.09592881 0.14644143 0.030993117 0.14155406
0002e0 86 96 bd bc 89 30 28 bd 5d 22 47 3e 6b 5a 7d bd
       -0.023143064 -0.04106191 0.19446702 -0.061853807
0002f0 4d 2c 34 be 4a 3d f6 bd 86 5b 00 3e c1 42 bd 3d
       -0.17595024 -0.12023409 0.12534913 0.09241248
000300 fe 18 48 3d c6 62 7e 3d 44 3c c1 bd 2c 21 ad bd
       0.04885196 0.062105916 -0.09435323 -0.08453593
000310 31 21 dc 3d e1 5f 91 bd 66 8a 2d 3e bf fa 0c bc
       0.10748518 -0.070983656 0.16947326 -0.008604704
000320 06 da 0b bc 3c d1 b9 bd 5f 2c 35 3d e1 be 96 bc
       -0.008535868 -0.090731114 0.04423177 -0.018401565
000330 48 1d 07 bc 79 42 37 3c 7c b5 19 be bf 44 4c be
       -0.008246727 0.011185282 -0.15010637 -0.199481
000340 eb 51 cc 3d 55 91 3a bd b1 2c db 3c e9 a8 19 bd
       0.09976562 -0.045548756 0.026754709 -0.0375146
000350 e9 e6 24 3d 37 d8 88 3d a9 a7 85 bc b0 02 2d be
       0.040259276 0.06681865 -0.016315298 -0.16895556
000360 52 d7 d0 bc 7c 0c 91 bd 2c 00 9b bd 60 54 b3 bd
       -0.025493298 -0.07082459 -0.07568392 -0.08756328
000370 66 f2 0c 3e a4 b4 4c 3e 6b e2 38 be fc 95 bc 3c
       0.13764343 0.19990784 -0.18055122 0.023020737
000380 5c eb 21 be f7 a9 0d be 1a dd 55 be c1 82 9e bd
       -0.15812439 -0.13834368 -0.20885125 -0.07739783
000390 70 35 b9 bd 4a 95 cc bd af a4 a7 bc b9 55 6d 3c
       -0.090433955 -0.09989412 -0.02046427 0.01448577
0003a0 3a 45 92 3d 41 da 43 3e a5 bb 9a bb fc 72 f8 3d
       0.0714211 0.19126226 -0.004722076 0.121313065
0003b0 1f e1 98 3d 43 2f 1b 3d 33 3d 92 bd 9c 2f d6 3c
       0.074648134 0.03788687 -0.07140579 0.026145749
0003c0 0a 39 5a bd c5 c9 d3 bc 0b 47 60 3d b4 39 df bb
       -0.053277053 -0.025853047 0.05475525 -0.0068122987
0003d0 82 cc dc 3d 35 26 ba 3c cf e8 93 3d 6c 74 1f 3d
       0.10781194 0.022723297 0.07222139 0.038929388
0003e0 ee c3 57 3c d5 85 f5 bd 6f 18 c1 bd 65 f1 59 be
       0.013169272 -0.11988417 -0.094284885 -0.21283491
0003f0 57 b6 89 3d aa d4 e7 bb 66 fa e0 3d 36 91 0f be
       0.06724232 -0.007074912 0.1098526 -0.14020237

network_body._body_endoder.seq_layers.2.bias f4 [128]
000000 2b 86 c7 3c 5a c5 38 bc b8 97 02 3b fb 4c f6 3b
       0.024355968 -0.011277521 0.0019926857 0.007516501
000010 13 67 37 bc 3b a1 ea 3c af 20 98 bc 37 ff d3 bc
       -0.011194008 0.028641334 -0.018570272 -0.025878532
000020 98 66 66 bc ed 25 98 3c 28 e7 9a 3c b1 0d 00 bc
       -0.014062546 0.018572772 0.018909052 -0.007815764
000030 6b 16 10 3b 45 1b d6 bc 9a 44 bd ba c8 f6 db bb
       0.0021986018 -0.02613605 -0.001444 -0.006712768
000040 88 40 a0 3a 33 5f d8 b9 ea 82 eb bb 6f 4e 74 bc
       0.0012226263 -0.0004126966 -0.007187237 -0.014911278
000050 3e ed 3a bc 6b 47 6b ba a1 b4 ad bc 56 fb 07 bc
       -0.011409102 -0.00089751807 -0.021204295 -0.008299669
000060 12 50 8b 3c c2 33 5c 3b c8 f7 b5 bc 9b b0 82 bc
       0.017005954 0.0033600186 -0.022212878 -0.015953353
000070 11 39 7f 3c 34 fa 45 3c 18 6c 83 bb 6c 49 b2 ba
       0.015577571 0.012083579 -0.0040106885 -0.0013602204
000080 1f 60 b8 3c e5 22 b1 bb da 65 8d 3c 04 c0 29 ba
       0.022506772 -0.005405771 0.01726048 -0.0006475451
000090 23 9c 8e bc ea d9 d6 bb fe 13 34 bc ce 3d cd bc
       -0.017408436 -0.006556739 -0.010991095 -0.025053885
0000a0 80 1b a2 3c c3 87 09 39 90 ad 7b bc 40 fa 1b bc
       0.019788504 0.00013115913 -0.015361205 -0.0095201135
0000b0 3c 9c 85 bc b4 fe cb 3b a3 83 28 bc ff 0e e8 3a
       -0.01630985 0.0062254313 -0.010285291 0.0017704664
0000c0 28 b2 f5 3b c6 b0 45 3c 0a fe db bc 45 95 66 3b
       0.0074980445 0.012066072 -0.026854534 0.0035184186
0000d0 b6 3d a2 ba 2c b1 5c bc 07 1c 49 bc 34 24 9a 3c
       -0.001237801 -0.013469975 -0.012274749 0.018816091
0000e0 40 24 c1 bc b8 38 12 bc 25 82 bf bc 85 97 e9 3b
       -0.023576856 -0.008924656 -0.023377487 0.0071286582
0000f0 0e 32 da 3b fa 6d 51 bc ac e3 cf 3b 73 46 6f bc
       0.006658799 -0.012782568 0.0063442793 -0.014604199
000100 7b c6 87 bc 9d 65 1a bc 3a 90 e5 bc be b4 b8 bb
       -0.016574135 -0.009423641 -0.028022874 -0.0056367805
000110 da 63 39 bc c2 e7 0a bc c7 20 c9 3b 5e 34 36 bc
       -0.01131531 -0.008478107 0.0061379406 -0.011120884
000120 eb 06 d9 ba 9a c4 86 bb 36 ae dc 3b ad a0 87 3c
       -0.0016557848 -0.004112792 0.0067346347 0.016556108
000130 ed 0c a4 bb 2f 91 4e bc 0f 9d c0 3b ca 07 06 bc
       -0.0050064237 -0.012607857 0.005878098 -0.008180568
000140 8e 67 ac bb 21 87 01 bc 4b b8 67 bb 75 51 18 bd
       -0.005261368 -0.007905752 -0.003535765 -0.03718706
000150 fa 39 13 3d 38 75 b1 3c 9a b3 04 bb 77 32 65 3b
       0.035943963 0.02166234 -0.0020248652 0.0034972706
000160 85 8e 35 bc e2 4a 42 bc 61 1b bf bc 76 d0 d6 3a
       -0.011081343 -0.011858674 -0.023328485 0.001638903
000170 ef be cc bc e5 74 75 bc e9 8c 6c ba f6 ab fc bb
       -0.024993388 -0.014981483 -0.0009023683 -0.007710929
000180 45 e0 82 bc 33 41 7f bb 4b 67 65 bc 54 0c 20 bc
       -0.01597608 -0.0038948774 -0.014001678 -0.009768564
000190 6d 43 24 3a 28 73 f3 3b e1 f2 f1 3b fa 62 ae 3a
       0.0006266151 0.007429499 0.0073836897 0.0013304644
0001a0 ea 0a 0f bb 76 b5 60 bc 17 e4 aa 3b 92 cc 56 bb
       -0.0021826574 -0.013715139 0.0052151787 -0.0032775742
0001b0 80 d0 f1 bb a3 0e d7 bc f8 a6 99 3b 24 58 36 bc
       -0.0073795915 -0.026252097 0.0046890937 -0.011129413
0001c0 a9 b9 40 bc b5 cb 18 bc d1 57 a8 bb 1b 5b a2 bc
       -0.011763015 -0.009325911 -0.0051374217 -0.019818833
0001d0 4a c6 44 bc f9 a3 ea 3b 28 bd f9 bb d2 e8 ce 3b
       -0.012010166 0.0071606603 -0.007621426 0.0063143754
0001e0 56 f2 63 bc 7d 42 1e 3c 01 01 e1 bb 5d f6 6b bc
       -0.013912758 0.009659407 -0.0068665748 -0.014401999
0001f0 e1 65 fe 3b b0 ed 29 bc 08 4b dc bc a6 10 b6 3b
       0.0077636098 -0.0103716105 -0.026891246 0.005556184

action_model._continuous_distribution.log_sigma f4 [1, 8]
000000 02 05 bc bb 51 ec 61 3c da 02 1d bc 79 08 80 bd
       -0.0057379017 0.013789252 -0.009583199 -0.06251616
000010 4b 08 88 bd fc b2 13 bd ba 03 b5 bb bb 50 c1 3b
       -0.06642207 -0.036059365 -0.005524126 0.0058995164

action_model._continuous_distribution.mu.weight f4 [8, 128]
000000 13 f8 17 bd 89 0b 17 3c 78 2a a9 3b a4 2c eb bc
       -0.037101816 0.009219059 0.0051625334 -0.02870781
000010 e8 03 04 3c 76 bb 1b bc 5d 0d a6 3c 25 b6 06 3d
       0.008057572 -0.009505143 0.020270044 0.03288855
000020 28 54 c2 3c b7 7e 41 bd ae 8f af bc c1 28 28 bc
       0.02372177 -0.047239985 -0.021430817 -0.010263623
000030 d7 64 cd bb d3 e5 0d 3d 01 f5 95 bb d2 47 fa ba
       -0.0062681246 0.034643006 -0.004576326 -0.001909489
000040 43 2f 92 bb e3 7f 09 bc 4c 41 7e bc 61 6a 67 3c
       -0.0044612004 -0.008392307 -0.015518498 0.014124484
000050 b7 da cd 3b f8 86 8b b9 71 d5 20 3d d5 39 a9 3b
       0.0062821764 -0.00026612706 0.039266054 0.005164365
000060 0e af bb bc af 3d 6d 3b 5d 20 52 3c 26 97 2b 3d
       -0.022910621 0.0036200096 0.012825099 0.041892193
000070 51 50 13 3b e3 27 90 b9 d9 17 02 bc e0 a5 6c bc
       0.0022478292 -0.00027495538 -0.007940256 -0.014443845
000080 55 6b 93 bc 27 37 aa 3b c4 43 fc bc 29 5f ee bc
       -0.017995516 0.005194563 -0.030794032 -0.02909811
000090 50 b8 b2 3c b8 85 8f bc eb c7 05 bb e5 1b e1 3c
       0.021816403 -0.017519817 -0.002041335 0.027479121
0000a0 04 ac 08 bd eb 79 0c bc 7f 64 4e 3c 76 f7 54 3c
       -0.033367172 -0.008573989 0.012597202 0.012998452
0000b0 77 e8 9b bb fd 1d 91 3c af df 62 3c 3e 57 77 bb
       -0.0047579366 0.017714495 0.013847276 -0.003774121
0000c0 4e 28 3c bd e3 06 78 bc 16 eb 18 3d 45 cf 35 bc
       -0.045936875 -0.015138361 0.03733357 -0.01109678
0000d0 15 b6 2e b9 87 64 06 3d bc 2b 00 3d c0 d1 0b 3c
       -0.00016661764 0.032810714 0.03129171 0.008533895
0000e0 e5 24 91 3c 9e b0 97 3c 7c 51 cb 3b 7e 59 ce bb
       0.017717788 0.018516835 0.006204782 -0.0062972894
0000f0 0a 83 6d bc db 51 1b bc 64 da 2d bd e6 b3 7c bc
       -0.014496574 -0.009479965 -0.0424446 -0.0154237505
000100 9e 0f 13 3c 3c 2a 1b 3d 5b 4f 79 3c 06 99 8d 3c
       0.008975891 0.037882075 0.015216674 0.017284881
000110 f0 60 98 3c a2 72 ba 3b 9d d9 16 bd c2 9e 51 3c
       0.01860091 0.005689935 -0.036828626 0.0127941985
000120 3e e4 67 bc 5e d1 1d bb da 0d a8 3a fe 40 61 bb
       -0.014153538 -0.0024081091 0.0012821511 -0.0034371014
000130 e2 4c 9a bc b1 49 ba 3a d6 8b eb 3b 8c 26 aa 3b
       -0.018835489 0.0014212636 0.0071883006 0.0051925834
000140 44 d5 34 bb 35 ba 3d 3c 16 30 88 ba 90 b4 86 3c
       -0.0027592937 0.01158004 -0.0010390307 0.01644352
000150 27 55 05 bd dc c9 a2 39 f0 b8 9a bc d0 34 73 bc
       -0.03255191 0.00031049445 -0.018887013 -0.014844134
000160 18 82 a8 3c db a0 0b 3d f0 97 3e 3c 95 d7 95 bc
       0.020569846 0.03408895 0.011632904 -0.018291274
000170 79 44 cd 3c 76 32 0f ba 3e 64 ed bb 1c 22 ae bc
       0.025057064 -0.00054625364 -0.007244616 -0.021256499
000180 2c 78 f4 3c 75 77 85 bc 6f ff bc 3b 7d 0e 59 3b
       0.029842459 -0.016292313 0.0057677547 0.0033120208
000190 c0 6b 2a bd 99 d5 88 3a a4 a6 86 bc 16 f2 6c 3b
       -0.041606665 0.0010439634 -0.016436882 0.0036155037
0001a0 b0 3f 38 bb fd e1 dd 3c d2 ea 11 bd 28 3b 39 bc
       -0.0028114133 0.027085299 -0.035624333 -0.011305608
0001b0 8e ca 15 3d 02 07 8d 3a d2 e7 66 3b 79 66 7f 3c
       0.036570124 0.0010759535 0.003523339 0.015588396
0001c0 49 a2 0c bc d3 5d 79 3c de 37 3d bc 38 c1 38 3d
       -0.008583614 0.015220123 -0.011548964 0.045106143
0001d0 0e fa 56 bc be a8 b8 bb ed 95 5b bc af 62 4b bd
       -0.013121141 -0.00563535 -0.013402444 -0.04965466
0001e0 0d 81 7c 3c 7c 79 df 39 10 f5 98 bb cd bb b7 3c
       0.0154116275 0.00042624387 -0.0046678856 0.022428418
0001f0 9c f9 37 bc 7a 1b a5 3c 32 ea 1a 3a 57 aa 9a 3c
       -0.011228945 0.020154703 0.00059095316 0.018880052
000200 3a 16 27 3d 00 1e a7 3c 6c 43 fe 3b 18 de c7 3c
       0.04079268 0.020400047 0.007759502 0.024397895
000210 7f f1 31 bc 36 cd bf bc 62 60 c7 3b 37 a0 08 3d
       -0.0108608 -0.023413282 0.006084488 0.033355918
000220 9a a2 65 3c e5 03 30 3d 95 8f 72 bc bc 81 70 bc
       0.014015818 0.042972464 -0.01480474 -0.014679369
000230 d9 88 c6 3c d7 d4 0e 3b 1f 7c 5b bc 76 27 c5 bb
       0.024235176 0.0021794343 -0.013396292 -0.006016667
000240 b5 81 d5 bb c0 6a 16 3c 3e f8 b3 3c 75 65 e4 bc
       -0.0065157064 0.009180725 0.021968957 -0.02788041
000250 76 d6 c7 3c e7 89 16 3c 58 72 56 3b 01 72 7e 3c
       0.024394255 0.009188152 0.0032721963 0.01553011
000260 de 51 f0 3a 04 35 52 3b 56 28 d3 bc 86 50 b1 bc
       0.0018334945 0.0032075057 -0.02577607 -0.021644842
000270 00 c7 3b bd fb 49 ed 3c c1 fc 28 3c 83 aa ec 3c
       -0.045844078 0.02896594 0.0103141675 0.0288899
000280 16 38 78 3d 08 4b 20 3b d3 7f 5f 3d 36 1b 1d 3d
       0.060600363 0.0024458785 0.054565262 0.03835603
000290 66 f7 55 bc d7 cc b2 bb 08 13 81 bc a7 e9 3f bc
       -0.013059473 -0.0054565477 -0.015756145 -0.011713422
0002a0 22 bd 5d 3b f6 58 cf 3b 89 7f 78 bc 50 06 9a bc
       0.0033834656 0.0063277436 -0.0151671255 -0.018801838
0002b0 56 16 a6 bc 6e a2 91 3b 8b f6 3e 3d b8 02 97 3c
       -0.020274322 0.004444412 0.04662184 0.018433914
0002c0 43 ac a7 bc 26 8b b9 3c a5 83 a1 bc df 71 02 bb
       -0.020467883 0.022649359 -0.019716093 -0.0019904298
0002d0 5c aa e5 3c e2 0e a3 bb c5 a9 42 3a 03 ed 24 3d
       0.028035335 -0.0049761394 0.00074258103 0.040265094
0002e0 e1 2c bf 3c 61 af 8d bc 5e 64 66 3b 98 c7 a5 3c
       0.02333683 -0.017295541 0.0035155038 0.020236775
0002f0 f9 0e 41 bc db ef be b9 35 0a 40 3d 03 f7 d9 3c
       -0.011783355 -0.0003641833 0.046884734 0.026607042
000300 54 21 f9 bb 79 f2 bc bc a0 08 b6 3b b1 f7 38 3d
       -0.00760285 -0.023064839 0.0055552274 0.045158092
000310 f0 42 1b bd 30 3c b4 bc 6d a1 ae 3c 3b 63 cd 3c
       -0.037905633 -0.022001356 0.021317208 0.02507173
000320 a9 79 f2 3c 32 9a c6 3c 04 4d 28 3d 3a 70 d9 bb
       0.029599028 0.024243448 0.041089073 -0.006635693
000330 09 f9 f7 3c a4 bc 74 3c d5 bc 39 bb d6 a8 55 ba
       0.030270116 0.014937554 -0.0028341312 -0.00081504637
000340 52 dd af 3a 4a e5 b5 bc 16 1f 1f 3d a7 e9 04 3b
       0.0013417399 -0.02220406 0.038848005 0.002028087
000350 4b 24 0b bd f7 79 a4 3c 37 67 16 3c ca 8f 48 bb
       -0.03397016 0.020077689 0.009179882 -0.0030603283
000360 6b f5 83 3c 5b e5 9e 3c 64 81 23 3b df fb 80 3c
       0.016108235 0.019396475 0.002494895 0.015745101
000370 24 3c cb bc 25 1d b3 3b a1 07 39 bd b7 3d 35 3c
       -0.02480895 0.005466121 -0.04517329 0.011062077
000380 81 e9 d8 bb 5d 8e 0e 3c 85 6b 82 3b c4 97 6f 3c
       -0.0066196327 0.008700934 0.0039801025 0.014623586
000390 2c e6 79 bc 25 65 a5 3c 4c af 6b 3d 66 8d 88 3b
       -0.015252631 0.020189831 0.057540223 0.0041672466
0003a0 a0 20 87 3c 7b c8 95 bc c7 5b 97 3c 67 29 63 3d
       0.016495049 -0.018284073 0.01847638 0.055459406
0003b0 3f af a9 bc d7 4a f8 bb 77 d8 78 3c 63 e2 37 ba
       -0.020713447 -0.007577281 0.015188328 -0.000701463
0003c0 73 31 6b bd 1d ef 25 3d 86 51 eb bb 44 10 d9 bc
       -0.057420205 0.04051124 -0.007181349 -0.026497014
0003d0 87 b6 91 bb 26 92 55 bd 38 c3 a1 bc 7b b6 02 bc
       -0.004446808 -0.05214133 -0.019746408 -0.007978077
0003e0 7e 5d 53 bd 7c ae 04 bc 63 59 0e 3d 40 80 10 bd
       -0.051602833 -0.008098241 0.034753215 -0.03527856
0003f0 70 1e 02 bc 31 c3 23 3b 19 c7 ac 3b f9 4d d6 3b
       -0.007941827 0.002498817 0.0052727577 0.006540057

action_model._continuous_distribution.mu.bias f4 [8]
000000 42 e3 ab bc 18 91 5e 3c ec a1 f8 bb 12 1d 94 3b
       -0.020982388 0.013584398 -0.007587662 0.004520067
000010 7b b5 a5 b9 85 f2 6a bc 55 ff 2e 3c a3 a1 9f 3b
       -0.00031606466 -0.014340048 0.010680993 0.0048715635

action_model._discrete_distribution.branches.0.weight f4 [1, 128]
000000 ff 8d 04 3b c1 f3 1f bc 6a b5 0b bc 79 30 2b 3c
       0.0020226238 -0.009762705 -0.008527139 0.0104485685
000010 32 98 ae bb 86 a8 05 3b 5e 15 1b bc f3 93 0d bd
       -0.0053282017 0.0020394637 -0.009465544 -0.034564923
000020 68 33 ce 3b 85 c5 da 3a 33 ea af 39 d7 2e 9f 3c
       0.006292749 0.0016690945 0.00033553093 0.019431515
000030 fd c9 e8 3b 0e 33 90 bb 7d 02 8a 3b 73 49 dc ba
       0.007104157 -0.0044006174 0.0042117224 -0.0016806558
000040 c3 71 cc 3b 00 f2 57 3c d2 8a c8 bb e9 d1 ca 3b
       0.0062391474 0.013180256 -0.0061200643 0.006189574
000050 a5 93 26 3c ab c5 19 3c cb 12 8d bb f8 f6 4c bb
       0.010167037 0.009385507 -0.004305219 -0.0031275135
000060 37 30 f4 ba 87 3a 03 3c fd a5 96 3c 6b 06 c8 bb
       -0.0018630092 0.0080095595 0.018389696 -0.0061042807
000070 5b c6 07 bc 8b 34 02 bc 3e c3 8f 3a a0 38 0f bb
       -0.008287038 -0.0079470975 0.0010968221 -0.002185382
000080 77 68 08 3c a5 b1 8f bb 9b 5c 02 bb ea 09 af 3b
       0.008325688 -0.0043851906 -0.0019891623 0.005341758
000090 29 df a7 ba a3 45 47 3c a4 c2 8b 3b b0 e0 34 bc
       -0.0012807596 0.012162599 0.0042651463 -0.011039898
0000a0 c8 e5 a3 3a 0c e0 46 bb 6a b6 50 3c 10 1a b2 b9
       0.0012504393 -0.0030345945 0.012738803 -0.00033970224
0000b0 60 5b 0b 3c f5 1d cd ba 67 48 00 ba 57 32 03 3c
       0.008505672 -0.0015649187 -0.0004893601 0.008007607
0000c0 4f 12 b6 3b 14 5a b6 bb 21 ad 0b 3c 7f 58 e3 3a
       0.005556382 -0.0055649374 0.008525164 0.00173451
0000d0 ce 00 83 3c fb bf 82 bc 70 50 20 bc a0 40 68 3b
       0.015991595 -0.015960684 -0.009784803 0.003543891
0000e0 17 4c 10 39 55 66 02 bc 83 88 20 bb bf 82 4a bb
       0.00013761256 -0.007958968 -0.002449543 -0.0030900685
0000f0 b7 af 22 bc 73 cc d0 3b 62 64 b0 3c 83 6f 83 bb
       -0.009929589 0.0063720285 0.021532241 -0.004011096
000100 e3 7e 7d bc 93 9c 80 3c cb 43 9b 3b cf 1b 2c 3c
       -0.015472147 0.01569966 0.004738306 0.010504677
000110 b7 4b ca 39 ec d0 3b 3c 7f 41 3d 3c 79 00 05 3c
       0.00038584854 0.011463385 0.01155126 0.0081177885
000120 b2 7d 9a 3a 74 a5 b4 3c 30 aa d1 bb 8b ba d6 3a
       0.0011786728 0.02205155 -0.0063984618 0.0016382498
000130 d4 f9 4a 3c 9f a2 5a bb 05 a4 68 3c 85 4d 50 3b
       0.012388665 -0.003336109 0.014199262 0.0031784486
000140 c2 fc da bb ef 8f 83 bc 8a 8d db bb 2e 11 94 3c
       -0.006682963 -0.016059844 -0.0067002224 0.018074598
000150 37 97 98 3c b1 4a 9b bb 6f da f0 3b 8c 16 b0 3a
       0.018626792 -0.0047391285 0.007350258 0.0013434454
000160 89 f7 8d 3a 4c f9 23 bb 78 2a 2c bc a7 8d 76 bc
       0.0010831218 -0.0025020419 -0.010508172 -0.015048421
000170 c0 5f 7f 3c d5 f4 ec 3a 7e d3 8c 3b 12 5c cd 3b
       0.015586793 0.0018078337 0.004297673 0.006267079
000180 bb 16 b5 bb c6 8a 2e bc 5d 39 4b 3c bf 73 8c 3b
       -0.0055263913 -0.010653203 0.012403813 0.004286259
000190 ff 12 a0 bb 43 0b ed 3b d8 08 0d bc 2b da 88 bc
       -0.004885077 0.0072340085 -0.008608066 -0.016705593
0001a0 d5 d2 7d bc b7 17 54 3b e3 d2 09 bc 82 97 4e bc
       -0.015492161 0.0032362768 -0.008412096 -0.012609364
0001b0 cf e3 19 3c 0b 77 21 3c 93 42 eb bb 21 0e 45 bc
       0.009392693 0.009855042 -0.007179567 -0.012027294
0001c0 96 02 a2 3b 0c ba 21 3a 94 fb bd bb ae 4e 30 3b
       0.004944156 0.0006169386 -0.0057978127 0.0026902365
0001d0 37 44 59 3b 6e 07 4c 3c 45 e6 ef bb bd bb e8 bb
       0.0033152231 0.012452943 -0.0073211514 -0.0071024583
0001e0 40 da ce ba d0 d3 81 3b af 34 99 bc 2a 9c 80 bb
       -0.0015781596 0.0039620176 -0.01870188 -0.003924866
0001f0 3b b3 05 bc 28 85 30 bb 51 73 a9 3b 08 31 fb bb
       -0.008160408 -0.0026934836 0.0051712175 -0.007665757
