Assets/Quadruped 1.onnx (onnx, 127968 bytes, 8 tensors)

network_body._body_endoder.seq_layers.0.weight f4 [128, 97]
00000000: a40a b2bb e991 92bd 4b4a 52bd ddd1 143d
00000010: 99e5 0f3e 09b9 c43d ca63 cd3d e419 073b
00000020: 560e 213d 65a7 29be 6153 cd3d 90fc a93d
00000030: ae0a 393e c266 22be f5fc 23bd a43a 003e
00000040: 32f7 efbd 5445 973e 185f 56bd 3090 6fbd
00000050: 4202 4ebe 2992 02bd ab05 36bc a744 8c3c
00000060: c821 e73d c775 1b3d c1a4 cd3c 0101 65bd
00000070: f566 b03d 12ba d2bd 93d2 e23e 7a38 a4bd
00000080: 17d4 c03d ad30 9b3d e1cd 1b3e add5 5bbd
00000090: 17bb 8a3d 7cd6 2f3e 546e a83e 5e2c d63d
000000a0: 7dfe 18be 2e4a 033e f73a ba3d 5bab c43d
000000b0: f432 683c d606 603e 9aed 0e3e 61b9 18bd
000000c0: be02 893e 3c00 babd 3efd d43d fd1e dd3a
000000d0: ade0 14bd 2ece 2d3e d040 7c3c 9068 ba3b
000000e0: 6f93 743e a48d 303d 7c10 af3e 53e3 10be
000000f0: 8dc7 34be 72ca 3d3e e5c6 a43d daac b53d
00000100: 190d c53e 898d 3dbe f6f6 e03c 106a 613c
00000110: 2e06 d93d a822 a53d 6ced cdbc 21e7 2bbd
00000120: f0d9 9dbb 3289 cb3d a19d 5b3c 0467 3f3e
00000130: ebdb 9b3c 5102 3e3e bbcf fbbc ceed 91bd
00000140: 7c67 583d 997d 3ebd e700 20be 85ad 37bd
00000150: c66f 45bd 3d5d 34be b65e bdbe fc97 30bc
00000160: 25b3 c0bd 5d7f bcbc e670 8fbe c624 35be
00000170: d9b2 0abe 0b66 103d ba1a 32be 7b58 6ebe
00000180: b9ed a13d d644 1d3d 0df6 37bd f24f b43d
00000190: 3e71 1e3d 2c02 1b3e 5f34 06be a519 003d
000001a0: c7f5 0cbe 26d2 023e 542a 863d fe2e b33d
000001b0: 61b3 d53d e1c8 113d 8933 29be 8f49 fe3d
000001c0: b629 cc3d 6c6e 11be 69a2 0dbd df14 37be
000001d0: 3404 49bd 6bcc 15bd 0321 d9b8 c80e 64be
000001e0: 8aa7 153e dab4 973d 66fc 05bd e219 e53d
000001f0: 9e05 46bd 931f 77be 662b 52be 9265 7c3b
00000200: 90c5 0ebe 033f f4bd bd9a cf3c edfa 733e
00000210: a4b6 9c3d 338d dd3d 3e0e 593e 696c 4dbd
00000220: a4dc 71bd ec22 403e 298d 37be 8ed0 e9bd
00000230: 6820 943e fc01 273e fd67 94bd de8a ae3d
00000240: 8a1a e63c d8f3 5a3e d739 94be ddbd 823e
00000250: 0237 803d 74ec d63d 88a2 b2bc 9648 303e
00000260: 8e3a 0e3e e4b0 f33d 8013 8d3e dd3c 81bd
00000270: 6334 e23d a116 10be a912 f53d 86b8 bfbd
00000280: 4e41 923d 1e53 263e 5550 633e 186b 3cbd
00000290: e25b 4dbe 20d3 043e 38b2 3fbe 6dfe ad3c
000002a0: 0065 09bd 313a 353d 6bdb bfbb dd1d 973d
000002b0: ee18 fa3c 0f76 9b3e bfb6 d8bb c3db 38be
000002c0: e2df 3cbe d4bc 703e 8440 c639 5ceb 8ebc
000002d0: fe36 19bd 4d56 a53d 703d 813d ec1b 01bd
000002e0: 0dfd 8f3d f990 3cbd 842f 213e 725e c1bd
000002f0: 90c8 79bc 86a5 0c38 166f abbc e15d 203d
00000300: 82d9 3c3d 6ca3 113c 43b8 89bc 5e9c 6ebe
00000310: 653c 9d3e def1 973d b515 2ebd bf17 d33d
00000320: a5f7 533d 4a9f 6ebc 04c1 4abe 388e 21be
00000330: 26c9 733d 95fc d0bd f528 2dbe ca02 e53c
00000340: 812f 903c 1497 5cbd 7f86 f9bd f006 bfbd
00000350: fcd3 37be 075b c7bd 7212 3cba 9b21 03bd
00000360: bb6a efbb 78bb 15be cd55 16be 1ab8 9fbc
00000370: 7856 2cbd bbea 51be 1604 5b3c f6c4 1a3e
00000380: 6b5d 3d3e fb93 4d3d efe9 75be f5e1 c73d
00000390: ee5a c9bd bd47 65bd 3635 71bc 963f fd3d
000003a0: f43b 58be 6696 7bbd e76a 223e 7748 033e
000003b0: 6364 083e 27d6 303e 821c 1abe 0e33 4ebe
000003c0: e5c4 98bd 121f 923e 6b78 0c3d 38a1 463c
000003d0: ba42 243e c671 9b3d e27c b33d 3919 de3d
000003e0: 49a3 07bd 0075 b13d 9829 68bd 8aa4 c73d
000003f0: b894 963d aac9 a63d e843 1bbb d27e 753e
-0.0054333974 -0.071567364 -0.051340383 0.036332954 0.14052428 0.09605605 0.10028799 0.0020614797
0.039320312 -0.16567762 0.10025669 0.083001256 0.1807048 -0.15859511 -0.04003616 0.1252237
-0.11717071 0.2954508 -0.052336782 -0.058487117 -0.20118049 -0.03187767 -0.01110975 0.01712258
0.1128574 0.037954118 0.025102975 -0.05590916 0.086133875 -0.10289396 0.4430128 -0.080185845
0.09415453 0.075776435 0.15215255 -0.053670574 0.06773966 0.17171663 0.32896674 0.10457681
-0.1494083 0.12821266 0.09093278 0.09602996 0.014172304 0.21877608 0.13957825 -0.037286166
0.26759905 -0.09082076 0.103998646 0.0016870197 -0.03634708 0.16973183 0.015396312 0.0056887344
0.23884366 0.04310383 0.34192264 -0.14149217 -0.17654248 0.18534258 0.080457486 0.088708594
0.38486555 -0.18511023 0.02746151 0.013758197 0.10596882 0.08063251 -0.025137626 -0.04196847
-0.00481724 0.09938277 0.013404281 0.18691641 0.019025763 0.18555571 -0.030738702 -0.07125436
0.052833065 -0.046506498 -0.15625344 -0.044843215 -0.0482023 -0.17613693 -0.3698632 -0.010778423
-0.09409169 -0.02300995 -0.28015822 -0.17689809 -0.13544787 0.035253566 -0.17393008 -0.2327594
0.0790667 0.038395725 -0.044912387 0.08804311 0.038682215 0.15137547 -0.13105915 0.031274457
-0.13765632 0.12775478 0.06551042 0.087491974 0.104346044 0.035591964 -0.16523565 0.12416374
0.09968893 -0.14202279 -0.034578715 -0.17879055 -0.049076274 -0.0365719 -0.00010353515 -0.22271264
0.14614692 0.074075416 -0.03271141 0.111865774 -0.0483452 -0.24133138 -0.20524368 0.003851269
-0.13942552 -0.11926081 0.02534234 0.2382619 0.076520234 0.10817947 0.21196839 -0.050152216
-0.05904831 0.18763322 -0.17924942 -0.11416732 0.28930974 0.1630935 -0.07246397 0.085225806
0.028088827 0.21382082 -0.28950378 0.2553548 0.06260492 0.104943186 -0.021806017 0.1721519
0.13889524 0.118989736 0.2755394 -0.06310437 0.11045148 -0.14071132 0.1196645 -0.09361367
0.07141362 0.16242644 0.22198613 -0.04600057 -0.20054582 0.12971163 -0.18720329 0.021239484
-0.033543587 0.04424495 -0.005855014 0.07378743 0.030529466 0.3036351 -0.006613582 -0.18052582
-0.1844478 0.23509532 0.0003781357 -0.017446212 -0.03740596 0.08073101 0.063105464 -0.03152077
0.070306875 -0.046036694 0.15740782 -0.09441842 -0.015245572 3.3532757e-05 -0.020926993 0.03915203
0.04610587 0.0088890605 -0.016811496 -0.23301837 0.3071014 0.074191794 -0.04250117 0.103072636
0.051749844 -0.014564345 -0.19800192 -0.15776908 0.059518002 -0.10204426 -0.16910155 0.027955431
0.017600777 -0.053855017 -0.12183856 -0.09327495 -0.1795196 -0.09734159 -0.00071743794 -0.03201447
-0.0073064244 -0.14622295 -0.14681168 -0.019496966 -0.04207465 -0.20499699 0.013367673 0.15114197
0.18492667 0.050189953 -0.2401502 0.09759895 -0.098317966 -0.055976618 -0.014722159 0.12365644
-0.2111662 -0.061422728 0.15861093 0.12820612 0.13319544 0.17269193 -0.15049937 -0.20136663
-0.0745943 0.2853933 0.034294527 0.0121233985 0.16041079 0.0759006 0.08764054 0.108446546
-0.033114705 0.08664894 -0.056680292 0.0974818 0.073525846 0.08143933 -0.0023691598 0.2397416

network_body._body_endoder.seq_layers.0.bias f4 [128]
00000000: abbe 2e3d 9eb9 473b 2f21 85bc e9f4 8ebc
00000010: c418 0e3c c7cd d5bc cab1 aebc 6ad4 7ebc
00000020: 6954 2c3b f3c5 36bc 9bd0 2e3b 7ca5 0bbc
00000030: 66ef a43c d6d3 8fbd 3e83 a3bb d2f6 debc
00000040: 522d 88bc cb17 abbc 5bf3 c13c 402e 6e3c
00000050: a8dd 7bbc 6d67 18bb 0f12 7e3b 3b0a 02bd
00000060: 7b16 37bd d59c c63c 93e9 96bc 507c 983c
00000070: 599a 423c c904 e6bb 7ba5 663b 8852 a4bd
00000080: eb73 8bbd 3544 1dbc 297e 29bc 941b 7c3b
00000090: 23a2 38bd e221 2b3d 27bb 70bd 1e31 57bd
000000a0: 90dc c53c e9ba efbc ab8a 53bc 043b 04bc
000000b0: e4cc 0fbd 46e7 3a3d 5c16 193d ba90 fdbb
000000c0: d233 1a3c 3bcb 913d 49c7 f3bb 7bac 8d3d
000000d0: 7b0e e23c 4071 2d3c 1333 9a3c 37ee e3bc
000000e0: 4dd3 4bbd 2519 b2bc d048 11bd 71bb 1e3d
000000f0: b350 ddbc 4dde f5bc 6ac4 f7bc aeed 98bd
00000100: 2d88 f1bd 3250 9fbd ce4a 1ebc ccda bdbd
00000110: ecad b53c a203 8bbd 7fbb 37bd ebe9 803d
00000120: 9e01 c73b c7a2 583d 30c4 2e3d 0f17 0c3d
00000130: dc25 8abd 7d61 f5bc 9e3a 34bb 3208 e4b9
00000140: 2fb2 e93c b34a dbbc 95ec 22bc 6267 69bd
00000150: 5f28 07bb 93a7 c63c 904a 083d af90 263c
00000160: d723 8cbb 301f 773c f852 ffbb 3a92 03bc
00000170: 1eea 3bbc 1a5c 883c f696 a6bc e688 65bd
00000180: d8bb 203d e0c1 3fbd cf47 603d 95b0 f5bc
00000190: c571 d73c 8a44 c6bc 7413 b9bd f2f0 f13b
000001a0: 8cd8 9f3c fcd4 363c 51a3 2ebc 25f6 0a3d
000001b0: a8f3 c43b 3d47 90bd 19aa 12bd 1f15 0fbc
000001c0: e734 46bc fb12 efbc a937 efbd c9a0 ebbc
000001d0: eff3 b0bc 5516 cebc bbba cdbc 45d6 d839
000001e0: 490e 6b3c 3fb9 d0bb 4ecc c6bc 8e38 77bb
000001f0: b680 993c 0c54 03bd fb02 e5bb 30e7 acbc
0.042662304 0.0030475627 -0.016251175 -0.017450767 0.008672897 -0.026099099 -0.02132501 -0.015553573
0.002629543 -0.011155593 0.0026674632 -0.008523341 0.020133685 -0.070228264 -0.0049900105 -0.027217302
-0.016623173 -0.020885369 0.023675611 0.014537394 -0.015372671 -0.0023255006 0.0038768088 -0.031748038
-0.044699173 0.024244705 -0.018421924 0.018613964 0.01187762 -0.0070196134 0.003519385 -0.08023554
-0.06809219 -0.009598781 -0.01034502 0.0038468586 -0.0450765 0.04178036 -0.058772232 -0.052537076
0.024153024 -0.02926393 -0.012911479 -0.008070711 -0.03510751 0.045630716 0.03737484 -0.0077382
0.009411769 0.07118841 -0.007439528 0.06917664 0.027594795 0.010586083 0.018823182 -0.02782355
-0.04976206 -0.021740505 -0.03546983 0.038752977 -0.02701602 -0.030013228 -0.030245025 -0.07467209
-0.117935516 -0.07778968 -0.0096613895 -0.09270248 0.022177659 -0.06787802 -0.044856545 0.06294616
0.006073191 0.05288961 0.042667568 0.034201678 -0.06745502 -0.029953713 -0.002750076 -0.00043493655
0.028527347 -0.026769018 -0.009944101 -0.05698336 -0.0020623428 0.024249827 0.033274233 0.010166331
-0.0042767334 0.015083119 -0.007791873 -0.008030469 -0.011469392 0.01664548 -0.020335656 -0.05603876
0.03924164 -0.046815753 0.054755982 -0.029991427 0.026299367 -0.024202604 -0.090369135 0.0073834592
0.019512437 0.011159178 -0.010659055 0.033926148 0.0060104914 -0.070448376 -0.03580675 -0.008733063
-0.012097574 -0.029183855 -0.11680538 -0.028763192 -0.021600692 -0.025157133 -0.025113454 0.00041358374
0.014346668 -0.0063697393 -0.024267342 -0.0037722918 0.018738132 -0.032062575 -0.0069888807 -0.021106333

network_body._body_endoder.seq_layers.2.weight f4 [128, 128]
00000000: 0a73 3b3e bbfc afbd 2f11 a2bd af6e 463e
00000010: cc10 c23d 64b6 6ebe 5feb 493d 1144 b2bd
00000020: 52ea 1f3e a069 003e 8b1d 62bb d2d9 873d
00000030: 28a8 b6ba 3506 403d 628b 93bd 8106 a5be
00000040: 742a e63d dde9 153e 9239 d4bd 9042 39be
00000050: b60a 7f3e e33b eb3d b803 7c3c ea7a 2dbc
00000060: 183c 2ebd 399f 5fbd 658b f7bc 20ac 183e
00000070: 1fdb b33c b180 753e 6876 7dbe a89f 17be
00000080: 0cd6 bb3d 3c17 183d d64d 603e cbf0 c23d
00000090: b019 67be 3f2b 343e daff a33d 249e dfbd
000000a0: 0d35 243e ac7f 573e 38b7 86bc c136 25be
000000b0: ec75 1dbc 6636 d93d ec05 39bd 1855 3a3d
000000c0: ff78 0bbe e9b6 5ebd f28b 453d 3d27 c13d
000000d0: e363 1b3e 9342 cfbd 96a8 9e3d 17db 45bd
000000e0: e64d e9bb e4d5 d23b 670b 34be a10c 46bd
000000f0: 58fa 833e 2130 e63d b581 063c e3b9 123d
00000100: 0b71 7c3d c7b2 cb3d f100 d53c 95ed 66be
00000110: bd63 f93b d722 c8bd b321 debb 93d2 89bc
00000120: b474 91bc 008b 8ebe 6555 55be e6d3 7ebe
00000130: e787 98bd 2f53 5f3d 26e1 0b3e 2be3 76be
00000140: c022 4ebd 8a38 b0bd 8ae3 b63d afee b73c
00000150: 0a7c 02bb 407b b6bc e8f9 c13c c48f c7bc
00000160: 8e3b b03e 3a74 79bc a75b 033c 4905 87bd
00000170: 672a e6bd 03bb d53c 04d3 31be a4d7 34be
00000180: f934 91bd 1822 e63a 7afb 093d 1a5f 773d
00000190: 90fe 7ebc 7fc7 b4bd 9fdb 95bd 60ed 903e
000001a0: 93e5 bdbe def9 b93c 10f8 573e b422 debd
000001b0: 03ce 2b3d 8db2 033d fbd5 71bc 5e4e cfbd
000001c0: 05b8 843b 2878 40be 2152 a53c d9a5 b33b
000001d0: 6ded e1bd 7fb4 3bbe a5fa 9d3d 1bbe 7cbe
000001e0: ce61 213c b66c 1fbd 470c c73a ca23 7d3d
000001f0: eb39 253d 63bc e7bd 833d 263b 0b26 53be
00000200: 95ad 823e 6077 ec3d 5916 be3b 5e9c 233d
00000210: d354 d93d d57a c5bb d489 413c 5ceb 6abd
00000220: 6f52 b83c 9f9d d33b 2a4e 453c 611f 83bd
00000230: 6d0b 02be b4e6 a5bb bf97 5dbd 2a93 cb3d
00000240: 0e5d 8d38 4359 27be 1dbd 55bd ee0e 67bd
00000250: 7bf1 1cbc ed56 e43d 18c0 66bc d613 21be
00000260: 477d e8bd a564 c03c 5fac 383d e056 8e3d
00000270: 7036 d13d d469 873e 1e22 343d 1705 52bc
00000280: 6bb6 e83c 8702 e53d 72f9 33ba 3206 323e
00000290: 7b41 11ba 58ef 963d 9576 a7bd a369 ab3d
000002a0: dfee eabc 38d0 403d 6154 c23d 43f1 ee3c
000002b0: 652c a1bc 79fe 2f3e a462 aabd 9af6 ac3d
000002c0: d9a8 12be 5c81 1dbe 5ec4 25bd 67d6 323e
000002d0: e5e3 cfbd 9c02 f73c 1d6a 8d3d 43a8 8fbd
000002e0: 8fac d4bd 5af1 043d f552 1dbe a2a0 24be
000002f0: 14be 103e ecfc a1bd b978 f83c fb22 62bd
00000300: ac84 46bb 3019 82be ba47 09be 9622 b2bc
00000310: 1526 d83d afeb bd3d b9ac de3d eb98 87bd
00000320: 61e5 883c 4e3f 29be 0fe8 2cbe 014f b8bd
00000330: 4492 4bbb 701e bb3d 34d8 fdbc abed 67bb
00000340: 43e0 99bd bc86 b13b 9e37 03bd 4569 553d
00000350: d079 87be da3b efbd 34d6 46bd fe36 313e
00000360: 3bf5 863d b85f 91bd 4c7d ffbc 0e2e 3a3d
00000370: 20f2 053c b9d3 bc3b 9e5f 11be 09d6 abbd
00000380: 5a34 57bd 8cb1 013e 761e e7bc a360 dd3c
00000390: 6379 62bd bd5e 143e f5b8 0dbe 7a92 c63d
000003a0: 39ea c4bd 0d67 ff3d bf0f 00be 8a7e 983e
000003b0: c8da aa3d f4f0 85bd 1dd9 9cbd d296 b83d
000003c0: cd5b 06bd 0b8b 213c 0066 893d fd19 04be
000003d0: 0967 cdbd 0943 da3c 1a3a f03d 12f1 d3bd
000003e0: 62bd fcbd 9657 043d 0cb1 ae3d 7a79 e5bd
000003f0: be73 db3d 326e 003e 052b 133d df6e 58bd
0.18305603 -0.085931264 -0.07913434 0.1937816 0.0947586 -0.23311764 0.049296733 -0.08704389
0.1561673 0.12540293 -0.0034502472 0.06633343 -0.0013935613 0.04688092 -0.072043195 -0.32231525
0.11238566 0.14639993 -0.10362543 -0.18091798 0.2490643 0.11486032 0.015381746 -0.010588387
-0.04253778 -0.054595206 -0.030217836 0.1490941 0.021955071 0.23974873 -0.247522 -0.14806998
0.091716856 0.037131533 0.21904692 0.09518584 -0.22568393 0.17594622 0.08007784 -0.10918835
0.16035862 0.21044797 -0.016444787 -0.16134168 -0.009610634 0.10606079 -0.045171663 0.045491308
-0.13620375 -0.054373655 0.048229165 0.09431312 0.15174823 -0.1012012 0.07746999 -0.048304643
-0.007119882 0.006434189 -0.17582475 -0.048351888 0.25776935 0.112396486 0.0082096355 0.035821807
0.061631244 0.099462084 0.026001425 -0.22551568 0.0076107667 -0.0977227 -0.0067789196 -0.016824042
-0.017755844 -0.27840424 -0.20833357 -0.2488552 -0.07447796 0.05452269 0.13660106 -0.24110095
-0.05032611 -0.08604534 0.089301184 0.02245268 -0.0019910359 -0.022275567 0.023678735 -0.024360545
0.34420437 -0.0152254645 0.008017457 -0.06592805 -0.11238556 0.02609015 -0.17365652 -0.17660385
-0.07090182 0.0017557768 0.033687092 0.06039343 -0.015563622 -0.08827113 -0.0731728 0.28306103
-0.37089214 0.022702154 0.21090722 -0.10846463 0.041944515 0.0321527 -0.01476049 -0.10122369
0.004050257 -0.18795836 0.020180764 0.005482417 -0.110316135 -0.18330573 0.07713822 -0.24681894
0.009849979 -0.038922034 0.0015186154 0.06180171 0.040338438 -0.11315229 0.0025366254 -0.20619981
0.25523058 0.115462065 0.005801004 0.039944045 0.10611882 -0.0060266056 0.011812646 -0.057353362
0.022500245 0.006457999 0.012042562 -0.064024694 -0.12699671 -0.0050629023 -0.054099794 0.09940179
6.740737e-05 -0.16342644 -0.052182306 -0.056410722 -0.009579058 0.11149392 -0.014083885 -0.15730223
-0.1135202 0.023485491 0.04508626 0.06950164 0.10215461 0.26447928 0.04397785 -0.012818596
0.028407296 0.11182123 -0.00068654784 0.17385176 -0.00055410684 0.0736987 -0.081769146 0.08369758
-0.028678356 0.047073573 0.0948875 0.029167777 -0.01967449 0.17186917 -0.083195955 0.08445473
-0.14322223 -0.15381378 -0.040470473 0.174646 -0.10150889 0.030152611 0.06905005 -0.07014515
-0.103844754 0.032456733 -0.15363677 -0.16076902 0.14135009 -0.07909569 0.030331003 -0.05520914
-0.003029148 -0.25409842 -0.13406268 -0.021745007 0.105541386 0.09273469 0.10872788 -0.06620964
0.016710939 -0.16528055 -0.16885398 -0.08999444 -0.0031062523 0.09136665 -0.030986883 -0.0035389464
-0.07513478 0.005417673 -0.032035463 0.052102346 -0.26460123 -0.11681338 -0.048544124 0.17306134
0.06589743 -0.07098335 -0.031187676 0.045454077 0.008175403 0.005762544 -0.14196631 -0.08390433
-0.05254016 0.12665385 -0.028212767 0.027023619 -0.055291545 0.14489265 -0.13840087 0.09695907
-0.09614987 0.12470827 -0.12506007 0.29784042 0.083425105 -0.06540099 -0.076585986 0.09013142
-0.03280239 0.009859811 0.06708908 -0.12900539 -0.10029418 0.026643293 0.11729832 -0.10348715
-0.123408094 0.03231009 0.08529863 -0.112048104 0.107154354 0.12542036 0.0359297 -0.05284011

network_body._body_endoder.seq_layers.2.bias f4 [128]
00000000: b603 403c 2f82 5f3d bbdc 823b 74c4 f33c
00000010: 2461 263d b4ee 433b 66da 373d 59b9 093d
00000020: e5bb 9f3c 69f6 1a3d 3a0b b53c 1511 80bc
00000030: 844e 71bd c282 013c 2b71 583c 5e24 7bbc
00000040: 2360 3a3d 84df 18bc 1f6a 36bd 65e1 1ebd
00000050: 1708 44bd 9f3f 38bd e3e4 953a e6db 51bd
00000060: 58bb 743c 3037 52bd 5025 793b 8db9 d93b
00000070: 70ad 4a3c 5147 c43c b95b 7ebc 2b9e 88bb
00000080: 8a9c 053d 4834 013b 6c28 06bd 595e 5f3d
00000090: f0fb 86bd 251b 8ebb 9462 6e3d ee81 413c
000000a0: bebd 15bd d837 3ebd 7204 4b3c b72e 953d
000000b0: a791 6c3c 6ccd 0a3b 39a5 313c df8d 47bc
000000c0: ee3f c53c 999f 173c ba4f e43c 00a3 2e3c
000000d0: c65f 4bbd 73e0 23bc 9c6e 42bd aed3 65bc
000000e0: 6175 0ebc 8c65 73bc 200d 843d 77f1 2cbd
000000f0: 509d 9fbd 3da8 7cbb bd35 34bd 8ea6 78bd
00000100: a0d6 a03d f4ee 963c 8dc9 1abd 6a14 18bd
00000110: 805e c0bb 1f24 443c af7d b73d 5d94 40b9
00000120: aaaa 57bd ee3a c2bc 2677 87bc 5594 8f3d
00000130: afbc 013d 81e8 fcbb d35f b4bc 1026 edbc
00000140: 4afa efbc b0ff ecbc 2319 ffbc f75b c2bc
00000150: fb4f 013c e241 aabc 56d1 97bc d30b 95bd
00000160: 7886 983c e86b 64bc dd68 2c3d 4d2b 503d
00000170: 7377 0c3b 37e9 3f3c 53fd 9bbb 00c7 c9bc
00000180: c255 a7bc 3552 593c 88a4 1e3d a257 df3c
00000190: 7673 3abc c3a4 4dbc 9ba8 11bd 70bb 40bd
000001a0: aff1 e83b 266a 16bc 4629 c2bb a60b 203d
000001b0: 39a2 c03c 4b6e 97bc 9431 19bd b5d0 803c
000001c0: f512 2f3c b324 b4bc e556 593d bb85 a23c
000001d0: 5c0b 42bd 0f46 7abd 4b6c 9a3d 505c 2bbc
000001e0: fbbb 903c 8182 5cbd 24eb 60bc 16d0 a0bb
000001f0: 8a37 dd38 130a 88bc a344 30bd 564c 133b
0.011719635 0.054567512 0.0039935983 0.029756762 0.040619984 0.0029896917 0.044886015 0.033624027
0.019498775 0.03783265 0.02210008 -0.015633145 -0.05891277 0.00790471 0.013210575 -0.015328495
0.04550184 -0.009330634 -0.0445348 -0.03878917 -0.047859278 -0.04498255 0.0011436011 -0.051235102
0.014937244 -0.051322162 0.0038016625 0.006644434 0.012370452 0.023959788 -0.015524798 -0.0041692457
0.03261999 0.0019715 -0.032753393 0.054533336 -0.06591022 -0.004336732 0.05819948 0.011810763
-0.036557905 -0.046439976 0.012391197 0.07284301 0.014439023 0.002117957 0.010842615 -0.012179821
0.024078336 0.00925436 0.027870048 0.010658979 -0.049651884 -0.010002243 -0.047468767 -0.014027519
-0.0086949775 -0.014855754 0.06447816 -0.042222466 -0.07793677 -0.0038552426 -0.04399656 -0.060705714
0.078534365 0.018424489 -0.03778987 -0.037128843 -0.0058706403 0.011971503 0.08959519 -0.00018365817
-0.052652992 -0.02370974 -0.016536307 0.07010714 0.031674083 -0.0077181463 -0.022018349 -0.028948814
-0.029294152 -0.028930515 -0.031139916 -0.023725493 0.007892604 -0.020783368 -0.018532436 -0.07277646
0.018618807 -0.0139417425 0.042092193 0.050822545 0.0021433502 0.011713318 -0.004760423 -0.024631023
-0.020426635 0.013264229 0.038731128 0.027263466 -0.011380067 -0.012551489 -0.035561185 -0.047053754
0.007108889 -0.009180581 -0.0059253303 0.03907361 0.023514854 -0.018485209 -0.037400797 0.01572452
0.010685672 -0.021990156 0.053061385 0.019839158 -0.047374114 -0.06110197 0.075401865 -0.010459021
0.017667761 -0.053835396 -0.013727937 -0.0049076183 0.00010548446 -0.016606366 -0.043034207 0.002247592

action_model._continuous_distribution.log_sigma f4 [1, 8]
00000000: 7c1b 93be 3a18 9abe 5e9a f0be dd80 aebe
00000010: 11a1 e0be fb38 d8be ece4 02bf 1ead b3be
-0.28731906 -0.30096608 -0.46992773 -0.3408269 -0.43872884 -0.42230973 -0.5113056 -0.35093015

action_model._continuous_distribution.mu.weight f4 [8, 128]
00000000: fc58 7cbd c4b2 bcbd 0a8e 343e 1268 99bd
00000010: 2535 bcbc 3dbd f2bd 7933 a7bd acce 27bd
00000020: f786 aeba 0779 afbd 1a1d 013d 645c 93bb
00000030: a513 613d cd80 f6bd 6f19 72bb ad2e 5fbc
00000040: da0f bbbc bd6e a9bc 0f18 183a ba7a a03b
00000050: 2264 2f3d ed4d a83c 85d4 97bc 96d7 cc3d
00000060: 5cda f7bd 446d 843b 2837 91bc d33f d63d
00000070: 2100 57bd f010 7dbd 1ca5 04bb 1e26 aa3d
00000080: 3339 923b e529 d7bd 5cfd 24bd 1539 373d
00000090: efcc 0c3d 6ea1 a8bd 40da e3bd f7d2 433c
000000a0: 55b8 513d 8375 073e 484d b03d 38dd 34bd
000000b0: 4bfe eb3b f3a8 c0bc 0b9b 0d3e 541e c2bc
000000c0: 64df 1ebd 877c e3bd dbf6 23bd a5ff 8a3d
000000d0: 9edb df3c 5c36 953d fb14 f43d 0b2a 503d
000000e0: b0c2 febc a9b1 bd3d ee74 0c3d 7b6b 1b3d
000000f0: 41df 75bd 0b26 27bd 99a1 503d 0111 b73d
00000100: 3aba 0c3d 2d6b 153c e867 bf3d da88 19bd
00000110: c091 8d3d ca42 ecbc b1f9 f73d 7be2 38bd
00000120: 48d5 8dbc db2d 5c3d 0aca a9bd 2c3b d5bd
00000130: cd8b ffbc c309 8f3c 1c32 663d f8ce a93c
00000140: c7f3 e9bc 1869 ce3d f8fc a8bd 1192 5f3d
00000150: c61d 0d3d 7f42 76bd e4af 643c bf90 2bbd
00000160: ecf1 cbbd 02fc e83c 823d fbbc 6716 cbbd
00000170: 5bb9 40bd 7a63 c2bd 3654 84bd 2bcd 8cbd
00000180: 37c9 9ebd 2a1c a1bd 6220 7cbc 8952 46bd
00000190: ba19 85bd 568c b23b eb6e b3bc d1d5 4f3d
000001a0: 12f6 2bbd 0da3 033c b683 79bc 9070 263d
000001b0: ace0 20bd 9659 f93a 10eb 02bd 9296 2bbd
000001c0: e186 94bd 086a ad3a 3a3c e7bc 3528 22bd
000001d0: 1e13 cc3d 179e 70bc fdbd 1d3d 7a87 dc3c
000001e0: e562 e6bd 50bf 023d 51f9 833b 2c4f a5bc
000001f0: dfee 913d 0e9c a0bd 8c0d 97bc 8d2a 1cbb
00000200: 094e 93bd 16da 043c 9a85 a3bd 35b6 04be
00000210: 69b4 f4bc b9b8 e7bc b829 4e3d 2ab7 bbbd
00000220: 4300 fcbc 2c00 a2bd 77c7 c2bd bdc5 933c
00000230: 101c 64bd 5410 c7bd 1991 b03c 872f 94bd
00000240: 233e 0cbd 94b3 27bd 93b8 04bd 51ee 263d
00000250: e304 5ebc dae5 9e3c ce93 74bd daa4 fe3c
00000260: 3388 a3bd 2bfa 3ebd 11f0 953b d7e8 4dbb
00000270: af29 1ebd 25cf 67bd 73b5 0a3d fbe3 4e3c
00000280: 1e3a 57bd 8ead f5bb c6d6 babd 7feb 233c
00000290: f171 0f3a be95 83bc fc24 a5bd 2c78 873d
000002a0: b58b 013d dc9e 1b3d 8f79 1c3c 4b90 94bd
000002b0: a1bd 583d d5b0 adbc 7da5 cabd 8b1e 2ebd
000002c0: 6b2d 9dbd 9243 25bd 99c3 c0ba da4a 4ebd
000002d0: d7ad b93d 75e6 ed3c 9770 903c 5698 91bd
000002e0: 6553 80bc deb6 a43c 5497 6d3d 44b2 893c
000002f0: d496 cf3c c39c 9a3d 5195 973d 00d1 c7bc
00000300: c2fd 35bd 0e6e a93d dcce 03bd 1686 09bd
00000310: 7e08 cb3a 3a9d 5fbd a9c0 ec3c 8da5 69bc
00000320: bfeb a2bc 463e 88bd 67e1 2abb f89c 78bd
00000330: 0964 24be a76e f9bd 2ffe a2bd 21e5 dabc
00000340: 3540 90bc f089 2cbc 7843 f1bc aac2 e83b
00000350: 6ffc bbbd 5cd6 80bc 607d b23c fa00 b2bc
00000360: b0de 203d ff72 953c ee83 71bd b5c9 08be
00000370: eafe 603d 68f5 bb3c 5a11 513b e02b 1cbd
00000380: 50d9 f6bc 4901 92bc f7a8 163d 7488 cd3c
00000390: 1fda 82bd 4068 dfbc 17ce 85bc 21fb 2e3d
000003a0: c06d 813c fc79 c93b 495b 20bd 0638 b53b
000003b0: f8c6 92bd 0e66 ffbd 6bfe 92bd 3698 9dbc
000003c0: 054b 063d e1be fb3c b07a 90bd 6226 2ebd
000003d0: db9e 3c3c 5354 aebd 8be7 ccbc 4a82 38bc
000003e0: 7006 9b3d db21 f7bc a907 7dbd 6ce1 93bd
000003f0: 1787 5bbd 2580 e7bb a28e 263d 1d81 c6bd
-0.0616083 -0.09213784 0.17632309 -0.07490553 -0.02297456 -0.118525006 -0.081641145 -0.040968582
-0.0013315369 -0.08568006 0.031521894 -0.004497098 0.054950375 -0.120362855 -0.003694143 -0.013621968
-0.022834707 -0.020682687 0.0005801925 0.0048974426 0.042820103 0.02054497 -0.018533954 0.10002057
-0.121021956 0.004041346 -0.017726496 0.10461392 -0.052490357 -0.06178373 -0.0020240014 0.083080515
0.004462385 -0.105060376 -0.040280685 0.044732172 0.034375127 -0.08233915 -0.11125612 0.011952153
0.051201183 0.13228421 0.0860849 -0.044156283 0.007201945 -0.023518061 0.13828675 -0.023696102
-0.03878726 -0.11107736 -0.04003034 0.067870416 0.027326401 0.07285759 0.11918064 0.050821345
-0.031098694 0.092624016 0.0342912 0.0379443 -0.060027365 -0.040807765 0.05093536 0.0893879
0.034357287 0.009119791 0.093459904 -0.037484027 0.06912565 -0.028840441 0.12108172 -0.045137864
-0.017313614 0.05375467 -0.08290489 -0.10411677 -0.031194592 0.01746071 0.05620013 0.020728573
-0.028558625 0.10078639 -0.08251375 0.05458266 0.034452222 -0.06012201 0.013957951 -0.041886088
-0.09958252 0.02844048 -0.030668978 -0.09916382 -0.04705177 -0.0949163 -0.064613745 -0.0687507
-0.077532224 -0.078667 -0.01538858 -0.048418555 -0.064990476 0.0054488583 -0.021903476 0.05074102
-0.041982718 0.00803448 -0.015229156 0.04063469 -0.039276764 0.0019023891 -0.031962454 -0.041891642
-0.072522886 0.0013230452 -0.02822696 -0.039589126 0.09964584 -0.014686129 0.038511265 0.026920069
-0.112493314 0.03192073 0.0040275236 -0.020179354 0.07125639 -0.07842265 -0.018439077 -0.0023829073
-0.071926184 0.008108636 -0.07984467 -0.12960131 -0.029871183 -0.028286325 0.050332755 -0.09165795
-0.030761844 -0.07910189 -0.09510701 0.018038625 -0.055690825 -0.09719911 0.021553563 -0.072356276
-0.034238946 -0.040942743 -0.032402586 0.04075462 -0.01355097 0.019396711 -0.05971127 0.031084467
-0.07984962 -0.046625298 0.0045757373 -0.00314193 -0.03861397 -0.056594033 0.03386445 0.012627597
-0.05254566 -0.007497496 -0.09122996 0.010004877 0.00054719957 -0.016062614 -0.08063695 0.06614718
0.031627376 0.037993297 0.009550466 -0.07254084 0.05291522 -0.021202484 -0.09894846 -0.042509597
-0.076746784 -0.040347643 -0.001470673 -0.050364353 0.090663604 0.029040555 0.017631812 -0.07109134
-0.015664766 0.02010673 0.058005646 0.016808636 0.025340475 0.07549431 0.07401527 -0.024391651
-0.044431455 0.082729444 -0.0321797 -0.03357514 0.0015490202 -0.054593302 0.028900461 -0.014260662
-0.019887803 -0.06652503 -0.0026074292 -0.060696572 -0.16053785 -0.121793084 -0.07958638 -0.026720585
-0.017608741 -0.010530934 -0.029451117 0.007103284 -0.09179007 -0.015727215 0.0217883 -0.021728981
0.03927487 0.018243311 -0.05896371 -0.13358195 0.054930605 0.022944167 0.0031901211 -0.03812778
-0.03013292 -0.017822878 0.03678223 0.02508948 -0.063892595 -0.02727139 -0.016333623 0.042719964
0.015799403 0.006148575 -0.039149556 0.00553036 -0.071668565 -0.12470637 -0.071774326 -0.019237619
0.032786388 0.030730667 -0.07054651 -0.042517073 0.0115124835 -0.08512177 -0.025012752 -0.011261532
0.07569587 -0.03016751 -0.061774883 -0.0722073 -0.05359563 -0.0070648366 0.04066337 -0.09692595

action_model._continuous_distribution.mu.bias f4 [8]
00000000: fe42 acbd 996e 413c efec c4bc b9fb ad3b
00000010: dd31 be3d 92d6 95bc 4a1f c8bc 602f b5bc
-0.08411215 0.011806154 -0.02403876 0.0053095487 0.092868544 -0.018290792 -0.024428982 -0.022117317

action_model._discrete_distribution.branches.0.weight f4 [1, 128]
00000000: c772 00ba 9387 35bc 2e36 253b 4d7e 83bb
00000010: f3b2 9b3c ec15 0f3b d67c 153c 2150 ab3b
00000020: 850b 913b fb2d 4e3c 93ea 223c 9026 d33b
00000030: 0e98 bcba 8b99 703a 4941 223b 1cf8 4b3b
00000040: 35d2 1d3c 3350 333b 0b5a 06bc 9166 8c38
00000050: 1f29 2a3c ff96 943b 3f38 f9bb 35fe 693c
00000060: 5a26 ad3b 601a d13b dbe4 5dbb 49f1 a13b
00000070: 82a3 ec3b c253 3bbc 130f a93b bb7d a53b
00000080: fc90 1e3c 1b8a 2ebc 474f 0f3a ceab 123c
00000090: fb65 6cbc 41c1 123c 9fb2 60bb c420 38bc
000000a0: a352 54bc 90f4 9f3c e142 3bba 5b2a 38bc
000000b0: 8b8f 0ebc bb0e 05bc b861 f0ba d5e5 9c3b
000000c0: 124b 5abc 38e3 693b d75f cd3a d50c c23b
000000d0: e55a b5bc d2b0 c63b 1a80 25bb f686 9b3c
000000e0: 3fc4 243c 2756 6a3c d47b 9f3b 9a50 e33b
000000f0: c0c5 6d3c 9aff 35bb 27e6 40bc 45ed e4bb
00000100: beb3 9c3a c7bc 7dbc 77b9 d03b c0da edbb
00000110: 5d7b 573c 7526 10bc af07 85b9 47b1 8a3b
00000120: 0f68 5c3c 33d7 e63a b5e3 d7bb 27ab 173b
00000130: cb76 863c b5e4 1dbb 9f50 d63b 68bf df3a
00000140: a513 34bc 8f01 5bbc 52c3 9b3c d0ff b639
00000150: db89 fa3b b806 01bb 6759 0fbb 1b96 be3b
00000160: fb4d 61b9 1abc 0eba 40f9 55bc 6306 4038
00000170: 4e3b aa3b f0ed 8fba 40a6 51bc 2d77 61bb
00000180: 536f 843a 4f3b 8b3b 9b74 8abb bf14 023b
00000190: 9770 073c 130a baba 1fb2 273c 5300 cf3c
000001a0: 8753 5cbb 4797 893b dba9 273c 6a33 9d3c
000001b0: 08a8 c83b 4396 cabb 570e 7dbc 6a86 b939
000001c0: 8f8c f0bb 4943 b2b9 0f7b f73b d042 49bc
000001d0: aa4e 4d3c cfa0 99bb 45a2 383b dde8 a2bb
000001e0: 0899 503c ec6f 0e3c cff9 623b 9a4e eb3b
000001f0: af8e 1b3c 68ed 313c 3bbc f73b 8afb 563a
-0.00048999157 -0.011079687 0.0025209296 -0.004012859 0.019006228 0.0021833135 0.0091240015 0.005228058
0.004426422 0.012584205 0.009943622 0.006443806 -0.0014388578 0.0009178153 0.0024758151 0.0031123227
0.009632637 0.0027361035 -0.008200179 6.694825e-05 0.010385781 0.0045346017 -0.007605582 0.014281799
0.005284113 0.006381318 -0.0033858332 0.0049420935 0.00722164 -0.011433544 0.0051592677 0.0050503886
0.009678122 -0.010653044 0.00054668303 0.008952094 -0.014428611 0.008957208 -0.0034286154 -0.011238281
-0.012959155 0.019525796 -0.00071434496 -0.011240567 -0.0087012155 -0.008121188 -0.0018339669 0.0047881403
-0.013323562 0.0035688411 0.0015668821 0.00592194 -0.022138068 0.006063559 -0.0025253356 0.018985253
0.010056554 0.014302767 0.0048670564 0.0069370987 0.014512479 -0.0027770759 -0.011773623 -0.0069862925
0.0011955423 -0.015486903 0.0063697654 -0.007258743 0.013151971 -0.008798231 -0.00025373462 0.004232559
0.013452544 0.0017611742 -0.006588424 0.0023142786 0.016414067 -0.002409262 0.0065403725 0.0017070593
-0.010991012 -0.013367071 0.019014034 0.0003490434 0.007645828 -0.0019687843 -0.0021873356 0.005816234
-0.00021486722 -0.00054448994 -0.013059914 4.5782315e-05 0.005195058 -0.0010980945 -0.012795985 -0.003440331
0.0010103978 0.0042490135 -0.0042253262 0.0019848791 0.00826659 -0.0014193676 0.0102353385 0.02526871
-0.0033619122 0.004198942 0.010233368 0.019189555 0.0061235465 -0.0061824634 -0.015445313 0.00035386096
-0.0073409746 -0.00034000937 0.0075525115 -0.012283996 0.012530962 -0.0046883593 0.0028172892 -0.004971607
0.012731798 0.008693676 0.003463376 0.007181001 0.009494468 0.010859825 0.0075602806 0.00082009344
