Assets/Brains/Quadruped.onnx (onnx, 808687 bytes, 12 tensors)

network_body.observation_encoder.processors.0.normalizer.running_mean f4 [255]
0.042376295 5.942488 -0.00028166428 0.49999246 7.9998794 0.002037878 -0.194889 -0.04559932
0.83484614 0.6080791 0.7928409 2.7153156 0.08615056 0.0015645963 -0.005183703 0.9161858
0.00022218961 0.43172935 -0.017740082 0.044029243 0.0075956923 0.35184264 0.039075434 -0.06364445
0.042513985 -0.10507113 0.0 0.0 0.7747188 -6.94112 85.629845 11.529208
-8.876315 -0.41744292 7.0932937 0.24041921 0.0011574577 -0.0050914944 0.86068183 -0.004424751
0.17986093 -0.11328185 0.04545922 -0.01718938 0.34810367 -0.13726783 0.039420113 0.029399682
-0.24569489 0.0 0.0 0.68118864 -10.348284 56.08863 19.58205 -12.232351
2.9128063 -7.1418614 0.23987994 0.0010207727 -0.0065492764 0.85836697 -0.0074214004 0.07750512
-0.17718607 0.024207065 0.0120411785 0.38219523 -0.2142923 0.033195343 -0.035205882 0.39266598
-0.11283286 -0.0002653483 0.00019917969 0.90641725 0.0002569944 0.43899897 0.022369646 0.05857902
-0.07969647 0.31311348 0.040500194 -0.017130814 -0.15054719 -0.11887466 0.0 0.0
0.73201513 3.2954817 46.824474 28.633173 -11.658754 2.970014 -7.9683595 -0.13553712
-0.0014201016 -0.0016162263 0.898169 -0.0022842444 0.107388504 0.11840826 0.075468756 0.073397644
0.37582257 0.008597695 -0.10579368 -0.0144039495 -0.05212137 0.0 0.0 0.73664606
5.652455 20.450485 33.08528 -3.6048186 -0.027731668 1.6889035 -0.13514657 -0.0017420296
-0.0023077363 0.8981828 -0.003900852 -0.06770273 0.1714927 0.08022425 -0.012795578 0.35223103
-0.0024143066 -0.11315452 -0.0011119542 0.4913539 0.09403536 -0.00023359265 -0.0016642539 0.924795
5.371163e-05 0.42986068 -0.019147733 0.017625142 -0.09722864 0.29565626 0.123389535 -0.09216268
0.16349842 -0.054491982 0.0 0.0 0.79210913 -0.95652306 6.5217867 6.497236
-11.478913 -6.55826 7.927503 0.16674377 0.0032787423 -0.012502967 0.8804603 -0.011214228
0.10558872 -0.13772625 0.014637668 0.06073571 0.3296158 0.004574541 -0.039409876 0.016735578
0.0016782341 0.0 0.0 0.6968178 -3.5100076 -20.840727 10.06472 -12.418446
-3.019232 -1.7848867 0.16617058 0.002483704 -0.012931804 0.8807417 -0.019012315 -0.05120036
-0.21423191 0.0073079607 -0.027839642 0.317137 -0.0034713864 -0.052562494 -0.013531729 0.5467372
-0.048546728 8.804169e-05 -0.00023133011 0.9270897 0.0002829338 0.42982107 0.009793012 0.03011546
-0.076471835 0.2617183 0.102929085 -0.045334924 -0.08914584 0.01869638 0.0 0.0
0.77325296 7.352802 79.357185 2.388521 1.9476053 0.5960944 -8.266916 -0.032414112
0.00056587206 -0.0042946185 0.9127461 -0.0036925352 0.06888169 0.047714878 0.055763602 0.08504614
0.2852522 0.0026022363 -0.025195995 -0.033666685 0.107136264 0.0 0.0 0.6956659
10.193075 51.822464 10.637855 -4.4241343 0.18994112 0.36080873 -0.032633677 0.0009652498
-0.004905734 0.9127623 -0.0065793 -0.11844643 0.06635636 0.056273643 -0.0114274565 0.29119948
-0.0021070729 -0.011868375 -0.006847262 0.4444164 0.04025916 -0.13361832 0.30580837
00000000: c492 2d3d dd28 be40 57ac 93b9 03ff ff3e
00000010: 03ff ff40 eb8d 053b fb90 47be 5ac6 3abd
00000020: 7ab8 553f 12ab 1b3f 9ff7 4a3f bbc7 2d40
00000030: b46f b03d 2413 cd3a 0ddc a9bb 278b 6a3f
00000040: 92fb 6839 a10b dd3e a653 91bc 0258 343d
00000050: 49e5 f83b b824 b43e 900d 203d 0558 82bd
00000060: 2523 2e3d 882f d7bd 0000 0000 0000 0000
00000070: f953 463f a81d dec0 7b42 ab42 a377 3841
00000080: 6305 0ec1 14bb d5be 43fc e240 7430 763e
00000090: d6b5 973a 8dd6 a6bb a555 5c3f 80fd 90bb
000000a0: 772d 383e 5100 e8bd 7233 3a3d bed0 8cbc
000000b0: a53a b23e f08f 0cbe fc76 213d 9ad7 f03c
000000c0: 7197 7bbe 0000 0000 0000 0000 6162 2e3f
000000d0: 9292 25c1 c25a 6042 0aa8 9c41 b6b7 43c1
000000e0: 6b6b 3a40 218a e4c0 16a3 753e 73cb 853a
000000f0: 509b d6bb f0bd 5b3f 382f f3bb 01bb 9e3d
00000100: 4470 35be e54d c63c 5d48 453c 18af c33e
00000110: 716f 5bbe d7f7 073d 0b34 10bd 840b c93e
00000120: ea14 e7bd 721e 8bb9 e4da 5039 f60a 683f
00000130: 34bd 8639 79c4 e03e 8c40 b73c 8ef0 6f3d
00000140: e737 a3bd 6950 a03e 88e3 253d ec55 8cbc
00000150: 0b29 1abe 8f74 f3bd 0000 0000 0000 0000
00000160: 5865 3b3f 2ce9 5240 434c 3b42 bd10 e541
00000170: 428a 3ac1 b614 3e40 cdfc fec0 3eca 0abe
00000180: b422 baba 8ed7 d3ba 67ee 653f 43b3 15bb
00000190: 81ee db3d 0880 f23d 5d8f 9a3d 8151 963d
000001a0: d16b c03e 59dd 0c3c 5baa d8bd 8bfe 6bbc
000001b0: 387d 55bd 0000 0000 0000 0000 d694 3c3f
000001c0: e9e0 b440 989a a341 5457 0442 59b5 66c0
000001d0: 862d e3bc fd2d d83f dd63 0abe d054 e4ba
000001e0: 643d 17bb 4fef 653f 70a5 7fbb bba7 8abd
000001f0: c89b 2f3e 9d4c a43d 8ba4 51bc a057 b43e
00000200: 5839 1ebb 8fbd e7bd febe 91ba bd92 fb3e
00000210: 9c95 c03d 8df0 74b9 1823 daba 5dbf 6c3f
00000220: 6c48 6138 b316 dc3e b5db 9cbc 9a62 903c
00000230: cf1f c7bd 4260 973e a7b3 fc3d cabf bcbd
00000240: 216c 273e fc32 5fbd 0000 0000 0000 0000
00000250: aac7 4a3f b2de 74bf 7ab2 d040 5be9 cf40
00000260: a1a9 37c1 44dd d1c0 1bae fd40 e1be 2a3e
00000270: 2be0 563b 3fd9 4cbc d965 613f e2bb 37bc
00000280: e63e d83d 1c08 0dbe d4d2 6f3c 02c6 783d
00000290: 67c3 a83e 08e6 953b 406c 21bd 0d19 893c
000002a0: 31f8 db3a 0000 0000 0000 0000 a762 323f
000002b0: f7a3 60c0 cfb9 a6c1 1809 2141 f4b1 46c1
000002c0: 193b 41c0 2b77 e4bf 9f28 2a3e a3c5 223b
000002d0: ebdf 53bc 4a78 613f b7bf 9bbc 78b7 51bd
000002e0: 9c5f 5bbe 9e77 ef3b f60f e4bc c85f a23e
000002f0: 3380 63bb c54b 57bd 2fb4 5dbc f8f6 0b3f
00000300: efd8 46bd 06a3 b838 3491 72b9 c055 6d3f
00000310: bb56 9439 8211 dc3e df72 203c b2b4 f63c
00000320: 449d 9cbd f1ff 853e 7ccc d23d 1db1 39bd
00000330: 1892 b6bd 2729 993c 0000 0000 0000 0000
00000340: e8f3 453f 274a eb40 e1b6 9e42 87dd 1840
00000350: 214b f93f a599 183f 4a45 04c1 a9c4 04bd
00000360: 0857 143a dfb9 8cbb baa9 693f 76fe 71bb
00000370: d811 8d3d ad70 433d 6068 643d ac2c ae3d
00000380: 940c 923e 488a 2a3b d567 cebc 14e6 09bd
00000390: 426a db3d 0000 0000 0000 0000 2917 323f
000003a0: d616 2341 344a 4f42 a734 2a41 8292 8dc0
000003b0: ed7f 423e ecbb b83e e4aa 05bd d108 7d3a
000003c0: 48c0 a0bb caaa 693f 2b97 d7bb 0b94 f2bd
000003d0: d8e5 873d 317f 663d 3a3a 3bbc 1918 953e
000003e0: d116 0abb 9373 42bc ff5e e0bb 8c8a e33e
000003f0: cae6 243d 3ed3 08be ea92 9c3e

network_body._body_endoder.seq_layers.0.weight f4 [256, 255]
0.01830385 0.17583948 -0.039601225 -0.27389142 -0.17995177 0.029720742 0.13856432 -0.12837483
0.2794562 -0.13040985 0.12025877 -0.08262898 0.07760875 0.06849927 0.051253494 -0.15613236
0.38138428 0.09841138 0.017421855 -0.00923877 0.017546453 -0.014143964 -0.2600822 0.021207606
-0.075728014 -0.10404233 0.11901566 0.099953 0.03187964 -0.10752425 0.15158832 -0.019538127
0.28598318 0.11266551 -0.029642278 -0.052394304 0.17261112 0.0727906 -0.20215704 0.18676293
0.18785368 0.04645706 -0.01709999 0.043704525 0.18595648 0.21119708 -0.060627665 0.13178892
0.08080077 0.0030023807 0.06350006 0.16374622 0.07925131 0.18190268 -0.1324949 0.006614068
0.13944085 -0.1005569 -0.18697432 0.008877205 0.07745626 -0.122960694 0.156873 0.16488492
0.10426389 0.18012732 -0.1302848 -0.08166073 0.24462716 -0.22286867 0.08675684 -0.14538985
-0.10496015 0.09998078 0.29718858 0.09818015 0.102406204 -0.01668356 0.06495915 0.14985034
0.12189408 -0.3265495 0.058250334 0.026981276 -0.008473098 0.23205566 0.028141182 0.055434767
0.21429084 0.0069538057 0.0823916 -0.18229963 -0.023531111 -0.08376904 0.09239111 -0.1395367
0.2167116 0.004973725 0.24615191 0.14951907 -0.08492592 0.118611515 0.11638071 -0.11053861
-0.3498535 -0.12226149 0.048370797 0.16891333 0.04703133 0.05538663 -0.026542168 0.17573088
-0.09473052 -0.05173419 -0.1338552 0.16899087 0.11390844 -0.011476288 -0.027909527 0.23330003
-0.094550915 0.110373765 -0.012779529 -0.24068943 0.11891736 0.079426035 -0.2032461 -0.21974283
-0.25096655 0.19058199 0.32875422 0.22923826 -0.13267444 -0.17398 0.005487909 -0.18951944
-0.03554221 0.35664144 0.11531004 0.17470461 0.16184862 0.015311796 -0.30884567 -0.034212526
-0.10261636 0.11460467 -0.03596615 -0.021392671 -0.0027279707 -0.19329123 -0.07648431 -0.23630387
-0.06898421 -0.09998514 -0.013248134 0.022366783 0.028098835 0.010274376 -0.0413649 0.07748259
0.060743205 -0.11050923 -0.010369447 0.05677034 -0.084005155 0.052297853 -0.0009436074 0.06208186
-0.18930283 0.06756593 0.03308098 -0.1629604 -0.31732267 -0.18334469 -0.1371801 -0.11881378
-0.08356177 -0.62243223 0.15034741 0.08667119 0.008386037 -0.037691377 0.07260312 -0.023495024
-0.06427328 -0.0037715666 0.14231758 -0.05831053 -0.11384729 0.05104167 0.072822824 -0.0465828
-0.037995856 0.00854548 -0.08550988 -0.07840577 -0.12100241 0.14576231 -0.05762819 0.3080922
0.122274086 0.0018742055 0.0149499625 -0.21868196 -0.19382346 0.0072244154 -0.022590851 -0.0023263332
-0.029127505 0.125504 -0.1966955 -0.2012971 0.011709289 -0.113453165 0.07589338 0.020198599
-0.12237482 -0.035594333 -0.10605787 -0.03078388 0.10011126 0.13651536 0.22340588 -0.13962618
0.08815557 -0.10104179 0.074192226 0.10419225 -0.028112525 -0.05733626 0.04290336 -0.07652226
0.045371722 -0.21102509 -0.05051274 0.08439767 0.26296297 0.15203063 -0.03587626 -0.14337875
0.04435498 -0.08465904 -0.0777333 -0.0028551756 0.10946443 0.23191857 -0.09225207 0.02034465
0.021791132 0.011397876 0.09023882 0.20787504 0.17728868 0.15178783 -0.075702116 0.046598386
00000000: f5f1 953c 440f 343e e534 22bd 7f3b 8cbe
00000010: 4745 38be ea78 f33c cee3 0d3e b174 03be
00000020: e214 8f3e 298a 05be 3b4a f63d 6239 a9bd
00000030: 56f1 9e3d 5849 8c3d 2fef 513d 29e1 1fbe
00000040: cd44 c33e e88b c93d 47b8 8e3c 365e 17bc
00000050: 94bd 8f3c 16bc 67bc 7e29 85be 93bb ad3c
00000060: 4a17 9bbd 2514 d5bd 7bbe f33d 29b4 cc3d
00000070: 3a94 023d ad35 dcbd f839 1b3e 6c0e a0bc
00000080: 636c 923e 2dbd e63d 5dd4 f2bc 699b 56bd
00000090: f8c0 303e 3d13 953d 4102 4fbe c83e 3f3e
000000a0: b75c 403e c249 3e3d 4715 8cbc 8403 333d
000000b0: 606b 3e3e 0c44 583e b754 78bd adf3 063e
000000c0: e07a a53d 97c3 443b 520c 823d 17ad 273e
000000d0: 834e a23d b244 3a3e beac 07be d3ba d83b
000000e0: 95c9 0e3e c7f0 cdbd 3276 3fbe b271 113c
000000f0: 63a1 9e3d d1d2 fbbd 51a3 203e 98d7 283e
00000100: 4e88 d53d 4c73 383e 6169 05be be3d a7bd
00000110: 8b7f 7a3e af37 64be 92ad b13d 14e1 14be
00000120: 59f5 d6bd b9c2 cc3d 1a29 983e ad12 c93d
00000130: 58ba d13d f6ab 88bc 4e09 853d 5e72 193e
00000140: 9aa3 f93d 7f31 a7be e797 6e3d d607 dd3c
00000150: c0d2 0abc 00a0 6d3e 5688 e63c 910f 633d
00000160: 0f6f 5b3e c0dc e33b edbc a83d c1ac 3abe
00000170: 51c4 c0bc 1a8f abbd 8d37 bd3d b5e2 0ebe
00000180: a5e9 5d3e a1fa a23b 3f0f 7c3e 871b 193e
00000190: a4ed adbd 98ea f23d 0259 ee3d 1162 e2bd
000001a0: ff1f b3be 3b64 fabd 7520 463d 9ef7 2c3e
000001b0: eda3 403d 17dd 623d f66e d9bc ccf2 333e
000001c0: 1302 c2bd 3be7 53bd 5611 09be f10b 2d3e
000001d0: d448 e93d 0a07 3cbc 85a2 e4bc 34e6 6e3e
000001e0: e9a3 c1bd a40b e23d 3b61 51bc 4a77 76be
000001f0: f28a f33d 1eaa a23d bf1f 50be 4404 61be
00000200: b07e 80be ed27 433e 7952 a83e 6fbd 6a3e
00000210: cfdb 07be d027 32be ebd3 b33b 6211 42be
00000220: b594 11bd b599 b63e ac27 ec3d c4e5 323e
00000230: a5bb 253e 54de 7a3c 0521 9ebe 6f22 0cbd
00000240: 8728 d2bd dab5 ea3d 3e51 13bd af3f afbc
00000250: c1c7 32bb 23ee 45be cea3 9cbd a4f9 71be
00000260: 9847 8dbd 02c5 ccbd b40e 59bc 8b3a b73c
00000270: 872f e63c db55 283c 3e6e 29bd 31af 9e3d
00000280: decd 783d aa52 e2bd 9de4 29bc 0488 683d
00000290: e50a acbd 4636 563d 6c5c 77ba 8c49 7e3d
000002a0: 9ad8 41be 0260 8a3d ec7f 073d 17df 26be
000002b0: 1e78 a2be b6be 3bbe f178 0cbe a454 f3bd
000002c0: 6f22 abbd b857 1fbf acf4 193e aa80 b13d
000002d0: 9765 093c 4662 1abd f2b0 943d a378 c0bc
000002e0: b6a1 83bd 632c 77bb b3bb 113e 06d7 6ebd
000002f0: c528 e9bd 1211 513d 2224 953d 9bcd 3ebd
00000300: 8ba1 1bbd 5702 0c3c ce1f afbd 3493 a0bd
00000310: 1dd0 f7bd b742 153e 890b 6cbd 43be 9d3e
00000320: d66a fa3d e7a7 f53a b0f0 743c 2aee 5fbe
00000330: a879 46be caba ec3b 7310 b9bc 6575 18bb
00000340: ce9c eebc 1f84 003e 8c6a 49be d420 4ebe
00000350: 51d8 3f3c 225a e8bd fd6d 9b3d 8877 a53c
00000360: a69f fabd 5dcb 11bd de34 d9bd 7a2e fcbc
00000370: 2207 cd3d afca 0b3e 83c4 643e 2afa 0ebe
00000380: e88a b43d ffee cebd 18f2 973d bf62 d53d
00000390: 3d4c e6bc 6dd9 6abd 6fbb 2f3d b4b7 9cbd
000003a0: b3d7 393d f616 58be 72e6 4ebd b0d8 ac3d
000003b0: 15a3 863e ebad 1b3e fcf2 12bd e1d1 12be
000003c0: 91ad 353d b861 adbd a332 9fbd e61d 3bbb
000003d0: e32e e03d 107c 6d3e a7ee bcbd d3a9 a63c
000003e0: 5183 b23c 28be 3a3c 21cf b83d 32dd 543e
000003f0: 2a8b 353e 456e 1b3e b609 9bbd f3dd 3e3d

network_body._body_endoder.seq_layers.0.bias f4 [256]
-0.26315796 -0.39447185 -0.21908659 -0.2956759 -0.3055058 -0.20720555 -0.28956807 -0.44356254
-0.3664225 -0.3471659 -0.28563714 -0.31486937 -0.31123075 -0.33012384 -0.15230185 -0.22398967
-0.3657591 -0.21975517 -0.3408549 -0.2774129 -0.35718903 -0.2713841 -0.177663 -0.27259457
-0.26596934 -0.30967513 -0.2849901 -0.4055457 -0.27341035 -0.23114151 -0.25893444 -0.2696648
-0.25098014 -0.24833736 -0.18461725 -0.32216838 -0.34109852 -0.25320354 -0.20932263 -0.30250245
-0.122270584 -0.28690025 -0.3158585 -0.25115484 -0.271621 -0.25663936 -0.2520327 -0.26853335
-0.27934733 -0.3877845 -0.28138417 -0.29680687 -0.3254164 -0.29443568 -0.29248494 -0.33203065
-0.2631923 -0.3721252 -0.2658321 -0.3816746 -0.3545852 -0.33508167 -0.388789 -0.26104778
-0.3074652 -0.23868088 -0.20677304 -0.3210694 -0.3134512 -0.17128329 -0.25357917 -0.33586034
-0.320234 -0.35689786 -0.28373554 -0.2880865 -0.23456837 -0.36935097 -0.2417324 -0.16400999
-0.30969942 -0.22147116 -0.15831111 -0.20025057 -0.24089044 -0.25362483 -0.4555947 -0.17799492
-0.23373923 -0.2982615 -0.28935537 -0.2921367 -0.30295202 -0.3702417 -0.2616351 -0.33258182
-0.34140646 -0.37261772 -0.21543479 -0.21378447 -0.35234675 -0.3248238 -0.24395104 -0.33544222
-0.32475924 -0.24338286 -0.4248414 -0.19831899 -0.2643985 -0.22762482 -0.3039544 -0.24812432
-0.24922904 -0.28745255 -0.3170341 -0.27792174 -0.36373448 -0.29263735 -0.28803867 -0.3493744
-0.26822546 -0.22784288 -0.31451786 -0.28444764 -0.36024487 -0.2546681 -0.23332407 -0.40051067
-0.42815453 -0.3310725 -0.15736045 -0.27699235 -0.4073495 -0.27582973 -0.24868493 -0.38044274
-0.36558217 -0.33918446 -0.21107033 -0.27934638 -0.26754856 -0.42148826 -0.45544055 -0.3088301
-0.35851887 -0.39000174 -0.20122059 -0.1689523 -0.44684783 -0.30653483 -0.29403242 -0.41210842
-0.23796141 -0.2188561 -0.31034917 -0.33517367 -0.16314298 -0.27358615 -0.31457967 -0.24486062
-0.14273258 -0.2791165 -0.38357812 -0.3986921 -0.27341583 -0.32554287 -0.29802364 -0.17030026
-0.38830444 -0.28760326 -0.28447512 -0.274777 -0.2964466 -0.31173968 -0.19526607 -0.3453
-0.37622043 -0.31042612 -0.24181439 -0.30000788 -0.3539496 -0.32815522 -0.4324002 -0.294659
-0.295968 -0.19144753 -0.20670176 -0.43364942 -0.47016782 -0.24332468 -0.27544948 -0.2856255
-0.336026 -0.23207924 -0.27921388 -0.31207043 -0.3113493 -0.3634819 -0.17304665 -0.32200986
-0.25552386 -0.17563307 -0.29189643 -0.30230337 -0.27795142 -0.21122059 -0.26128948 -0.3369864
-0.24683759 -0.28315982 -0.32456166 -0.3304334 -0.33568937 -0.3023745 -0.27366045 -0.362245
-0.1372071 -0.19818738 -0.31159064 -0.23432828 -0.46169052 -0.31371555 -0.34495157 -0.24515583
-0.22608775 -0.24963489 -0.20959044 -0.26603317 -0.34736544 -0.2961409 -0.2645304 -0.37882084
-0.27168688 -0.22591689 -0.33203623 -0.36354285 -0.31727493 -0.2650358 -0.28786877 -0.18534105
-0.2603664 -0.3040758 -0.22618161 -0.32061526 -0.299903 -0.3689771 -0.35200998 -0.31994936
-0.18324557 -0.26419172 -0.22656408 -0.22054373 -0.34700212 -0.30905184 -0.14464717 -0.24575756
00000000: a4bc 86be 37f8 c9be 3c58 60be d562 97be
00000010: 426b 9cbe b12d 54be 4442 94be a11a e3be
00000020: bb9b bbbe bbbf b1be 083f 92be 8f36 a1be
00000030: a359 9fbe fe05 a9be 04f5 1bbe 8c5d 65be
00000040: c744 bbbe 8007 61be 8984 aebe 1009 8ebe
00000050: 7be1 b6be dbf2 8abe 4aed 35be 8491 8bbe
00000060: 222d 88be bd8d 9ebe 39ea 91be b0a3 cfbe
00000070: 71fc 8bbe 5cb0 6cbe 0e93 84be 8111 8abe
00000080: 7880 80be 264c 7ebe 4e0c 3dbe 41f3 a4be
00000090: 77a4 aebe e5a3 81be ac58 56be 9ae1 9abe
000000a0: 0069 fabd 97e4 92be 35b8 a1be 5e97 80be
000000b0: e811 8bbe 3c66 83be 6e0a 81be 347d 89be
000000c0: 9d06 8fbe b18b c6be 9611 90be 12f7 97be
000000d0: fa9c a6be 46c0 96be 96c0 95be ecff a9be
000000e0: 24c1 86be 3287 bebe 251b 88be da6a c3be
000000f0: 318c b5be d38f abbe 5a0f c7be 0ea8 85be
00000100: 146c 9dbe c368 74be 50bc 53be 3563 a4be
00000110: ad7c a0be e364 2fbe 21d5 81be e3f5 abbe
00000120: b6f5 a3be 51bb b6be c945 91be 1380 93be
00000130: b132 70be 921b bdbe b388 77be 3cf2 27be
00000140: ec90 9ebe 56c9 62be 4f1c 22be 7c0e 4dbe
00000150: fcab 76be 1ddb 81be b543 e9be 4d44 36be
00000160: 5659 6fbe bbb5 98be 6326 94be f192 95be
00000170: 871c 9bbe 5290 bdbe 09f5 85be 2a48 aabe
00000180: d4cc aebe c0c7 bebe f09a 5cbe 51ea 5abe
00000190: cb66 b4be 4e4f a6be 4dce 79be 15bf abbe
000001a0: d846 a6be 5b39 79be d084 d9be 2214 4bbe
000001b0: 3d5f 87be 7b16 69be e99f 9bbe 4d14 7ebe
000001c0: e635 7fbe fb2c 93be 4b52 a2be c24b 8ebe
000001d0: 683b babe 90d4 95be ce79 93be 34e1 b2be
000001e0: d954 89be a54f 69be 7c08 a1be 1fa3 91be
000001f0: 0472 b8be db63 82be 81ec 6ebe bc0f cdbe
00000200: 1237 dbbe 5682 a9be 1923 21be f1d1 8dbe
00000210: 1d90 d0be 8e39 8dbe 43a7 7ebe 64c9 c2be
00000220: 962d bbbe 96a9 adbe d222 58be 7d06 8fbe
00000230: 20fc 88be 4fcd d7be 812f e9be fb1e 9ebe
00000240: c98f b7be 4fae c7be c50c 4ebe d501 2dbe
00000250: 3dc9 e4be 22f2 9cbe 6b8b 96be e0ff d2be
00000260: 28ac 73be d01b 60be 16e6 9ebe e29b abbe
00000270: f40e 27be 7c13 8cbe 9610 a1be bebc 7abe
00000280: 7d28 12be 5ce8 8ebe 5a64 c4be 5f21 ccbe
00000290: 29fd 8bbe 8ead a6be 8e96 98be 3163 2ebe
000002a0: d7cf c6be bc40 93be b9a6 91be 92af 8cbe
000002b0: d9c7 97be 589c 9fbe d4f3 47be 29cb b0be
000002c0: f79f c0be 2cf0 9ebe 319e 77be a29a 99be
000002d0: e238 b5be f603 a8be 8f63 ddbe 8bdd 96be
000002e0: 1e89 97be d20a 44be a0a9 53be 4c07 debe
000002f0: d6b9 f0be 1b2a 79be b707 8dbe 813d 92be
00000300: 9a0b acbe 2ea6 6dbe 1ff5 8ebe b2c7 9fbe
00000310: 2d69 9fbe 4d1a babe 2433 31be 7ade a4be
00000320: 06d4 82be 28d9 33be 7373 95be 82c7 9abe
00000330: a64f 8ebe 364a 58be bcc7 85be 7b89 acbe
00000340: fec2 7cbe 53fa 90be f22c a6be 912e a9be
00000350: 7adf abbe d5d0 9abe 391d 8cbe 2d78 b9be
00000360: 0580 0cbe a2f1 4abe cf88 9fbe c1f3 6fbe
00000370: b362 ecbe 539f a0be 7e9d b0be 210a 7bbe
00000380: 8c83 67be 4aa0 7fbe e09e 56be 8035 88be
00000390: e2d9 b1be c89f 97be 8770 87be cef4 c1be
000003a0: 8b1a 8bbe c256 67be a700 aabe 4a22 babe
000003b0: dc71 a2be c6b2 87be 8963 93be 0bca 3dbe
000003c0: bf4e 85be d3af 9bbe 279c 67be af27 a4be
000003d0: e38c 99be 91ea bcbe a73a b4be 67d0 a3be
000003e0: baa4 3bbe 2344 87be 6a00 68be 37d6 61be
000003f0: 43aa b1be 0b3c 9ebe 631e 14be dfa7 7bbe

network_body._body_endoder.seq_layers.2.weight f4 [256, 256]
0.017250903 -0.022618055 0.07022594 -0.06936175 -0.2293362 0.004085447 0.09664252 -0.0377915
-0.10177803 -0.046917673 -0.11333894 -0.14468782 -0.11113595 0.14107244 -0.1757146 0.15310134
0.16960436 -0.06353422 -0.25153142 0.1411496 -0.11394211 -0.3305252 0.15983208 0.05226105
-0.104009606 -0.26703724 -0.12553814 -0.3806807 -0.14444585 0.025527667 -0.054168496 0.07942722
-0.13276802 0.060647186 0.08209694 -0.13343441 -0.061276287 -0.027415007 -0.10223726 0.070693985
0.051510256 0.04857095 -0.16445059 0.16846998 0.19563073 -0.25761425 0.12160685 -0.03700793
0.028128378 0.2056035 0.2637338 0.008594803 0.047635514 -0.0014891409 -0.07319042 -0.01681466
0.057974115 0.07032942 -0.18142062 0.042506948 -0.23102948 0.040168446 0.13561527 0.18612443
-0.10630266 -0.15708937 0.10686267 0.10011651 -0.058528103 -0.0066721668 -0.3207053 0.0008814868
-0.02423008 0.04830064 0.066111825 -0.30475894 0.0029522935 -0.06078847 0.03711796 0.07849315
-0.13896506 -0.325837 0.12003503 0.05321427 -0.2767759 -0.09707169 -0.1555101 0.1300666
0.118349336 -0.15854988 -0.099013835 -0.15698977 0.02365962 0.14489128 0.037598386 -0.029537754
-0.0654493 -0.005618948 0.2127399 -0.061157897 0.044709664 -0.078345805 -0.13213591 0.11580207
-0.017514575 -0.11665602 0.043812003 0.042891532 0.15024987 -0.055838346 -0.12407572 -0.048989758
-0.35665983 0.26682243 0.095704205 -0.04283787 0.038285386 0.05237139 -0.07401444 0.0021097327
-0.082678296 -0.01798981 0.014129379 0.091458924 -0.0010457302 0.016049642 0.017559642 -0.11462887
0.16976164 -0.3790404 0.16446555 -0.0062273764 -0.1313209 -0.067859836 0.049459457 0.042072542
0.11751907 0.11061389 -0.16284229 0.24865805 -0.29183882 0.024250122 -0.17898795 -0.1478474
0.20308484 0.077556044 -0.04868696 -0.11911446 -0.2168331 -0.09340246 0.14749156 -0.25492573
0.122685395 0.11462128 -0.16003881 -0.17537546 -0.13831167 -0.15165412 -0.15338364 0.029653937
0.063348226 0.083712354 0.031203039 -0.19693692 -0.062712714 0.07375402 -0.15869926 0.16120166
0.09177536 -0.20159101 0.036498804 -0.1684957 0.021826908 0.037959833 0.021356406 -0.027873863
-0.028789507 -0.17234963 0.11448875 -0.071237534 -0.10182059 -0.053709865 0.18096837 0.00442918
-0.25255665 -0.24594851 0.048710484 0.27623606 0.077023044 0.022022292 -0.074726745 -0.0280814
-0.26145208 0.10669513 0.13115372 0.021839404 0.028495405 -0.22790053 -0.012958028 0.01658474
0.17521842 0.19701679 -0.24352324 0.009523373 -0.10008484 -0.057692565 0.060051605 -0.08058724
-0.20994265 -0.15122339 0.103398316 0.04103371 -0.13552567 -0.12382684 -0.07001617 -0.101421446
0.0033769696 -0.14164442 0.09948615 -0.26344472 -0.03912677 0.11351102 0.19501616 0.005986479
0.04210993 -0.15026824 -0.28742507 -0.08652738 -0.14208227 -0.03943337 0.0565521 0.017677022
-0.09609364 0.2956416 -0.02608285 0.17619891 -0.05399928 0.0471098 0.15633531 0.17060985
0.00016095302 -0.007114302 -0.23830844 0.067179255 0.12573291 0.105122805 -0.10619673 0.00090694934
-0.00025504964 -0.00408404 0.0036015932 -0.35861406 -0.10295876 -0.26167136 -0.026787281 -0.26445487
00000000: c451 8d3c 8049 b9bc 9ed2 8f3d 880d 8ebd
00000010: 1cd7 6abe 37df 853b 83ec c53d 43cb 1abd
00000020: 0071 d0bd bf2c 40bd 3f1e e8bd 0b29 14be
00000030: 3f9b e3bd 4b75 103e 87ee 33be 99c6 1c3e
00000040: c4ac 2d3e 3b1e 82bd bac8 80be 8589 103e
00000050: 7b5a e9bd 993a a9be 05ab 233e af0f 563d
00000060: fd02 d5bd 1bb9 88be 128d 00be 95e8 c2be
00000070: 9de9 13be 661f d13c c9df 5dbd bdaa a23d
00000080: 57f4 07be 2f69 783d 7122 a83d 08a3 08be
00000090: d8fc 7abd 7095 e0bc c561 d1bd 02c8 903d
000000a0: 6bfc 523d 55f2 463d bc65 28be 6583 2c3e
000000b0: 6c53 483e 04e6 83be 030d f93d a195 17bd
000000c0: 7c6d e63c b989 523e 1e08 873e 37d1 0c3c
000000d0: 751d 433d 472f c3ba dce4 95bd e6be 89bc
000000e0: 4476 6d3d df08 903d 54c6 39be c41b 2e3d
000000f0: fe92 6cbe ab87 243d bbde 0a3e 6797 3e3e
00000100: 36b5 d9bd 09dc 20be d1da da3d e309 cd3d
00000110: 2abb 6fbd 31a2 dabb 7c33 a4be 9413 673a
00000120: 297e c6bc e4d6 453d a365 873d 5d09 9cbe
00000130: 447b 413b 55fd 78bd 0109 183d 04c1 a03d
00000140: db4c 0ebe 1bd4 a6be edd4 f53d 35f7 593d
00000150: 92b5 8dbe 86cd c6bd 0a3e 1fbe 2e30 053e
00000160: 2361 f23d e65a 22be c4c7 cabd edc1 20be
00000170: d2d1 c13c 615e 143e c400 1a3d 29f9 f1bc
00000180: 480a 86bd 271f b8bb 7dd8 593e b480 7abd
00000190: 7b21 373d c473 a0bd a34e 07be a329 ed3d
000001a0: ba7a 8fbc 5ae9 eebd 3774 333d 08af 2f3d
000001b0: 1adb 193e c0b6 64bd 691b febd 7ca9 48bd
000001c0: 1e9c b6be f39c 883e 9100 c43d c376 2fbd
000001d0: 23d1 1c3d 6283 563d e294 97bd 7143 0a3b
000001e0: 3d53 a9bd 5e5f 93bc e97e 673c d14e bb3d
000001f0: e210 89ba 8a7a 833c 3dd9 8f3c 8ac2 eabd
00000200: ffd5 2d3e 9511 c2be a869 283e 050f ccbb
00000210: fc78 06be 19fa 8abd 0096 4a3d 4254 2c3d
00000220: d7ad f03d 8989 e23d 21c0 26be 37a0 7e3e
00000230: e66b 95be 31a8 c63c 9e48 37be 4f65 17be
00000240: 79f5 4f3e b4d5 9e3d fa6b 47bd 48f2 f3bd
00000250: 7f09 5ebe ca49 bfbd 0708 173e a085 82be
00000260: 7b42 fb3d 90be ea3d 37e1 23be a095 33be
00000270: 93a1 0dbe 384b 1bbe 9a10 1dbe d0ec f23c
00000280: b7bc 813d 6271 ab3d 849d ff3c d5a9 49be
00000290: 866f 80bd 590c 973d 0f82 22be 0c12 253e
000002a0: b8f4 bb3d e06d 4ebe c57f 153d 238a 2cbe
000002b0: 58ce b23c c57b 1b3d a1f3 ae3c ba57 e4bc
000002c0: f9d7 ebbc 6c7c 30be 1479 ea3d fce4 91bd
000002d0: 5087 d0bd e0fe 5bbd c64f 393e a822 913b
000002e0: 1b4f 81be edd9 7bbe a584 473d d06e 8d3e
000002f0: 42be 9d3d 1868 b43c 560a 99bd f70a e6bc
00000300: 0cdd 85be fa82 da3d 294d 063e 8de8 b23c
00000310: 326f e93c c25e 69be e94d 54bc b8dc 873c
00000320: 756c 333e c5be 493e 285e 79be ec07 1c3c
00000330: 48f9 ccbd 0a4f 6cbd acf8 753d ec0a a5bd
00000340: 35fb 56be 4eda 1abe 7fc2 d33d f712 283d
00000350: 3ec7 0abe ed98 fdbd a364 8fbd 0cb6 cfbd
00000360: 2650 5d3b 3c0b 11be 65bf cb3d 3ae2 86be
00000370: 6443 20bd 7778 e83d 51b2 473e 3a2a c43b
00000380: 767b 2c3d ebdf 19be 6129 93be 4435 b1bd
00000390: 047e 11be e384 21bd 2da3 673d 67cf 903c
000003a0: becc c4bd 565e 973e b3ab d5bc 7d6d 343e
000003b0: 592e 5dbd 35f6 403d 5d16 203e 59b4 2e3e
000003c0: 7fc5 2839 171f e9bb 2107 74be 4795 893d
000003d0: 21c0 003e a04a d73d ac7d d9bd 57c0 6d3a
000003e0: 2fb8 85b9 69d3 85bb b508 6c3b 439c b7be
000003f0: 0bdc d2bd caf9 85be 0071 dbbc a166 87be

network_body._body_endoder.seq_layers.2.bias f4 [256]
-0.031069225 -0.039906666 -0.17366767 -0.056830976 -0.00043054705 0.007210055 -0.003400917 -0.05720368
-0.08191112 -0.004127662 -0.04364575 -0.084842846 -0.043273207 -0.002861152 -0.01973029 -0.08526947
0.0067930436 -0.080180585 -0.05592697 0.00856517 -0.07527944 -0.030712545 -0.039564736 -0.012930871
-0.048628718 -0.048548315 -0.02097394 -0.041416246 -0.05249841 -0.05339984 0.0060235793 -0.059044458
-0.017605856 -0.12238743 -0.03009114 0.007983875 -0.023231424 -0.11605255 -0.013007122 0.01538947
-0.06499349 0.0071796277 0.0004919257 -0.049440645 0.017655727 -0.014559619 -0.069436364 -0.06301789
0.0041234246 0.035519406 -0.12639719 -0.021013284 0.038229436 -0.13170911 0.024905205 0.016105043
-0.10563506 0.024032457 -0.023570986 -0.037018187 0.0124613475 -0.08133826 0.00622987 -0.081826665
0.014009262 0.015113282 -0.0155872 0.013948709 0.012506843 -0.102215536 0.011469935 -0.02432119
-0.06911002 0.012512335 -0.080774456 0.011895893 -0.002575013 -0.035224613 -0.0545282 0.008050713
-0.021865135 0.051184613 -0.04069918 -0.057624448 -0.008784912 -0.005177893 -0.049350444 -0.00873605
-0.023635121 -0.032588944 -0.031219102 -0.04478567 -0.015195771 -0.06662979 0.021086741 0.023476245
0.019044314 0.013484327 -0.070298254 -0.044635117 -0.026782166 -0.040478993 -4.73354e-05 -0.025384013
-0.08315897 -0.006207272 -0.051473457 -0.0428509 -0.0073455814 -0.036833365 0.002317624 0.032411713
-0.089900196 -0.03493096 -0.080368586 -0.029854305 -0.062206928 -0.019192183 -0.13282192 -0.028256766
-0.031471174 0.0015892023 -0.056053206 -0.084809616 -0.025257064 -0.0037212207 -0.04140696 -0.037123602
0.016921245 -0.018132314 -0.027805654 -0.0027045086 -0.036058594 -0.05820667 -0.03541993 -0.016818345
-0.015491189 -0.004196606 -0.019188967 -0.027822135 0.01527839 -0.01936861 -0.0416006 -0.040416673
-0.01856981 -0.07905619 0.03607138 -0.022089638 -0.06337394 -0.0061505446 -0.09412924 -0.08639344
0.017517831 -0.043331362 -0.046643376 0.0020210964 -0.020248208 -0.05813745 -0.051067557 0.0043787993
-0.121007234 -0.014140503 -0.035830412 -0.023159776 -0.017834598 0.003631108 -0.0048810802 -0.091039345
-0.00077535014 0.0536434 -0.01598189 0.010627312 -0.00031192417 -0.12918447 -0.04645195 -0.10108098
-0.010705212 -0.002059335 0.026361424 0.024956014 -0.046093736 -0.032696515 0.015051112 0.014152892
-0.04829419 -0.052220546 -0.070614845 -0.09402958 -0.07099787 0.0076934663 -0.027397618 -0.07313253
-0.0080498615 0.04135354 -0.07961829 -0.04623618 -0.06506128 -0.0071643386 -0.024657803 -0.02622213
-0.056191273 -0.03461576 -0.074723445 -0.05913082 -0.042157814 -0.07133895 -0.10527779 -0.01707369
-0.002990217 -0.038028147 -0.037141915 -0.033091348 0.019239629 -0.028333588 -0.118154034 -0.03168016
-0.07472875 0.0108551355 -0.007754423 -0.05767018 -0.03415778 -0.06081289 -0.06601092 -0.044026174
-0.049418215 -0.045294967 -0.02608878 -0.06787723 -0.10700878 0.037649937 -0.056971833 -0.059674397
-0.053293504 -0.09434389 -0.03937389 -0.14875507 -0.08823372 -0.034525245 -0.06257972 -0.03716875
-0.026111849 0.071671285 -0.016585909 -0.005396928 0.011110623 -0.0044556856 -0.065029524 -0.0530609
-0.05003447 -0.027743528 0.027307032 -0.007454875 0.03255956 0.00089074555 -0.020038676 -0.07491824
00000000: e384 febc 2c75 23bd f0d5 31be 99c7 68bd
00000010: 0cbb e1b9 5342 ec3b ebe1 5ebb 684e 6abd
00000020: 04c1 a7bd 5741 87bb e3c5 32bd 16c2 adbd
00000030: 3f3f 31bd 2a82 3bbb 6ba1 a1bc c3a1 aebd
00000040: 2e98 de3b b835 a4bd ae13 65bd ed54 0c3c
00000050: 1b2c 9abd e098 fbbc a20e 22bd 01dc 53bc
00000060: e82e 47bd 99da 46bd 8ad1 abbc 15a4 29bd
00000070: 9308 57bd cab9 5abd 7261 c53b 9ad8 71bd
00000080: 283a 90bc 43a6 fabd b281 f6bc cdce 023c
00000090: d44f bebc f6ac edbd d31b 55bc 1e24 7c3c
000000a0: 4f1b 85bd 1543 eb3b 93f4 003a 4682 4abd
000000b0: bea2 903c 788b 6ebc a734 8ebd 860f 81bd
000000c0: cb1d 873b cc7c 113d 446e 01be 0d24 acbc
000000d0: 7896 1c3d c1de 06be 0006 cc3c b9ee 833c
000000e0: 3257 d8bd b7df c43c f117 c1bc 62a0 17bd
000000f0: ae2a 4c3c ac94 a6bd f023 cc3b bd94 a7bd
00000100: 1b87 653c b39d 773c 7561 7fbc 2089 643c
00000110: 80e9 4c3c 6156 d1bd 65ec 3b3c 3b3d c7bc
00000120: 8e89 8dbd 8900 4d3c 146d a5bd fee6 423c
00000130: 8dc1 28bb af47 10bd f658 5fbd 23e7 033c
00000140: 831e b3bc f5a6 513d 2fb4 26bd 9d07 6cbd
00000150: 97ee 0fbc 51ab a9bb b123 4abd a621 0fbc
00000160: 719e c1bc fc7b 05bd 34bf ffbc 2e71 37bd
00000170: aff7 78bc 3375 88bd 1abe ac3c 4151 c03c
00000180: d202 9c3c 5eed 5c3c 88f8 8fbd 50d3 36bd
00000190: 4666 dbbc 4dcd 25bd 008a 46b8 22f2 cfbc
000001a0: 404f aabd 5f66 cbbb d5d5 52bd 6d84 2fbd
000001b0: 34b3 f0bb 95de 16bd 47e3 173b 25c2 043d
000001c0: 981d b8bd c413 0fbd 4998 a4bd 0491 f4bc
000001d0: b1cc 7ebd ed38 9dbc 7802 08be bc7a e7bc
000001e0: ebe7 00bd c84c d03a 0c98 65bd aab0 adbd
000001f0: e7e7 cebc b9df 73bb 589a 29bd eb0e 18bd
00000200: 6c9e 8a3c 388a 94bc afc8 e3bc 203e 31bb
00000210: 2db2 13bd 1e6a 6ebd 7d14 11bd a0c6 89bc
00000220: c2ce 7dbc af83 89bb 2e32 9dbc 3feb e3bc
00000230: 3652 7a3c ebaa 9ebc 6465 2abd f48b 25bd
00000240: b71f 98bc 36e8 a1bd 95bf 133d 54f5 b4bc
00000250: 32ca 81bd 828a c9bb d5c6 c0bd 0bef b0bd
00000260: 8e81 8f3c 3a7c 31bd 200d 3fbd 5f74 043b
00000270: 92df a5bc 8921 6ebd 372c 51bd 087c 8f3b
00000280: a4d2 f7bd 91ad 67bc e9c2 12bd 92b9 bdbc
00000290: dd19 92bc e2f7 6d3b 78f1 9fbb d672 babd
000002a0: de40 4bba 2fb9 5b3d 74ec 82bc 2d1e 2e3c
000002b0: c189 a3b9 ef48 04be 6644 3ebd 8b03 cfbd
000002c0: ea64 2fbc e8f5 06bb eaf3 d73c 8e70 cc3c
000002d0: c9cc 3cbd c8ec 05bd f098 763c 88e1 673c
000002e0: 21d0 45bd 36e5 55bd 849e 90bd 9592 c0bd
000002f0: 5567 91bd 7919 fc3b f870 e0bc 82c6 95bd
00000300: 91e3 03bc 5462 293d ea0e a3bd 2662 3dbd
00000310: d93e 85bd d4c2 eabb 29ff c9bc cbcf d6bc
00000320: d228 66bd 41c9 0dbd 9b08 99bd 2933 72bd
00000330: acad 2cbd 281a 92bd e29b d7bd 20de 8bbc
00000340: 84f7 43bb 67c3 1bbd 1f22 18bd cb8a 07bd
00000350: 6d9c 9d3c d71b e8bc befa f1bd 0ec3 01bd
00000360: 630b 99bd bdd9 313c d118 febb 9137 6cbd
00000370: 07e9 0bbd f016 79bd bc30 87bd ca54 34bd
00000380: c16a 4abd 3787 39bd 23b8 d5bc 3803 8bbd
00000390: 6b27 dbbd d236 1a3d 4c5b 69bd 246d 74bd
000003a0: 4a4a 5abd 5f37 c1bd 8446 21bd 4053 18be
000003b0: e1b3 b4bd 586a 0dbd cc29 80bd 423e 18bd
000003c0: 84e8 d5bc 65c8 923d 2cdf 87bc b7d8 b0bb
000003d0: 5509 363c 0001 92bb 332e 85bd 6356 59bd
000003e0: f2f0 4cbd 6546 e3bc ffb2 df3c 0648 f4bb
000003f0: 2c5d 053d ec80 693a 2628 a4bc bc6e 99bd

network_body._body_endoder.seq_layers.4.weight f4 [256, 256]
-0.16121021 -0.17760764 0.027717263 0.06724987 -0.014183992 -0.28728598 -0.14045526 0.06217673
0.031451393 -0.07588345 0.14546032 0.08461567 0.2564575 -0.20065705 0.14775914 -0.094728895
0.012019424 0.18682227 0.081814855 0.106124826 -0.09668927 -0.094156094 -0.22417921 -0.21518692
-0.16956428 0.19543009 -0.07788923 -0.11313688 0.0060082483 0.10735819 0.21874622 -0.08153643
0.14605732 0.0868193 0.09904086 -0.07715312 0.21494733 -0.101645336 0.10487809 -0.049826663
-0.1882863 -0.20546137 -0.13825546 -0.34008947 0.26122844 0.1383399 0.09447773 -0.05630851
-0.064436324 0.034625053 0.10265789 0.28674507 -0.05604303 -0.14614303 -0.03377182 0.037631657
0.18174542 -0.17325467 0.08516394 -0.021164214 -0.036855265 0.259782 -0.07249315 -0.1050033
0.09851341 -0.02900884 0.20433912 -0.06410367 -0.3392835 -0.10296964 0.012751359 0.011335861
-0.09159241 0.10481643 -0.05159813 0.1690928 0.0015308362 0.040620185 -0.010405906 0.20918359
0.116016835 0.13867176 -0.35895735 0.051669374 -0.18589306 -0.36797276 -0.05732733 -0.0402641
0.17836034 0.16155897 -0.051524147 -0.023709284 0.06963264 0.19426608 -0.0519221 0.036300883
-0.16812979 -0.06245827 -0.06226636 -0.002806652 0.018289553 0.045509636 0.04990726 -0.036170114
0.3269569 -0.03773312 -0.0020119809 0.15108046 -0.29543692 0.042683795 -0.11268393 -0.23227355
0.020640602 0.11040336 -0.028193224 0.08238568 0.15137033 -0.26292336 -0.05781662 0.0066688214
-0.055652212 0.0026807121 -0.16727172 0.158024 0.039790403 -0.33626065 -0.082314126 0.06987062
-0.21927509 0.14499183 -0.18819788 -0.045321945 0.12400794 -0.08798708 -0.12209271 0.18164375
0.004771576 0.08830197 0.08280214 -0.28974524 0.019083247 0.042167585 0.06616009 -0.17345995
0.013979776 -0.20087512 -0.35047677 -0.17070675 0.20879076 0.051203147 -0.06853832 -0.0014762623
-0.016159099 -0.13663347 -0.13350959 0.13089877 -0.37345734 -0.1780281 -0.1060736 0.029011808
-0.10250419 -0.051964577 -0.03957486 -0.012954416 0.09029109 0.21545011 0.14852297 -0.085616365
-0.042750854 0.06382714 -0.30620667 -0.2279828 0.32577914 -0.04640803 -0.14419223 0.2206673
-0.16581416 0.089811854 -0.055421866 0.11494625 0.20724566 -0.18927698 -0.04932923 -0.014831863
-0.06926968 -0.08537719 -0.05335253 -0.09670457 0.021986127 -0.057514053 0.025342671 0.118713394
-0.1262834 -0.31652254 0.025036767 0.01872704 0.04275274 -0.05863003 -0.16015102 0.04000868
0.13436916 0.02190098 -0.21810447 -0.33081454 -0.5519416 0.0039938847 0.074815184 0.107009776
-0.3971951 -0.0010247589 0.14926364 -0.11059286 0.17311361 0.028473457 -0.04229339 -0.08351985
0.07459255 0.22729819 0.047955938 0.32350257 0.0105360625 -0.08955926 0.15629682 0.30889925
0.092744365 0.06327668 0.018667657 -0.040250197 -0.06836856 -0.073514104 0.0059885783 -0.08437515
0.09852196 0.11131036 0.030801212 0.03990375 -0.07968928 0.20423862 -0.24904993 0.07964492
-0.15655507 0.0059718667 -0.06582135 -0.18471622 -0.12939936 -0.09391986 0.23138009 0.050619163
-0.20626934 0.074411444 -0.07583304 0.0833475 0.17624928 -0.015163815 0.116213925 -0.1313808
00000000: 4a14 25be c7de 35be 500f e33c 4dba 893d
00000010: f963 68bc 2617 93be 81d3 0fbe 07ad 7e3d
00000020: 2dd3 003d c868 9bbd 8df3 143e fb4a ad3d
00000030: 664e 833e 0b79 4dbe 2c4e 173e 3901 c2bd
00000040: 1eed 443c 564e 3f3e 8c8e a73d f957 d93d
00000050: 0605 c6bd e9d4 c0bd 3c8f 65be f659 5cbe
00000060: 42a2 2dbe d31e 483e 6384 9fbd 4fb4 e7bd
00000070: d7e0 c43b 9cde db3d 02ff 5f3e 92fc a6bd
00000080: 0d90 153e 51ce b13d efd5 ca3d 7402 9ebd
00000090: 271b 5c3e 6e2b d0bd 53ca d63d 0b17 4cbd
000000a0: 20ce 40be 7764 52be d792 0dbe 3520 aebe
000000b0: bcbf 853e faa8 0d3e 8a7d c13d c1a3 66bd
000000c0: 31f7 83bd 00d3 0d3d 4d3e d23d 40d0 923e
000000d0: 608d 65bd 85a6 15be 5254 0abd a723 1a3d
000000e0: 791b 3a3e ac69 31be 6f6a ae3d 9360 adbc
000000f0: 8cf5 16bd 2502 853e 4a77 94bd f80b d7bd
00000100: 66c1 c93d f2a3 edbc 463e 513e c948 83bd
00000110: 91b6 adbe bfe1 d2bd 13eb 503c 0cba 393c
00000120: cd94 bbbd ffa9 d63d 9058 53bd aa26 2d3e
00000130: 57a6 c83a 5a61 263d 887d 2abc 3934 563e
00000140: 3c9a ed3d f8ff 0d3e 42c9 b7be 44a3 533d
00000150: c05a 3ebe ed66 bcbe 10d0 6abd f8eb 24bd
00000160: 18a4 363e b76f 253e fc0a 53bd f939 c2bc
00000170: 8f9b 8e3d b0ed 463e 45ac 54bd 3cb0 143d
00000180: 372a 2cbe 3ed4 7fbd 030b 7fbd cfef 37bb
00000190: f9d3 953c 5068 3a3d 8e6b 4c3d 1d27 14bd
000001a0: e566 a73e 0b8e 1abd 70db 03bb d6b4 1a3e
000001b0: 8243 97be 34d5 2e3d d5c6 e6bd 1ed9 6dbe
000001c0: 7b16 a93c 281b e23d 7af5 e6bc d3b9 a83d
000001d0: d300 1b3e e49d 86be 1fd1 6cbd 2186 da3b
000001e0: 93f3 63bd e3ae 2f3b 4749 2bbe 0bd1 213e
000001f0: 43fb 223d 5b2a acbe 4f94 a8bd 5418 8f3d
00000200: a689 60be bd78 143e f2b6 40be 81a3 39bd
00000210: e0f7 fd3d 9232 b4bd be0b fabd d200 3a3e
00000220: e15a 9c3b aad7 b43d 2b94 a93d 7d59 94be
00000230: 7854 9c3c ebb7 2c3d f17e 873d 7c9f 31be
00000240: 6e0b 653c 35b2 4dbe b171 b3be c0cd 2ebe
00000250: 3fcd 553e 64ba 513d d25d 8cbd 257f c1ba
00000260: 1660 84bc a5e9 0bbe bdb6 08be 540a 063e
00000270: cd35 bfbe 004d 36be 1e3d d9bd 2caa ed3c
00000280: b7ed d1bd cfd8 54bd 4019 22bd c23e 54bc
00000290: 89ea b83d f49e 5c3e 6816 183e a257 afbd
000002a0: 851b 2fbd ceb7 823d 1fc7 9cbe 5374 69be
000002b0: 86cc a63e 5916 3ebd 21a7 13be 9cf6 613e
000002c0: 30cb 29be 47ef b73d 0a02 63bd f168 eb3d
000002d0: 3538 543e d3d1 41be 720d 4abd 5801 73bc
000002e0: 43dd 8dbd 3cda aebd 2f88 5abd 0c0d c6bd
000002f0: 401c b43c db93 6bbd 6f9b cf3c 0220 f33d
00000300: 7050 01be 3e0f a2be e819 cd3c 7369 993c
00000310: 7f1d 2f3d 0b26 70bd a1fe 23be 24e0 233d
00000320: 1298 093e af69 b33c c756 5fbe 8660 a9be
00000330: 0b4c 0dbf 22df 823b b438 993d f127 db3d
00000340: 285d cbbe 3451 86ba 91d8 183e 827e e2bd
00000350: b244 313e 2b41 e93c d53b 2dbd 750c abbd
00000360: fbc3 983d dbc0 683e 726d 443d 21a2 a53e
00000370: 739f 2c3c d86a b7bd 460c 203e 0b28 9e3e
00000380: c2f0 bd3d 3497 813d eaec 983c 64dd 24bd
00000390: d104 8cbd 908e 96bd d63b c43b e1cc acbd
000003a0: e2c5 c93d b0f6 e33d d352 fc3c 1d72 233d
000003b0: 2234 a3bd ee23 513e f206 7fbe e01c a33d
000003c0: f94f 20be a6af c33b 58cd 86bd 4026 3dbe
000003d0: 4481 04be 0e59 c0bd e7ee 6c3e 0a56 4f3d
000003e0: 4538 53be 0765 983d 5a4e 9bbd 18b2 aa3d
000003f0: b17a 343e a671 78bc 9101 ee3d b088 06be

network_body._body_endoder.seq_layers.4.bias f4 [256]
-0.13588034 -0.09151554 -0.059855994 -0.106803596 -0.13882414 -0.16425198 -0.12605298 -0.0896352
-0.06910348 -0.23480247 -0.2553383 -0.10815757 -0.11279726 -0.14249974 -0.05317008 -0.13610882
-0.026959496 -0.06248979 -0.109038785 -0.060251657 -0.15682784 -0.023986438 -0.18503293 -0.11471951
-0.12858328 -0.23715128 -0.1445429 -0.0028959138 -0.17964365 -0.07608584 -0.11006612 -0.20755117
-0.19572192 -0.20755698 -0.17840408 -0.16651163 -0.065632746 -0.14836025 -0.089360446 -0.23318286
-0.10786093 -0.17844473 -0.21023363 -0.2090408 -0.16497548 -0.09932817 -0.23437926 -0.08623394
-0.1296281 -0.13677493 -0.13166739 -0.09445636 -0.1488671 -0.06840986 -0.1302038 -0.106735095
-0.14990166 -0.20274991 -0.104255036 -0.20542064 -0.2296091 -0.211268 -0.15844695 -0.06373263
-0.100561135 -0.16336578 -0.11518427 -0.11675843 -0.121949226 -0.2030928 -0.11277022 -0.1534517
-0.17035367 -0.13887732 -0.110902466 -0.1322943 -0.10434041 -0.09542338 -0.16965322 -0.16218688
-0.17524348 -0.16461909 -0.17211337 -0.057200726 -0.13105214 -0.13494247 -0.044532545 -0.14224787
-0.09107496 -0.1784781 -0.24835095 -0.041301988 -0.12733975 -0.20681585 -0.09331824 -0.16190436
-0.17178467 -0.20652612 -0.16454701 -0.16181451 -0.2086054 -0.041705843 -0.056874808 -0.07082981
-0.14341849 -0.037195366 -0.050751135 -0.16611895 -0.13640629 -0.19506654 -0.1707976 -0.17131713
-0.12398597 -0.10116938 -0.11400529 -0.093735 -0.12003236 -0.009658939 0.0018231471 -0.16883788
-0.067680344 -0.10905135 -0.12674545 -0.18861654 -0.040664278 -0.108523756 -0.04832107 -0.090102725
-0.17320138 -0.026227131 -0.09338031 -0.13832155 -0.23902556 -0.1804608 -0.21272187 -0.11810048
-0.061565153 -0.21135543 -0.21165657 -0.043403476 -0.16042759 -0.043234803 -0.095569536 -0.06533274
-0.16203737 -0.10774665 -0.120032296 -0.20275457 -0.069240265 -0.13349354 -0.15669216 -0.18914875
-0.11002253 -0.15002568 -0.16487572 -0.13484064 -0.028633801 -0.16175976 -0.21737586 -0.1752847
-0.07690834 0.030546553 -0.20109476 -0.06610459 -0.09296201 -0.16133234 -0.10059649 -0.121697694
-0.20060016 -0.12663347 -0.20942461 -0.13964789 -0.09676459 -0.11107151 -0.04944526 -0.10423711
-0.11558361 -0.13960792 -0.10652507 -0.09578699 -0.14062719 -0.20417914 -0.09643627 -0.1644154
-0.04477013 -0.09715251 -0.16272873 -0.25600213 -0.085125856 -0.08763213 -0.106803425 -0.16972433
-0.1452969 -0.09072077 -0.06956228 -0.16686188 -0.10497708 -0.2091528 -0.12453777 -0.08725906
-0.15376352 -0.15083864 -0.14328997 -0.08691062 -0.2252125 -0.048075493 -0.12266165 -0.090109155
-0.18106143 -0.11358429 -0.18388872 -0.18672004 -0.12068175 -0.16178575 -0.064470574 -0.1511185
-0.13743943 -0.1300929 -0.17216639 -0.073873214 -0.13691205 -0.1047474 -0.10276168 -0.065184146
-0.1705749 -0.060394857 -0.080421746 -0.11588627 -0.1565603 -0.1513952 -0.1177943 -0.10146252
-0.15125257 -0.14255178 -0.1025568 -0.18348567 -0.12348634 -0.16015095 -0.15421925 -0.105637155
-0.06294658 -0.06925857 -0.18857783 -0.12528376 -0.20852183 -0.17412695 -0.1696683 -0.058242157
-0.16871582 -0.08260165 -0.081578806 -0.14142415 -0.17008245 -0.10492142 -0.022497313 0.0031824498
00000000: 3724 0bbe 806c bbbd 8f2b 75bd d8bb dabd
00000010: ea27 0ebe ac31 28be 0814 01be a992 b7bd
00000020: 2086 8dbd 0f70 70be b4bb 82be b781 ddbd
00000030: 4002 e7bd 74eb 11be dfc8 59bd 1c60 0bbe
00000040: 29da dcbc 4bf5 7fbd ba4f dfbd 71ca 76bd
00000050: 7a97 20be 357f c4bc 4679 3dbe 10f2 eabd
00000060: 56ab 03be c9d7 72be 0e03 14be 5fc9 3dbb
00000070: 81f4 37be e5d2 9bbd 596a e1bd 4b88 54be
00000080: 546b 48be d189 54be 8faf 36be 0682 2abe
00000090: 766a 86bd c0eb 17be 9c02 b7bd 7dc7 6ebe
000000a0: 31e6 dcbd 37ba 36be 7c47 57be cb0e 56be
000000b0: 55ef 28be 916c cbbd 1e01 70be 6c9b b0bd
000000c0: 3bbd 04be ba0e 0cbe d1d3 06be 5672 c1bd
000000d0: 9e70 18be 781a 8cbd 2554 05be ee97 dabd
000000e0: d27f 19be ac9d 4fbe aa83 d5bd ca59 52be
000000f0: a61e 6bbe a356 58be eb3f 22be 4186 82bd
00000100: fff2 cdbd 5c49 27be bbe5 ebbd 0b1f efbd
00000110: 84c0 f9bd 8ff7 4fbe 13f4 e6bd 7122 1dbe
00000120: 3171 2ebe db35 0ebe d520 e3bd 2878 07be
00000130: 6db0 d5bd 556d c3bd 93b9 2dbe 5114 26be
00000140: 0773 33be e891 28be 7d3e 30be 4f4b 6abd
00000150: 8832 06be 5c2e 0abe c267 36bd 6da9 11be
00000160: 8285 babd f7c2 36be b64f 7ebe 462c 29bd
00000170: 5a65 02be 89c7 53be a21d bfbd 42ca 25be
00000180: 52e8 2fbe 957b 53be 037f 28be b4b2 25be
00000190: a79c 55be bfd3 2abd 8ff5 68bd 380f 91bd
000001a0: 4cdc 12be 2b5a 18bd 6ce0 4fbd 161b 2abe
000001b0: 17ae 0bbe 86bf 47be 91e5 2ebe c26d 2fbe
000001c0: 5bec fdbd e431 cfbd 9b7b e9bd 23f8 bfbd
000001d0: 87d3 f5bd 8740 1ebc aaf6 ee3a d6e3 2cbe
000001e0: fe9b 8abd 5056 dfbd 8fc9 01be b224 41be
000001f0: 968f 26bd b441 debd 50ec 45bd c787 b8bd
00000200: b45b 31be 48da d6bc 2d3e bfbd 2aa4 0dbe
00000210: 1ec3 74be b7ca 38be c3d3 59be aade f1bd
00000220: be2b 7cbd 8f6d 58be 80bc 58be d8c7 31bd
00000230: 2147 24be fa16 31bd f6b9 c3bd 2ccd 85bd
00000240: 20ed 25be 47aa dcbd 7ed3 f5bd e59e 4fbe
00000250: d7cd 8dbd 88b2 08be e973 20be 36b0 41be
00000260: 7e53 e1bd 55a0 19be 2ed5 28be aa13 0abe
00000270: 6f91 eabc 5aa4 25be c797 5ebe d57d 33be
00000280: 1f82 9dbd c43c fa3c c9eb 4dbe d861 87bd
00000290: de62 bebd 4e34 25be 8805 cebd a43c f9bd
000002a0: 216a 4dbe 34ac 01be 6873 56be dbff 0ebe
000002b0: 832c c6bd 7679 e3bd 1d87 4abd 447a d5bd
000002c0: 1ab7 ecbd 61f5 0ebe d129 dabd f82b c4bd
000002d0: 9300 10be 5614 51be 6180 c5bd 835c 28be
000002e0: e260 37bd e5f7 c6bd 5ca2 26be b612 83be
000002f0: 7756 aebd 7978 b3bd c1bb dabd 37cc 2dbe
00000300: b6c8 14be d0cb b9bd ab76 8ebd d7dd 2abe
00000310: 39fe d6bd 272c 56be a90d ffbd e1b4 b2bd
00000320: 2f74 1dbe 7275 1abe 9bba 12be 32fe b1bd
00000330: 1b9e 66be cfea 44bd 0836 fbbd 268b b8bd
00000340: 2b68 39be e19e e8bd 534d 3cbe 8a33 3fbe
00000350: fe27 f7bd 2aab 25be 2609 84bd cfbe 1abe
00000360: ecbc 0cbe 1337 05be 634c 30be d74a 97bd
00000370: ac32 0cbe ce85 d6bd b774 d2bd 447f 85bd
00000380: 30ab 2ebe 9960 77bd 28b4 a4bd c855 edbd
00000390: 5851 20be 5807 1bbe 233e f1bd 95cb cfbd
000003a0: f4e1 1abe 18f9 11be 4d09 d2bd abe3 3bbe
000003b0: 68e6 fcbd 9cfe 23be a7eb 1dbe 4b58 d8bd
000003c0: 23ea 80bd 70d7 8dbd 8c1a 41be 634a 00be
000003d0: bf86 55be 564e 32be 87bd 2dbe 548f 6ebd
000003e0: d7c3 2cbe 0e2b a9bd ca12 a7bd 7ed1 10be
000003f0: 182a 2ebe 0be1 d6bd 494c b8bc a690 503b

action_model._continuous_distribution.log_sigma f4 [1, 8]
-2.962508 -2.8446672 -2.924321 -2.876368 -3.0006676 -2.7863727 -2.9282212 -2.7385252
00000000: bb99 3dc0 070f 36c0 1328 3bc0 6a16 38c0
00000010: f00a 40c0 ee53 32c0 fa67 3bc0 ff43 2fc0
